results/Elemental_Mapping/models/CNN1D_testOdigitria.pt (torch, 278015 bytes, 12 tensors)

conv_layers.0.weight f4 [64, 1, 5]
000000 59 ff 5a bc e0 da 9e be e6 d1 01 bf 22 ab 2c bf
       -0.013366544 -0.31026363 -0.50710905 -0.6744863
000010 c7 70 6e bc 3f 3a e8 bc 89 0a 9e 3b ba 50 f6 3c
       -0.014553255 -0.028348086 0.004823033 0.03006779
000020 18 5f 91 3b 11 69 fd bc b7 00 bb 3c b2 28 4a bf
       0.004436385 -0.030933889 0.02282749 -0.78968346
000030 22 c3 b5 bf ea fb e3 bf 6f 7b f9 3d 47 3f 32 be
       -1.4200175 -1.7811253 0.12181746 -0.17406951
000040 3c ab 84 bf 29 93 6e bf 12 8e 21 bf 9e 58 43 3c
       -1.0364757 -0.931933 -0.6310741 0.011922983
000050 d4 03 21 3c e4 15 cc 3c 7c 1b 5e be bf 0f 68 bf
       0.009827573 0.024912782 -0.21690172 -0.90649027
000060 38 1f 99 be 15 e4 05 be 97 d4 4a bc 3f 62 72 bb
       -0.2990663 -0.13075288 -0.012379787 -0.0036984829
000070 9d 2b 4b bd 77 9e fc b9 77 33 0d bd 57 c9 84 be
       -0.04960214 -0.0004818325 -0.03447291 -0.2593486
000080 6d f3 de be cf d4 d9 be 0e cc ce be 83 90 03 3b
       -0.43545094 -0.42545173 -0.40390056 0.002007515
000090 f1 c0 b8 bd e0 ad a2 bc 1f c6 0a bd 06 8b c6 bb
       -0.09021176 -0.0198583 -0.03388035 -0.0060590534
0000a0 6f f4 94 bd 11 53 ef bc 0b 8b aa be 81 56 43 bc
       -0.072731845 -0.029214414 -0.33309206 -0.01192248
0000b0 3d 12 90 3b cd 0e d5 be 58 11 cc be d5 b1 e2 be
       0.0043967054 -0.41612855 -0.39856982 -0.442763
0000c0 a3 ab f9 be 0a 2d ba 3c 13 90 67 b9 63 f3 ca bb
       -0.4876376 0.022726554 -0.00022083549 -0.0061935647
0000d0 41 a8 ce ba 13 dc a1 bb 11 7c 33 be 8f cf 3c bd
       -0.0015766696 -0.004939565 -0.17527796 -0.04609638
0000e0 d0 25 a9 39 6b 69 a0 3c 1d cc 1d bb ff 47 c9 3c
       0.00032262364 0.019581517 -0.002407796 0.024570463
0000f0 b4 97 de be da e2 1b bc 47 35 9b bd f9 c8 a0 be
       -0.43475115 -0.009514535 -0.07578521 -0.3140333
000100 7e 4a 78 3c c1 00 4d bc 49 8c e8 bb 2a 9f 4c bc
       0.015154479 -0.012512387 -0.0070968014 -0.01248912
000110 aa c5 5f bc c5 d3 12 bc e3 ab b8 be b3 23 a5 bd
       -0.013657967 -0.008961623 -0.3606864 -0.0806345
000120 90 c1 5f bb 88 68 be 3b 82 f7 1d bb 90 2c ff 3c
       -0.0034142472 0.005810801 -0.0024103825 0.031149179
000130 c4 d6 81 3d 3c e6 28 3c c7 45 4d bd e1 7e d4 bc
       0.063397914 0.010308798 -0.050115373 -0.025939407
000140 1b 3c b2 be 7b 4e 9e 3d 77 43 ba 3d 93 d7 0e c0
       -0.34811482 0.07729813 0.09094899 -2.2319076
000150 7c b4 8e bf 66 e3 a9 bc 6b 2c ac bd 74 b0 b3 be
       -1.114883 -0.020738315 -0.084069096 -0.3509556
000160 77 6f 73 3c 02 cf 35 be 0e 4f ad 3c ca cb 3b bb
       0.014858118 -0.17754748 0.02115586 -0.0028655403
000170 79 dc 1e bd 12 39 0e bc 97 ff a4 3c 27 18 14 be
       -0.038784478 -0.008680599 0.020141406 -0.14462338
000180 16 7d 6f bf 9a 5b 60 3c 20 91 da be e1 60 50 3c
       -0.9355024 0.0136937145 -0.42688847 0.01271841
000190 1f 48 65 bc 35 d2 0d 3e 41 ce a8 bf a2 60 19 c0
       -0.013994246 0.13849719 -1.3187944 -2.396523
0001a0 27 6e fe bf e6 2d 9f be 12 f9 eb 3d e7 b7 58 bb
       -1.9877366 -0.31089705 0.11522116 -0.0033068599
0001b0 cc f8 30 be d2 54 01 bf b8 72 05 3d 28 39 66 be
       -0.17282408 -0.5052005 0.032580107 -0.22482741
0001c0 55 51 74 be 2a df 6f bd 85 2d d8 3b 5e f1 a3 bc
       -0.2385915 -0.058562435 0.006597223 -0.020012554
0001d0 14 31 b8 be e8 31 0d be 9a 5c 2b 3c 1c 61 d5 bd
       -0.35974944 -0.13788569 0.01045909 -0.10418913
0001e0 6d 56 09 bd c5 b8 00 bd 16 24 12 bd 44 86 d9 3b
       -0.033529688 -0.03142621 -0.035678945 0.00663832
0001f0 89 44 af bc a2 87 5b 3d 36 9b e3 3d ec e7 78 3d
       -0.021394985 0.053596146 0.111135885 0.060768053
000200 36 87 4d 3b f8 c5 60 3a d4 ba aa bc e7 0b 46 bd
       0.003136111 0.00085744215 -0.02084104 -0.048351195
000210 40 e9 37 3b 97 66 74 3d c3 52 0e 3d ae c9 ff 3c
       0.0028062612 0.05966815 0.034746896 0.031224098
000220 b1 88 05 bf 7e 03 3b bf 4c 5b 68 bc 95 40 25 bd
       -0.521617 -0.73052204 -0.014181923 -0.040344793
000230 48 3c af bc a1 73 08 bc 02 8e 41 bd 8a 5c e8 bd
       -0.021391049 -0.008328349 -0.04725457 -0.113457754
000240 c6 1c c3 bc 57 02 ad bd e3 e3 6c 3b 8e 68 a3 bb
       -0.023817431 -0.08447712 0.0036146573 -0.004986829
000250 4b 63 e9 be 0f de af bc 20 72 00 3d 9e e0 2d bc
       -0.45583567 -0.02146819 0.031358838 -0.010612635
000260 8b 6c 14 c0 a5 89 5c bf 3d ff c2 be 2d 85 66 bd
       -2.319125 -0.8614753 -0.38085356 -0.05627935
000270 40 cd 08 be e6 5c 43 be 27 b9 0a be b0 a3 41 be
       -0.13359547 -0.19078407 -0.13547193 -0.18910098
000280 3f 60 82 bd b3 0c d2 3b 3b cd f9 bc dc 3c 4a be
       -0.06366014 0.0064102053 -0.03049337 -0.19749779
000290 dd a0 a2 bc 60 e5 a9 bf 94 38 bb be 04 24 37 3e
       -0.019852096 -1.3273125 -0.36566603 0.17884833
0002a0 35 bd b3 bc 91 13 8b bf 11 61 25 be b8 cf 06 bb
       -0.021940807 -1.0865346 -0.16150309 -0.0020570587
0002b0 21 12 07 be 19 89 1d 3c 25 e9 91 be 5b 88 4a 3d
       -0.1319051 0.009615206 -0.28498188 0.049446445
0002c0 e4 9d d3 3d af e3 fe 3b df e3 d4 bd 67 23 66 bd
       0.103328496 0.007778607 -0.103950255 -0.056186106
0002d0 22 e7 c9 3b d0 ee 40 bd 20 ea 2d bf c2 b9 58 bf
       0.0061615864 -0.04710275 -0.6793537 -0.84658444
0002e0 9b 04 32 3d 67 a7 8e be ee 4f a7 be 21 76 4a 3a
       0.043461423 -0.27862093 -0.3267817 0.0007723291
0002f0 11 47 d5 be 45 f5 2d be dc a7 99 3a 13 6b 1b 3b
       -0.41655782 -0.16988094 0.0011723 0.0023714944
000300 47 72 5c 3d f0 02 e8 3d 4c a5 7b 3d f4 74 18 bd
       0.05381992 0.11328685 0.061436936 -0.03722091
000310 7f 42 ac bc 8a d9 6d bc 33 72 f1 bb 22 96 12 bb
       -0.021027802 -0.014517197 -0.00736835 -0.0022367318
000320 26 79 d7 bb 1c 6c bd be c5 c4 56 bb 8e dd b5 be
       -0.0065757213 -0.36996543 -0.0032771092 -0.35520595
000330 1a b5 e6 ba 54 9c 54 38 ad f7 30 bc 97 16 c3 38
       -0.001760158 5.069033e-05 -0.010801238 9.302532e-05
000340 45 b2 05 bc 77 a2 1f bf 93 21 ff bd b2 d2 4a 3e
       -0.008160179 -0.62357277 -0.12457576 0.19806936
000350 16 62 cf bf ef 1c f8 bf 61 30 01 3e 0d 40 11 3d
       -1.6201808 -1.938383 0.12616111 0.035461474
000360 20 48 f2 bf 85 e6 7c be 17 93 24 3e 4d 2e f7 be
       -1.8928261 -0.24697311 0.16071735 -0.48277512
000370 e4 dc b7 bd c4 d9 42 be 1c d8 7e bd 4f 05 98 3c
       -0.089776784 -0.19028383 -0.062217817 0.018557219
000380 ea 52 ac bc 2a ac 20 3b 50 83 3a 3b 01 c2 0e bd
       -0.02103563 0.002451668 0.0028459616 -0.034852985
000390 0a 49 a2 be 52 b6 02 bd 6e e4 8f be 94 3d 9b be
       -0.3169635 -0.031912155 -0.28103966 -0.30320418
0003a0 33 32 e2 be df 6f 31 3b 65 aa 2b bb 70 e0 03 c0
       -0.44178924 0.0027074737 -0.0026194092 -2.0605736
0003b0 bf 5e 17 bb ba ea 32 3c e7 20 ab 3d b9 86 69 bf
       -0.0023097245 0.010920221 0.08355885 -0.91221195
0003c0 8f e3 b7 bb 20 8f bc bc 8c 3f ca bd f9 52 4a bc
       -0.005611844 -0.023017466 -0.09875402 -0.012348884
0003d0 ec 78 22 bd 91 13 cb 3c b0 74 38 bc 42 58 0b 3c
       -0.0396661 0.024789603 -0.011258289 0.008504929
0003e0 48 ec 1a bc 6c f5 d4 bc 86 4d ce bd 08 72 fd be
       -0.009455748 -0.025995933 -0.1007338 -0.4950106
0003f0 66 79 f1 be 71 91 e2 3c 17 68 df bc 2f 58 09 be
       -0.47162932 0.027657242 -0.027271314 -0.13412546

conv_layers.0.bias f4 [64]
000000 a4 34 11 bb e2 55 b3 3c 01 63 32 bf c6 fc 9d be
       -0.002215662 0.021891538 -0.6968232 -0.30856913
000010 3b 16 27 bb 35 0f 78 bd d8 80 30 3c 65 86 3a bd
       -0.0025495428 -0.060561378 0.010772906 -0.045538325
000020 23 ac dc bd a2 41 cf bb ed a6 97 bc 2e 51 4f 3c
       -0.1077502 -0.0063249627 -0.018512214 0.012653632
000030 6b 52 ab be ed 42 9e ba 83 85 cf bd 22 d1 bc 3d
       -0.33461317 -0.0012074389 -0.10132887 0.092195764
000040 d8 8b ac bf 57 2a 06 be b7 38 26 3c 84 e1 9c be
       -1.3480177 -0.13102089 0.010145358 -0.30640805
000050 49 4d 1c bf 6c b1 99 bf 01 d5 38 3c e6 93 e2 bd
       -0.6105543 -1.200727 0.011281253 -0.11063366
000060 46 ec 63 bd d8 57 76 bb 27 10 b2 3d c1 9b 31 bf
       -0.05564525 -0.003758898 0.08694487 -0.69378287
000070 9e ce 1b ba f5 da 7b bd 5b 96 65 bf 94 83 41 bb
       -0.0005943569 -0.06148811 -0.8968255 -0.002952789
000080 af 1a f2 bd f4 0d 85 bf 48 4e e1 bd 00 50 84 bb
       -0.11821496 -1.0394883 -0.11001259 -0.004037857
000090 66 59 c8 bb e1 a4 54 bc 75 76 b3 bb 44 58 f8 b9
       -0.0061141727 -0.012978763 -0.0054767677 -0.0004736801
0000a0 5a 94 07 bc 05 23 2f bb 00 9f d0 bf 74 c1 e5 bf
       -0.008275116 -0.0026723754 -1.6298523 -1.7949662
0000b0 e0 f8 88 be 19 be 60 3d 96 74 e4 3c ed b9 b0 bf
       -0.26752377 0.05486879 0.027887624 -1.380674
0000c0 7b f4 1d bd d5 68 9d 3c 92 4d ea be 38 4b 9c ba
       -0.038563233 0.019215027 -0.45762306 -0.0011924272
0000d0 73 28 a4 be f4 8c 51 bd f2 72 57 bd ae 2c 9f ba
       -0.3206211 -0.051159814 -0.052599855 -0.0012144053
0000e0 46 0a 17 c0 59 cc 21 bb 75 30 e5 bf 20 0c d6 bd
       -2.360002 -0.002468845 -1.7905413 -0.104515314
0000f0 2a 50 c7 3d 57 38 27 bd 06 38 98 bf c1 5e 06 bf
       0.09732087 -0.040825214 -1.1892097 -0.52488333

conv_layers.1.weight f4 [64, 64, 3]
000000 9e ab d1 bb de 25 ab 3c d9 a1 1a be 46 f5 31 3d
       -0.006398632 0.02089208 -0.15100802 0.0434468
000010 a6 3c 5f bd 93 08 8b be 25 94 23 3e dc 72 dc 3c
       -0.0545012 -0.2715498 0.15974481 0.026910238
000020 e0 ed ee bd 72 f4 34 bd f7 71 43 bd 50 cc b1 bc
       -0.11666465 -0.044178434 -0.047716107 -0.02170387
000030 d8 79 82 bd ee 57 1f 3e 8d 54 95 3d 70 4c 4a 3c
       -0.06370896 0.15560886 0.072915174 0.012347326
000040 77 2c e1 ba f0 29 23 3d 56 69 80 bd 17 5d 56 be
       -0.0017179389 0.039834917 -0.06270091 -0.20933948
000050 03 8d d5 be 2d 38 9a bd 17 82 6f bd af 6a 91 ba
       -0.41709146 -0.07530246 -0.058473673 -0.0011094416
000060 17 f5 87 3c 45 4b 1b bd e4 0b 9a bd da 7f ce 3d
       0.01659636 -0.03791358 -0.07521799 0.100829795
000070 1d 24 7e be 1d 14 06 3d aa 78 6b 3b 5b 79 1a bd
       -0.24818464 0.032734025 0.0035930076 -0.03771339
000080 cd d9 f7 bc 97 8c 34 bd d4 31 de bd e3 59 75 be
       -0.030255223 -0.04407939 -0.10849348 -0.2396007
000090 33 87 3c 3c ef 98 4a bd c9 fd 9f 3c 04 a3 8c bc
       0.011506843 -0.049462255 0.019530194 -0.017167576
0000a0 9f 22 11 be ac 3f 93 be e0 32 59 be a2 ba 25 be
       -0.14173363 -0.28759515 -0.21210814 -0.16184476
0000b0 af ca 84 bd dc 7b 37 bd c7 f5 d3 bd 2d 3d 4d be
       -0.06483971 -0.044795856 -0.10349613 -0.20042868
0000c0 5a fe df 3d a6 8b 21 3c 56 f0 ab 3d 39 c7 37 bd
       0.109371856 0.009859955 0.0839545 -0.044867728
0000d0 81 01 85 bd db c2 ea bd 05 89 ef bc 14 f2 df bc
       -0.064944275 -0.11462947 -0.02924014 -0.027337112
0000e0 1c e2 42 be a7 38 ec 3d cf 26 17 3e c7 95 bf bd
       -0.19031566 0.11534243 0.14760898 -0.0935474
0000f0 1f a2 2d be a7 ca 11 be 4e f0 fa bd 3b 14 53 3e
       -0.16956376 -0.14237462 -0.12252866 0.20613186
000100 57 cb 14 bd 79 c0 aa bd 23 b8 18 be c9 46 a3 bd
       -0.036326732 -0.083374925 -0.14913993 -0.079724856
000110 7c 22 8b 3c 36 0d 16 bd 64 6a aa bd bb 89 eb bc
       0.016984217 -0.036633693 -0.08321074 -0.028752198
000120 f9 7b 6f 3c 30 22 0e bd 3b d3 bf 3c 6a 4b c9 bc
       0.01461696 -0.034700572 0.023416152 -0.024572093
000130 8a eb 5b bd 6f b3 7b bc 0f a4 8a bc c9 8c 1a 3d
       -0.053691424 -0.0153626045 -0.016923932 0.03773192
000140 b2 30 9f bd 0e 22 94 bd 80 ff 81 bc b2 7a d2 3d
       -0.0777296 -0.07233058 -0.015868902 0.102773085
000150 d6 5f f9 3d 4a 4d a4 bd 38 f3 81 3d b0 de d5 3c
       0.121764824 -0.08022554 0.063452184 0.026107162
000160 9e 1e 58 bc 3d fd 2d bc c9 19 6b bd 3f 7e c7 bd
       -0.013190893 -0.010619459 -0.057397638 -0.097408764
000170 b2 24 ca bd e2 b8 44 bd cf d8 1c 3e 11 6d 1e bd
       -0.0987028 -0.04802788 0.15317081 -0.038678233
000180 2f c4 3f 3c c4 21 aa bc 12 8e 86 bd af 49 ac bd
       0.011704489 -0.020768054 -0.065700665 -0.084124915
000190 30 4e 10 bd 39 51 e3 bc 38 f5 02 3d 3d 07 27 3d
       -0.035230815 -0.02774869 0.03197214 0.040778387
0001a0 54 41 8e bd f9 ea c5 bd 72 24 4c be f8 e9 2d be
       -0.06946054 -0.09663958 -0.19935778 -0.16983783
0001b0 18 75 7d 3d d9 41 cc bd 30 3a 02 be 5c 81 86 3c
       0.061879247 -0.09973497 -0.1271751 0.016419105
0001c0 88 4a d1 bd 3c d3 a8 bd 70 32 ae bd 9e 66 0c bd
       -0.10219294 -0.08243415 -0.08505714 -0.03427755
0001d0 f7 19 4a be dd b8 5d bc fe 01 ae bd da ed f8 bd
       -0.19736467 -0.013532844 -0.08496474 -0.121547416
0001e0 0e e5 34 3d f0 b0 43 3d da 24 61 bc ff 33 da 3c
       0.044163756 0.047776163 -0.013741696 0.026636122
0001f0 d2 53 36 3d 6e d2 46 be 96 d4 2a 3d 36 88 97 3c
       0.04451353 -0.1941621 0.041706644 0.018497568
000200 20 50 86 3d 8f 41 ee 3d 3c a4 77 bd ed b0 a3 3c
       0.065582514 0.11633598 -0.06045936 0.019981826
000210 47 27 c7 bc 20 a0 83 bd c4 e5 24 bd 9a 50 4c be
       -0.024310721 -0.06427026 -0.040258184 -0.19952622
000220 2f 99 4a be 1b d6 ab be 6a bf cb 3d 94 4a 8f bc
       -0.19784997 -0.33561787 0.09948619 -0.017491616
000230 b2 c7 48 bd bc d7 39 3d 2d b6 4d 3d be a8 22 bc
       -0.04901857 0.045371756 0.050222564 -0.009927927
000240 15 31 0b bd f2 4d cb bc 54 19 cf bd fe b7 86 bd
       -0.033982355 -0.02481744 -0.10112253 -0.065780625
000250 70 69 62 3b 8c 2c b8 bd 77 7f 02 3d b1 6d 82 bd
       0.003454771 -0.08992872 0.03185984 -0.06368578
000260 7c 1c 18 be 17 09 af bd 20 47 83 3c 06 5d a2 bd
       -0.14854616 -0.085466556 0.016025126 -0.07927899
000270 4f 65 96 3d 74 63 92 bd 01 e8 39 bc 82 31 33 bb
       0.07343542 -0.071478754 -0.011346818 -0.0027342741
000280 30 2a 17 bd 2b 67 c3 bd e4 86 91 38 22 20 4d be
       -0.036905468 -0.09541162 6.939264e-05 -0.20031789
000290 0b ca 4b bc f8 da 87 bd 3a 74 56 be 0c 38 70 be
       -0.0124383075 -0.06633562 -0.20942774 -0.2345888
0002a0 d7 1c 6f bd 0f 70 af bd b9 22 a2 bb 55 89 2a bc
       -0.058377113 -0.08566295 -0.004947987 -0.010408719
0002b0 d4 2b ee bd c0 08 18 be b3 3b b7 bd d6 9c 2f bc
       -0.11629453 -0.14847088 -0.089469336 -0.010718545
0002c0 b7 a2 89 bd 26 1a 08 be 85 08 3c be 12 40 8a be
       -0.067204885 -0.13291225 -0.18362625 -0.27002007
0002d0 44 35 66 be 83 a6 92 be 63 61 b6 be 5b 6b a9 bd
       -0.22481257 -0.28642663 -0.35621175 -0.082724296
0002e0 51 c9 ae bc 3e 39 2a bb fe a8 26 3d 4c f9 0b bd
       -0.02133623 -0.002597406 0.040688507 -0.034173295
0002f0 2c d5 1a bd db a0 fe bd 0a 1c ca bd 35 4e e5 bc
       -0.037800953 -0.124330245 -0.09868629 -0.027991394
000300 4b 45 6e c0 ba d5 92 bd 8e 7c 18 3e b8 df 21 3d
       -3.7229793 -0.07169671 0.14891264 0.039519995
000310 18 54 0d 3f 1b 3b 29 be ee 7d 5f 3f d0 a0 0e bf
       0.5520644 -0.16526453 0.8730153 -0.5571413
000320 0e 67 07 bf d9 c7 fd be 02 f3 5e bd c6 55 fb bd
       -0.52891624 -0.49566534 -0.05443097 -0.12272219
000330 6a 29 98 be b7 ea 4e 3f 5e f3 5f 3e 80 d1 0f 3f
       -0.29719096 0.80826896 0.21870181 0.56179047
000340 2b 6c 00 be d0 f7 dc 3d 50 06 56 40 7b 80 a3 3e
       -0.12541263 0.10789454 3.3441353 0.3193396
000350 1a 53 fb be 67 62 b4 bd ac f0 ce bc 5c 8d 0c 3e
       -0.4908684 -0.08807831 -0.025261246 0.137258
000360 d1 65 32 be 70 10 fe 3c 3e e7 19 bf cd fd 44 3f
       -0.17421652 0.031013697 -0.6011847 0.7694977
000370 65 f6 36 bd ef 17 06 bf 6a fe 3f bf 13 af 3e be
       -0.044668574 -0.5238027 -0.7499758 -0.18621473
000380 2f 1f af be c8 0b 6b bd 5b f6 45 be d1 79 0b be
       -0.3420348 -0.057384282 -0.19332258 -0.13620688
000390 e0 96 b1 bc 25 ce 81 bc 3b 39 79 bc eb bb 5a 40
       -0.021678388 -0.015845368 -0.015211399 3.4177196
0003a0 2c bd 70 be f1 36 90 be e0 d2 15 bf 13 76 14 bf
       -0.23509663 -0.28166917 -0.58524895 -0.57992667
0003b0 f8 84 24 be bb 32 90 be 71 5f a4 3e c2 6d 91 be
       -0.16066349 -0.28163704 0.32104066 -0.2840405
0003c0 7a a1 0b 3e e0 02 b6 bf 27 f9 df 3f 9b 89 50 bd
       0.13635817 -1.4219627 1.749791 -0.05091248
0003d0 a3 8d 08 3d 97 36 18 3d 29 94 2f bf f9 51 32 3d
       0.0333382 0.037161436 -0.6858545 0.043535206
0003e0 fb c5 7e bf 5a 27 a7 3f 43 75 a0 3e 19 10 cb be
       -0.99520844 1.3058884 0.31339464 -0.3966072
0003f0 5b d2 b4 bf 5f 2f 22 3f 25 cd ab be 63 90 8a bd
       -1.4126695 0.6335353 -0.3355495 -0.06765821

conv_layers.1.bias f4 [64]
000000 c3 aa 58 3d 3b 1e 11 c0 c0 07 86 bd 37 c6 1e bd
       0.052897226 -2.2674701 -0.06544447 -0.03876325
000010 1b e1 c9 3d 1e e8 36 be 61 7e 0b 3e 54 43 88 bd
       0.098573886 -0.17861983 0.13622428 -0.06653467
000020 8d 01 61 bd 1b 85 a5 3d b5 94 73 3d 01 e6 0a bc
       -0.05493312 0.080820285 0.05946799 -0.008477689
000030 a5 cb eb 3d 72 4d 16 3c f0 05 c6 3c 53 be 6a be
       0.115134515 0.009173738 0.024172753 -0.22924165
000040 c4 bc df be fb 89 8b bd 93 77 cd 3c fd 94 d2 3d
       -0.43698704 -0.06813427 0.025081431 0.102823235
000050 66 90 1e bb c1 bf 8a bd ef 7c 7f 3d b6 d8 d4 be
       -0.0024194955 -0.067748554 0.062375005 -0.41571587
000060 ec bc a1 3d 79 d0 a7 bd c9 0b c5 bc a0 ac 9f 3c
       0.07897362 -0.0819406 -0.024053471 0.019491494
000070 d5 1f 26 be f6 25 8c be bc 96 2b 3d 81 0b 4d 3d
       -0.1622308 -0.27372712 0.0418918 0.0500598
000080 67 a2 f2 3b b0 38 22 3e b4 cd 66 3d 0d 86 d1 bc
       0.007404614 0.15841937 0.056348518 -0.025576616
000090 d8 57 ac be aa 6a 06 3e 25 91 b1 bd f9 05 0c bf
       -0.3366077 0.13126627 -0.08670262 -0.54696614
0000a0 40 7b f9 3c 51 3f e7 3e 7c 81 05 3f 33 4d 07 3e
       0.030454278 0.45165494 0.521507 0.13213043
0000b0 f4 71 a5 bd 71 c6 2d 3d f0 d2 d0 bc 12 9f 6a 3e
       -0.080783755 0.042425577 -0.025491208 0.22912243
0000c0 c8 24 37 3e 05 d2 34 3e 62 ce 80 bd f7 37 04 be
       0.17885125 0.17658241 -0.062893644 -0.12911974
0000d0 19 c4 bc 3d b6 ef d5 3c fc 8a 47 3d 27 93 34 3d
       0.0921709 0.02611528 0.04871653 0.044085648
0000e0 04 77 10 3e 40 67 06 bd 87 0c 6f bd 79 d1 2e bf
       0.14107901 -0.03281331 -0.058361556 -0.6828838
0000f0 11 87 de 3d 4d f3 1e 3d 4b 6a 60 be f0 ca 3f bc
       0.108656056 0.03880625 -0.21915548 -0.011706099

conv_layers.2.weight f4 [64, 64, 3]
000000 f6 68 e2 bc 57 5b 04 3d 48 d9 1d 3e f7 1f b6 bf
       -0.02763794 0.03231367 0.15414917 -1.4228505
000010 25 e7 27 3f 2f 91 c2 be 4f 55 42 bc 9d d7 c4 bc
       0.65587074 -0.3800139 -0.0118611595 -0.024028594
000020 51 41 ac 3d 6b 78 b2 bd c0 56 e4 bc 09 c3 26 3e
       0.084108956 -0.08714374 -0.027873397 0.16285338
000030 c1 b2 91 3d 9e c7 2e 3e 5f 56 80 3d 1b 2c 07 bf
       0.07114173 0.17068335 0.06266474 -0.52801675
000040 9b 33 20 3f fe 5c 53 bf e8 cf 87 3c 1b fe da 3d
       0.62578744 -0.8256377 0.01657863 0.10692998
000050 77 7b e4 3d 76 25 da 3e c2 9f b2 be 7b 5c 34 3e
       0.111563616 0.42606705 -0.3488751 0.17613403
000060 24 dd 6c bd ad 5b a6 3d f0 69 bb bd 96 28 04 3e
       -0.057828084 0.081229545 -0.09151065 0.12906107
000070 47 6a b0 be 42 1a 7f be 54 2f 13 3d 43 c9 5e 3e
       -0.34456083 -0.2491236 0.035933807 0.21756463
000080 33 47 a1 3a f6 87 93 3d b7 59 de b9 d4 a2 8e bd
       0.0012304544 0.07203667 -0.00042409982 -0.06964651
000090 eb 37 e7 bd dc 8e 2a be 6b ae fb bd ba 81 99 3c
       -0.112899624 -0.16656059 -0.12289127 0.018738616
0000a0 64 2c b2 bc 44 be 0c bd 74 03 4b 3d 84 9b 10 be
       -0.021749683 -0.03436114 0.04956384 -0.14121825
0000b0 c2 5b f9 3a f0 38 41 3e 05 b5 97 be 5f 94 ad 3d
       0.0019024538 0.18869376 -0.29630294 0.08475565
0000c0 dd ef 06 bf 41 2d cd bd 9d fa 03 be 0c f9 9c bd
       -0.5270975 -0.10018397 -0.1288857 -0.076646894
0000d0 5b 85 e4 bc 3d c7 27 3d c9 45 fe bd 9a 95 0b 3e
       -0.02789562 0.040961493 -0.12415654 0.13631287
0000e0 b6 9d 9c 3c 25 49 6f be 17 7e 89 3d 39 af c9 bd
       0.019118171 -0.23367746 0.06713503 -0.09847874
0000f0 1f 28 40 bd b9 90 b1 3b 33 8f e5 bd 54 b5 b4 be
       -0.046913262 0.0054188636 -0.11208954 -0.35294592
000100 0d 3e 97 3e e8 c9 de bd ef c4 43 be a6 21 71 3e
       0.29539528 -0.10878354 -0.19118093 0.23547992
000110 39 e3 e5 3d 88 af 80 3e 43 b4 bb 3f 9f ab b8 c0
       0.1122498 0.2513392 1.4664387 -5.77095
000120 79 6d 2c be 50 71 2d be 91 1d 38 be 89 3e 07 be
       -0.16838636 -0.16937757 -0.17980029 -0.13207449
000130 c2 0a e3 bd 97 35 2c 3d 4d e4 e1 be e2 88 d4 3e
       -0.11086036 0.042043295 -0.44119492 0.41510683
000140 8d 39 58 3d 02 b5 9e 3d 63 88 0b bc 54 40 35 3e
       0.05278926 0.07749368 -0.008516404 0.1770032
000150 05 a6 40 be 96 e3 b0 bd bb c6 e7 bd 2b 20 a2 be
       -0.18813331 -0.086371586 -0.11317202 -0.31665167
000160 37 fc 7b be e2 23 f5 be 6f 14 d3 3d d3 05 12 be
       -0.24607931 -0.4787894 0.10306632 -0.14260034
000170 82 12 77 3e 5f 7c 53 3c 9b b9 bf 3d d2 71 4a 3e
       0.24128154 0.01290807 0.09361573 0.19769982
000180 93 8a 1a 3e 21 21 8e bd cb 71 ff 3d e6 f0 47 be
       0.15091924 -0.069399126 0.12472876 -0.19525489
000190 92 a9 d3 3c aa c1 b4 bd 85 7d bb 3d 5f a7 30 3e
       0.025837693 -0.08826001 0.091548 0.17251347
0001a0 10 31 62 3d 31 70 0a 3d ca 33 27 3d f7 75 d1 3d
       0.05522257 0.0337984 0.040820874 0.10227578
0001b0 10 10 64 3e 7f 69 45 be cc 40 91 3e 2d ef 31 bd
       0.22271752 -0.19278525 0.2836975 -0.043440986
0001c0 ba 8c 10 be 4f 0b 91 3d e0 19 82 3c 21 17 60 bd
       -0.14116183 0.07082235 0.015881479 -0.054709557
0001d0 e8 39 e0 3d f7 fc 9d be 2b 93 23 bd 42 15 ba be
       0.10948545 -0.3085706 -0.039935272 -0.36344343
0001e0 68 a9 50 3e 77 d6 35 3e dd 4c 5a 3e cc 69 05 bf
       0.20377123 0.17757593 0.21318384 -0.5211456
0001f0 db f5 b7 be 18 c9 5c be c5 17 7d 3f 16 79 d3 bd
       -0.3592976 -0.21561086 0.98864394 -0.1032583
000200 cf 1b 7c be d3 1f a6 3c 6a 61 e0 3d 8b a4 3c 3d
       -0.24619983 0.020278847 0.1095608 0.046055358
000210 f0 2d 89 3c c4 2c b9 bc 40 6d b8 3b c8 fa 19 3f
       0.016745538 -0.022604354 0.005628258 0.60148287
000220 38 dc e8 bd d9 d9 0d 3d a6 76 2c bb 5b ef c6 3c
       -0.113701284 0.034631584 -0.0026315837 0.024284055
000230 b3 a7 7d bd 4f 89 c7 3c b6 f1 b2 3d f4 e6 07 3e
       -0.06192751 0.024357466 0.08737509 0.13271695
000240 e3 70 74 bf 47 e9 ad bd f7 1f 80 be 1a 21 be 3e
       -0.9548475 -0.0849176 -0.25024387 0.3713463
000250 4f 3f 09 3e 3d d3 db 3e 2e 05 04 3d c3 54 8f bc
       0.13403057 0.429346 0.032231502 -0.017496472
000260 20 44 47 3c 65 86 98 3e 7c c9 c5 3c dd 44 0b be
       0.012162238 0.29790035 0.024143927 -0.13600488
000270 6f 04 b9 bd 55 b9 ff 3e 68 79 dd be 68 8c 9d bb
       -0.09034049 0.49946085 -0.43256688 -0.0048079975
000280 b3 c7 81 bd a2 f5 90 3d dd 78 09 3f a1 b9 d0 3e
       -0.06336918 0.07078101 0.5370005 0.40766624
000290 9c 73 97 3e 98 9c 6b be 91 e4 86 3c 33 1a 05 bf
       0.2958039 -0.23008955 0.01646641 -0.519931
0002a0 96 20 9d bd 9d 63 02 3e 5a 95 b2 bc ab 4e 84 bf
       -0.07672231 0.12733312 -0.021799732 -1.0336508
0002b0 c4 ae 0a bf 7f 77 87 3d b2 b4 58 3d 5f 6a f9 3c
       -0.5417292 0.06614589 0.0529067 0.03044623
0002c0 14 53 dd bc ea e5 89 bf ba f1 42 bf d4 53 ee bd
       -0.027017154 -1.0773289 -0.76150095 -0.11637083
0002d0 1b 3e 58 3d b0 e8 d0 bc e2 f5 b7 3c 05 f9 c4 bd
       0.052793603 -0.025501579 0.022456113 -0.09617809
0002e0 d2 54 1a 3e c5 c0 28 be 6f 39 96 3d a5 af eb 3d
       0.15071419 -0.16479786 0.07335173 0.11508111
0002f0 3c b1 3f bd 7e 14 e2 be 82 af 1d 3e 43 c3 19 3e
       -0.046799883 -0.4415626 0.15398982 0.15015893
000300 3b 9a e9 3b e6 10 d6 3d 7b c0 35 3e b9 38 6f 3e
       0.0071289814 0.10452442 0.17749207 0.23361482
000310 50 c7 d3 3e 3f 00 0c bf 99 7a 06 3d 9d f4 df bc
       0.41363 -0.54687876 0.032831762 -0.02733832
000320 6c 5f 69 bd 39 28 12 3d 86 b8 0a 3b 92 48 75 3d
       -0.056975767 0.03568289 0.0021167113 0.05988366
000330 f2 e1 6c 3c 50 f8 0b bc 49 14 27 3c e6 76 07 3e
       0.014458166 -0.008543089 0.010197707 0.1322895
000340 65 4c 26 bc fa 62 09 bd a5 b7 cd bc f1 9b e2 3b
       -0.01015005 -0.033541657 -0.025111983 0.0069155623
000350 c7 8c 6c bc 71 63 59 be bb 14 dd 3c 1e e2 39 be
       -0.014437861 -0.2122934 0.026987424 -0.18152663
000360 5c c7 5e 3d 5e 89 50 bc 12 43 07 3d fd df 36 be
       0.054389343 -0.012728063 0.033022948 -0.17858882
000370 00 c0 f2 bc 84 d1 6d bc de f5 d4 bc 7c 13 4a bc
       -0.029632568 -0.014515284 -0.025996145 -0.012333747
000380 af 65 f1 bb 33 f9 75 bd 75 c2 78 3d 88 29 61 3d
       -0.007366858 -0.060052108 0.060732324 0.054971248
000390 a2 db bb bc 11 06 46 3c aa 7f 29 bd 2b 30 78 3d
       -0.022931878 0.012086407 -0.041381516 0.06059281
0003a0 16 d6 d6 bc 67 ba a3 3d 59 11 c4 bc 33 cd ab bc
       -0.026225131 0.07994538 -0.023934053 -0.02097187
0003b0 d7 da 8f ba 77 37 02 be da 7d 05 3e c4 7a 7e bd
       -0.0010975254 -0.1271647 0.1303629 -0.062128797
0003c0 ac 21 07 3d ea 8b 1d 3e c4 de 7e bf 60 80 7e 3d
       0.032991096 0.15385404 -0.99558663 0.062134147
0003d0 e8 42 62 bc 00 5c 02 be 22 6d 75 bd 12 7c 59 3c
       -0.013809897 -0.12730408 -0.05991853 0.01327421
0003e0 58 4e 88 ba e6 2e 1d 3b 2a df 2e 3d 93 d2 eb 3c
       -0.0010399325 0.0023984252 0.042693295 0.028786933
0003f0 86 0a 4f bd 21 8d 41 3d b3 66 19 3c f3 5a a1 be
       -0.050547145 0.04725373 0.009362864 -0.315147

conv_layers.2.bias f4 [64]
000000 28 ff b4 3b a9 76 0b 3f 8b b9 ad 3f a9 50 30 bf
       0.005523581 0.54477936 1.3572248 -0.6887308
000010 90 49 d3 3e c3 55 f5 3e ee 6a 4a bf 5b d5 5a 3e
       0.4126706 0.47916993 -0.7906941 0.21370451
000020 7a 5d 37 3e b7 2d 90 3c 46 dc 0c bf 6a cc 82 bf
       0.17906752 0.017599924 -0.5502361 -1.0218632
000030 c2 8e a7 3f 85 2a a3 be 35 5d ef be 29 b6 01 be
       1.3090441 -0.31868377 -0.467508 -0.12667145
000040 c0 f5 a5 bd 56 24 5c be ae 13 66 3f de 44 13 3d
       -0.08103514 -0.21498236 0.8987378 0.03595435
000050 db f5 81 3d 2f 02 06 3f eb ab cd 3c de 36 ab 3e
       0.06345721 0.5234708 0.025106391 0.33440298
000060 11 a4 0a bd df 6f b5 be 78 d3 21 bd 8e 24 3f 3e
       -0.033847872 -0.35436913 -0.039508313 0.18666288
000070 ec 24 0f 3f 4f 08 1d bf e8 14 53 bb 47 e1 15 3f
       0.55915713 -0.613408 -0.0032208506 0.5854687
000080 bb 2c c7 3e cb 72 2a bd cf a7 08 bd a4 7b cd 3d
       0.38901314 -0.04161338 -0.03336316 0.10033348
000090 63 54 5f 3f c7 4c 15 3f ee 8a c1 3e 30 23 a4 3e
       0.8723814 0.5832028 0.37801307 0.32058096
0000a0 2c 1d 9f bd 1d 41 12 be 72 78 61 bb fe 63 3d bd
       -0.07769236 -0.14282651 -0.0034404066 -0.046237938
0000b0 c8 c4 51 bf 67 79 d8 be 65 68 47 bd e7 21 1a 3d
       -0.8194089 -0.42280123 -0.048683543 0.037629988
0000c0 4f 3d 08 3f 7c 1d 54 3f 29 99 6f be 67 37 8c be
       0.5321855 0.8285749 -0.2339827 -0.2738602
0000d0 3e 46 9a 3e fe 13 ec be 2a f9 17 bf f2 13 a0 3f
       0.30131716 -0.46109003 -0.5936457 1.2506087
0000e0 c1 ec 0f be 73 d8 5d 3f 6e 63 38 3f ed ed ad 3e
       -0.14055158 0.866584 0.7202672 0.33970585
0000f0 36 4b 9c be fb c1 ee 3d 37 c6 d6 3e 30 71 c8 bd
       -0.3052613 0.116580926 0.419481 -0.09787214

conv_layers.3.weight f4 [64, 64, 3]
000000 c3 8c 6c 3f 15 03 1d be 98 a1 a6 3e 39 4f 5d be
       0.92402285 -0.15333207 0.3254516 -0.21612252
000010 d8 cb 10 bf 12 a8 57 bf 6f 4d 5a 3f 66 84 f7 bc
       -0.5656104 -0.8424083 0.85274404 -0.0302145
000020 dd cc f5 3b 7b a0 59 bb e3 3b b9 be a9 19 b6 bd
       0.0075012282 -0.0033207226 -0.36178502 -0.08891613
000030 48 64 83 be 51 03 d1 be 62 a1 94 be 82 8f 26 3f
       -0.25662446 -0.40822843 -0.29029375 0.65062726
000040 36 cd 90 3f 78 74 8e 3e 15 29 13 bf 9e 47 ef be
       1.1312625 0.27823234 -0.5748456 -0.46734327
000050 2f 75 d4 be 49 38 e9 bd 52 4e 2d bd 4f bf 00 3e
       -0.41495654 -0.11387689 -0.04231102 0.12572978
000060 c8 1e 63 bf 5d 28 0c c0 e0 74 e5 be 29 e0 30 3d
       -0.88718843 -2.1899636 -0.4481573 0.043182526
000070 cb e5 5d bc e3 bd 12 bd d7 cf ba be 4c e4 f1 3d
       -0.013543556 -0.03582562 -0.36486694 0.11811122
000080 c5 aa 2c 3f 7a 4a d2 3d 3f 88 24 3e 67 dd 76 bd
       0.67448074 0.102681115 0.16067599 -0.06026974
000090 4b 44 58 3d af 68 85 3f ab 0f 53 bd 66 35 97 be
       0.052799504 1.0422572 -0.051528614 -0.29532927
0000a0 2d 77 99 c0 c0 3c a4 be e4 58 ee 3d 96 cd d5 3e
       -4.795798 -0.320776 0.11638048 0.41758412
0000b0 79 4d ae 3e 66 d0 be 3d a0 2a 42 3d 74 1e ce be
       0.34043482 0.093170926 0.04740393 -0.4025761
0000c0 e7 72 3a bd b8 16 6e bc 2d 80 4c 3d a8 73 df bf
       -0.045519736 -0.014531784 0.049926925 -1.745717
0000d0 48 b5 0a be 21 b8 52 be cb bd 4a 3d 62 d1 a9 be
       -0.13545716 -0.20578052 0.049497407 -0.3316756
0000e0 90 b6 cd 3c 33 e3 dc be 00 ad 28 be 9e ff 53 be
       0.025111467 -0.4314209 -0.16472244 -0.20702979
0000f0 19 19 a9 bf f2 55 dc 3d 71 d2 cf 3e f9 1f 2e bf
       -1.3210784 0.1075858 0.40590242 -0.68017536
000100 b5 e8 f8 3d 78 c5 55 3e 10 ac 18 3d d8 dc 63 bd
       0.1215376 0.2087611 0.037273467 -0.055630535
000110 17 8b 4f 3b 60 83 48 3e 17 77 94 bf ad 63 a6 3f
       0.0031668597 0.19581366 -1.1598843 1.2999169
000120 9e 0b eb b9 f5 83 66 3d 97 08 46 3d ee 95 4e 3e
       -0.00044831348 0.056278188 0.048348036 0.20174381
000130 da a2 14 3f f5 dd 26 be c9 25 d6 3d 74 91 3a 3e
       0.5806099 -0.16295607 0.10456426 0.18219548
000140 cd 92 02 bf e0 9e cf be d4 eb 8a 3e 3f 4d 4c be
       -0.5100525 -0.405509 0.27133048 -0.19951342
000150 2d e2 0c 3f cb af aa bc 61 97 af be 79 7b 63 be
       0.55032617 -0.020835778 -0.3429518 -0.2221507
000160 09 92 42 3e be 61 7f 3e aa 21 d8 3c 1b 17 83 3c
       0.1900102 0.2493963 0.02638324 0.016002228
000170 c6 45 89 ba 26 4b 0c bd fe 16 2b 3e 03 aa b1 3e
       -0.0010473065 -0.034251355 0.1670799 0.3470002
000180 48 37 a6 be c1 fd 1f 3d 9e 72 04 bd cf fc 55 bf
       -0.3246405 0.039060358 -0.03233587 -0.8358888
000190 64 e8 c2 be 1c 33 9f bf d7 bd 88 3d 45 2c 97 3d
       -0.38067925 -1.2437472 0.06676834 0.073814906
0001a0 5e b1 72 3d bb 52 3d bf b5 64 d8 bd 45 30 12 3e
       0.05925118 -0.7395436 -0.10566083 0.14276226
0001b0 a1 a8 f0 3d f4 8c d0 3e 53 a5 01 bf 2a fa d3 3d
       0.117509134 0.4073254 -0.5064289 0.103504494
0001c0 e4 6f e3 3e b7 24 b2 3e 13 95 58 3f 8c 71 aa 3d
       0.44421303 0.34793636 0.8460247 0.083224386
0001d0 c2 86 84 3e c2 5f d6 3d 1f e6 c9 3e fb 42 c0 3d
       0.25884062 0.10467483 0.3943338 0.093877755
0001e0 21 a4 f9 3c dc 39 30 3d fe 32 10 3d 17 90 36 3e
       0.03047377 0.04302393 0.03520488 0.17828403
0001f0 fc b6 11 3f f1 bb 8d 3d e1 df ee be eb 77 76 bf
       0.56919837 0.069206126 -0.4665518 -0.9627673
000200 20 be 76 3b cf f0 c3 bf 26 52 a5 c0 ba b0 99 bf
       0.0037649944 -1.5307864 -5.166278 -1.2007058
000210 bc 24 46 bf b6 87 03 40 a5 af 06 bf ec 9b 8b bf
       -0.773998 2.0551581 -0.5261176 -1.0906959
000220 fe db 43 c0 80 90 c3 bd 71 8d e9 bb 1c d5 2a bc
       -3.0603023 -0.095490456 -0.007127457 -0.010426786
000230 cc 6b d4 ba 2c 56 07 bf ab fb 9e 3e d0 14 ad 3c
       -0.0016206442 -0.5286586 0.31051382 0.021128088
000240 d2 67 2d 3f c1 7e 18 3f 89 18 31 be bc d1 fd bd
       0.6773654 0.5956841 -0.17294516 -0.12393519
000250 04 d2 27 3f ac fc 80 bd 92 f7 0e 3f cd 0e af 3e
       0.65554833 -0.06298193 0.5584651 0.3419098
000260 d8 da 81 3d 01 fc 7e bf 1c ae b6 3c e0 ef 8f c0
       0.06340569 -0.9960328 0.022299819 -4.4980316
000270 eb 9b 5b 3e c7 7b 4c 3f 0e 1e ec 3c c2 70 5c 3e
       0.21446197 0.7987637 0.028822925 0.21527389
000280 14 12 cd be fc f6 31 bf 87 0c 8a 3d 11 64 49 bf
       -0.40052855 -0.69517493 0.06740671 -0.78668314
000290 31 97 92 3e 8f ef 24 3e f5 53 0d 3f ac 2f 4e bd
       0.28630975 0.1610701 0.55206233 -0.050338432
0002a0 8f 15 95 3d f3 45 c9 bb 6d ed 3b 3d 48 42 fe 3e
       0.072795026 -0.006142372 0.045880724 0.49659944
0002b0 c9 66 b2 3d 47 b5 01 3f b6 b0 c3 be 08 38 53 3d
       0.08711011 0.5066723 -0.38220757 0.051567107
0002c0 30 7d 48 be f8 ee 7b be 48 00 b1 be 08 59 a2 3e
       -0.19579005 -0.24602878 -0.34570527 0.3170855
0002d0 3b 1e b6 bf 5b 49 d8 c0 ed e2 14 bf 6d 81 4d bf
       -1.4227976 -6.7589545 -0.5815876 -0.80275613
0002e0 f8 4b 9a bf 5d a2 1c 3f 93 aa 0c 3d 54 2e 22 3e
       -1.2054434 0.61185247 0.03434236 0.15837985
0002f0 fb 0d 24 3f 1b ba d9 bc 92 e3 31 3d cd cc 00 3e
       0.6408383 -0.026578 0.04342992 0.12578125
000300 f5 b8 cc 3e 04 a3 b9 bb cc 46 7b be 9f bc 06 40
       0.3998486 -0.005665185 -0.24538726 2.1052625
000310 3f e1 76 bf b6 e0 97 be d8 f2 08 c0 f9 56 d8 3f
       -0.9643745 -0.29663628 -2.139822 1.6901542
000320 c0 44 b5 3d 7b cb 42 c0 8f e5 0a 3e 3d 9b a5 bf
       0.08851004 -3.0436695 0.13564132 -1.2938
000330 33 c2 de 3f d8 bf fb 3d 96 85 f2 bd 37 f3 b4 3e
       1.7403015 0.12292451 -0.11841886 0.35341808
000340 2b d6 03 3e 4c 72 5a 3d e5 20 69 bf 17 5c 0b be
       0.12874667 0.05333166 -0.9106582 -0.13609348
000350 27 0f 5d bd 3a 34 69 bf f7 72 44 3e da 1c e5 bd
       -0.05396953 -0.91095316 0.1918448 -0.111871436
000360 11 4a f8 3d 0b 80 44 bf a2 94 a6 3e 04 9a 02 bd
       0.12123502 -0.7675788 0.32535273 -0.031885162
000370 f8 14 13 bb 0a 86 8a bc d3 d4 0f 3f 61 a5 c5 bd
       -0.0022442918 -0.016909618 0.5618412 -0.09650684
000380 ad 79 cf bc 0b f5 54 be d7 88 c6 bc eb af f8 bb
       -0.025326574 -0.20796601 -0.024235172 -0.0075893304
000390 32 53 ab bd 01 5b 73 3e 18 af 20 bc 0b 42 bc 3d
       -0.083654776 0.23765184 -0.009807371 0.09192284
0003a0 69 ca ef bd 19 37 bc bd f4 f6 d9 bf b6 35 33 bd
       -0.117085285 -0.091901965 -1.7028489 -0.043752395
0003b0 d7 bf 8f bf 82 69 f0 3e d1 bc 70 3e e6 6c e8 3d
       -1.123042 0.46955496 0.23509528 0.11348896
0003c0 7a 9c 12 3d 78 21 f4 bc 72 20 8a b9 40 af 48 3f
       0.03579376 -0.029801115 -0.00026345585 0.7839241
0003d0 bb 36 16 be 26 2f 27 be 6f d4 8d be 0c 3b 74 bd
       -0.14669316 -0.1632658 -0.27701136 -0.059626624
0003e0 20 d3 08 3d 40 5f a9 3e 76 8e 9b be 65 68 af 3e
       0.03340447 0.33080482 -0.30382127 0.34259334
0003f0 d6 10 65 bf 0f 1b 73 3e 8d 87 36 bf 21 cb a1 3e
       -0.89478815 0.23740791 -0.71300584 0.31600288

conv_layers.3.bias f4 [64]
000000 1e f5 a3 3e 34 e5 b3 3f ec 5b c4 3f 28 64 82 3e
       0.32022947 1.4054322 1.5340552 0.25467038
000010 37 e0 e3 bd 00 64 a7 3e 66 ba 98 bd 6a 31 1f 3f
       -0.1112675 0.3269348 -0.07457428 0.62184775
000020 2c a4 9d bd 15 6a 59 bd bd cc e7 bb ee 0d e6 3e
       -0.07697329 -0.053079683 -0.0070739673 0.44932503
000030 a9 76 fa be bf 08 e0 3e 29 1e cb be e1 49 03 be
       -0.48918656 0.43756673 -0.39671448 -0.12821151
000040 d7 26 41 3f 9b a7 c8 be e9 9d 3e bd 20 8c 8c bf
       0.7544989 -0.39190373 -0.046537314 -1.0980263
000050 b4 31 86 be 09 b1 f1 bf 2b fa c0 3f 52 f6 b6 3f
       -0.26209795 -1.8882152 1.5076345 1.4293921
000060 13 de bc bc b7 d0 3f 40 c4 63 f7 3f 59 d9 14 bf
       -0.023055112 2.997114 1.9327321 -0.58144146
000070 e4 6e 23 3f 11 0a cb 3f af f1 10 bd a7 6c 1a 3f
       0.6384108 1.5862447 -0.035386737 0.6032204
000080 22 00 a4 3f bb 15 98 3e 48 cf 22 c0 42 22 ff 3d
       1.281254 0.2970408 -2.5439014 0.12457706
000090 1b 1d 81 bf 85 0a 49 bf 45 32 e9 3e 8b ca 06 40
       -1.0087007 -0.78531677 0.45546165 2.1061122
0000a0 cb 73 34 bf 6f 69 8a be 2d 49 81 3f bc 79 a4 3f
       -0.70489186 -0.27033564 1.0100456 1.284965
0000b0 9c e4 b0 be d8 a8 e2 3f 13 b6 05 3f 5a ab 7d be
       -0.34549415 1.7707777 0.5223095 -0.24772397
0000c0 f6 54 8e 3f ff 0f 84 bd d7 12 84 40 ae 2c 68 bd
       1.1119678 -0.064483635 4.1273 -0.056683235
0000d0 0b 45 b9 bf 59 47 63 3c 63 4c f9 be 79 a1 fa 3f
       -1.4474195 0.013871991 -0.4869109 1.9580528
0000e0 df a9 97 be 20 81 13 c0 70 75 1a 3f 8a b8 4e 3f
       -0.2962179 -2.3047562 0.60335445 0.80750334
0000f0 db 32 f2 3f 24 19 b0 3f ed d2 37 3f dd fb 03 3e
       1.892177 1.3757672 0.7180622 0.12889047

conv_layers.4.weight f4 [128, 64, 3]
000000 f6 a4 5b 40 f9 d4 36 3f e2 0f b3 bf f9 cd 69 3e
       3.4319434 0.7141872 -1.3989222 0.22832479
000010 70 16 18 3f e8 bb 8e 3d ba 0f 88 bd 0e 5a 5d 3e
       0.59409237 0.06969434 -0.066436246 0.21616384
000020 3a 2f 31 3b f2 0b 44 bf 9c 73 0a be d5 0d f4 bf
       0.0027036206 -0.7658073 -0.13520664 -1.9066721
000030 3d fb 8e 3a 60 55 ef bc 09 7f d2 3b dc e0 60 bf
       0.0010908615 -0.029215515 0.006423835 -0.8784311
000040 7b d6 06 3f c2 45 44 3f 4f 78 ad 3d 2d da a6 3d
       0.5267102 0.7666894 0.08470213 0.081470825
000050 5b 8a e5 bc cf 87 fe 3c 07 c3 8d 3f d8 b0 ce bf
       -0.028020075 0.031070618 1.1075143 -1.6147718
000060 28 34 0f 3d a3 60 2d 3d 43 0f d5 3c 86 f6 d5 3c
       0.03496185 0.042328488 0.026008254 0.026118528
000070 04 7d e2 3d 6f 3f 98 3c 82 f3 24 bd 2a 7a 6c 3c
       0.11059001 0.018584935 -0.04027129 0.014433423
000080 f0 23 a6 3d bc da 11 bf a6 49 d3 be e1 79 03 40
       0.08112323 -0.5697439 -0.41267127 2.054314
000090 d2 ab 18 3f bd cf 75 3e 37 19 6b 3f af 02 33 3e
       0.59637177 0.24005027 0.9183535 0.17481492
0000a0 64 fd bb bc 1a cf a1 bd a0 18 06 c0 e5 a5 30 3f
       -0.022947975 -0.079008296 -2.095253 0.69003135
0000b0 41 f7 39 c0 bb c4 57 bf bc 62 71 bd 9c a3 4d bd
       -2.9057162 -0.8428456 -0.05893205 -0.05020486
0000c0 2d 30 41 be b5 03 74 3e b5 20 a5 be 5b 66 78 3f
       -0.18866034 0.23829539 -0.32251516 0.9703118
0000d0 49 2e b0 bf 7d 01 b9 3e 20 50 f6 bc a0 91 37 3d
       -1.3764125 0.36133948 -0.030067503 0.044816613
0000e0 dd 13 68 3d 24 f3 c4 3e e2 54 74 3e 0b 45 02 40
       0.056659568 0.38466752 0.23860505 2.035464
0000f0 87 69 8f 3f c1 bb 2e 3f 41 bc cc 3e 05 7e 9c 3e
       1.1204079 0.6825524 0.39987376 0.30564895
000100 b1 aa 7d bc a7 f5 82 be b6 d4 c3 bf 69 12 05 be
       -0.0154825905 -0.25578043 -1.5299289 -0.12995304
000110 fb d2 32 3f 7e f1 ce be 36 4e 8f be b5 ea af bf
       0.6985318 -0.4041862 -0.27989358 -1.3743502
000120 33 2a cd 3d f5 31 2d bc 14 85 96 3d c8 c4 9c be
       0.100178145 -0.010570993 0.073496014 -0.30618882
000130 eb 79 28 be f7 69 d1 bd 9e 42 b3 3e 7b 31 b1 3f
       -0.16452758 -0.10225289 0.35011762 1.3843225
000140 4a 98 84 3f 51 49 b0 c0 0d 49 1e bf 5a 09 d6 bf
       1.0358975 -5.5089498 -0.61830217 -1.6721604
000150 49 50 25 bf 71 13 9a bf fe c0 6f bf ab 8a 12 c0
       -0.6457563 -1.2037183 -0.9365386 -2.2897136
000160 ad a0 89 bf 1f c5 68 3f 25 c6 50 be 00 19 99 3d
       -1.0752159 0.9092578 -0.20388086 0.074754715
000170 ca aa 7f bd a0 22 78 c0 c2 e3 3c 3f bf 02 b3 3e
       -0.062418737 -3.8771133 0.7378503 0.34963033
000180 35 08 31 3f 55 3f 55 3f c7 af 37 be 42 f4 d4 be
       0.6915315 0.8329976 -0.17938147 -0.41592604
000190 22 79 93 3e ac eb 68 3e 0d 0d 68 3e dd ae 16 bf
       0.28803355 0.22746152 0.22661228 -0.5886057
0001a0 bd 76 15 bf 44 eb 51 3f cc c8 2e 40 76 fe 16 3f
       -0.58384305 0.8199961 2.7310057 0.58982027
0001b0 5e 41 a2 3f 78 b6 e9 3e 8e d5 78 c0 14 37 5b 3f
       1.2676198 0.45647025 -3.8880343 0.8563092
0001c0 6a 08 e8 bf 65 68 dc bf 99 d7 12 3d 10 26 07 3f
       -1.8127568 -1.7219359 0.03585014 0.52792454
0001d0 8b ba 24 3b ec 02 69 bf 8a 5f e6 c0 61 51 d5 bf
       0.0025135602 -0.91020083 -7.1991625 -1.666546
0001e0 35 33 81 3e 41 7a 47 3d 62 69 ff be 5a 07 0e bf
       0.2523438 0.048700575 -0.49885088 -0.5547997
0001f0 23 c2 96 bf 98 94 32 3e bf 61 3a bf 14 c8 87 bf
       -1.1777996 0.17439497 -0.728054 -1.0607934
000200 d2 88 08 c0 51 bc 29 bf db d0 67 3f 26 40 17 be
       -2.1333508 -0.66302973 0.90553063 -0.14770564
000210 f8 2f df be f2 39 3c bf 76 0e 19 c0 b5 e7 78 3d
       -0.43591285 -0.7352592 -2.3915076 0.060767848
000220 ec b7 9d 3f f5 e4 ff be 6b 8e a5 3e b6 65 c0 3e
       1.2321754 -0.49979368 0.3233522 0.375776
000230 aa 63 9e bf ec 3f 09 bf 93 74 c6 bd a8 58 25 3e
       -1.2374165 -0.5361316 -0.096902035 0.16147101
000240 63 01 0b 3e 17 9c 9d 3e c5 f0 0d bf 27 8b e9 3b
       0.13574748 0.3078315 -0.5544551 0.007127184
000250 f9 7e bc 3c b0 cb 29 bc 33 54 e9 bd 3e 22 a3 bf
       0.023009764 -0.010363504 -0.11393013 -1.2744825
000260 e7 58 22 be ff cf cc 3c 7b 7f e1 bc 14 71 a4 bc
       -0.15854226 0.025001524 -0.027526608 -0.020073451
000270 70 2d b3 bd 01 91 25 bf ff b6 1f be 9b 90 e6 3c
       -0.08748901 -0.64674383 -0.15597151 0.028145125
000280 21 6a 6f bd 6c 22 ca 3a 81 b8 85 bf 8b 3f 09 40
       -0.05845082 0.0015421635 -1.0446931 2.1445034
000290 d6 97 2a 3e 30 57 3d 3e ac 5c 6a 3f b3 45 1e be
       0.16659483 0.1849029 0.91547656 -0.15456276
0002a0 f8 04 fc bc 23 19 9c bf c8 78 22 3f f2 36 05 3e
       -0.030764088 -1.2195171 0.6346555 0.13009241
0002b0 7f 31 04 3c f3 c3 40 bc 3a 87 5b 3e fe 05 ce be
       0.008068441 -0.011765468 0.21438304 -0.40238947
0002c0 7f 51 8b bf 30 db c6 bd 0d 17 87 bf 0b 6d 64 be
       -1.0884246 -0.097097754 -1.055391 -0.22307222
0002d0 50 f3 65 3d 31 5a 86 be 24 d4 17 3f c7 cb 17 3f
       0.056140244 -0.26240686 0.59308076 0.59295315
0002e0 fa c6 07 3e 80 a2 45 bf ec 3a 14 3f 22 da a2 bd
       0.13259497 -0.7720108 0.5790241 -0.07951762
0002f0 7d ab 3b be 09 b7 80 bf 94 71 c6 3f 39 c9 8a 3d
       -0.18327136 -1.0055858 1.5503411 0.067766614
000300 0c 7a 25 be f5 ea 82 3d 88 ef ba bd d2 37 a5 3d
       -0.16159838 0.06392471 -0.09127718 0.080672875
000310 e0 ab a0 3d 94 25 d7 3d 06 80 06 be c3 9b e5 3d
       0.078452826 0.10505214 -0.13134775 0.1121135
000320 ea 7f 54 bb 1c b6 90 bf 8d ba 98 bc bb 55 0b be
       -0.0032424876 -1.1305575 -0.018643642 -0.13606922
000330 f4 d6 7c 3c a0 a4 86 bd b4 37 06 bd 15 a7 97 bd
       0.015432108 -0.065743685 -0.032767966 -0.07404915
000340 82 be 3e bd 85 12 91 bd 15 a7 14 3d fc 73 12 3d
       -0.0465684 -0.070836104 0.036292154 0.035755143
000350 95 fd c6 3c 0b 81 52 3c df 00 4b 3f 39 a5 86 3d
       0.02429084 0.012848149 0.79298204 0.065744825
000360 ae 3b e4 bb 6d ac 06 3d 28 23 88 3c 15 6a 54 bd
       -0.006965122 0.03287928 0.016618326 -0.05185898
000370 fa bc 34 3d 6b 91 31 3d 27 bf 24 bd 1d 2a 8b bc
       0.044125535 0.043351572 -0.04022136 -0.016987855
000380 37 59 df 3a 7e 8a 36 bc 95 51 e6 3d fd 73 31 be
       0.0017040138 -0.011141418 0.11246029 -0.17329402
000390 18 12 a4 bc 6f b4 0c 3e 95 4b 9a bd 4e 4f f7 bc
       -0.020028159 0.13740705 -0.075339474 -0.030189183
0003a0 7e 78 bf 3c c9 bf be bb 6d 4e 39 3d a9 79 e3 3e
       0.023372885 -0.0058212024 0.04524081 0.44428757
0003b0 25 18 a4 be 5b 70 b9 bd fe be 81 3d e2 6e 6a 3b
       -0.3204967 -0.09054633 0.06335257 0.0035771658
0003c0 2c 25 82 3d 09 6b 81 3e 62 34 23 3d d9 7e d9 3d
       0.06354746 0.25276974 0.039844878 0.106198974
0003d0 d2 bd 19 3e 90 ab 35 bd 34 5b a9 3d 55 0b 4c 3c
       0.15013817 -0.044353068 0.08269349 0.012453874
0003e0 29 a9 0e bc e7 1c 79 3d d4 eb ca bd b6 f7 60 be
       -0.008707323 0.06081858 -0.09908262 -0.21969494
0003f0 a4 f1 77 3d 6e d6 0c 3e 44 d7 a1 bd cd b2 1e 3e
       0.06053318 0.13753673 -0.07902387 0.15497895

conv_layers.4.bias f4 [128]
000000 f4 14 b2 3f 13 d2 7e bf cc 0f 7b 3f ca 9a ee 3f
       1.3912644 -0.995393 0.9807098 1.8640988
000010 e4 39 11 3f 2d c7 23 be be 9e 2b 3b 3e 86 4e c0
       0.5672896 -0.15993948 0.0026187147 -3.2269435
000020 3b 4e df bc 7e 01 66 be 0f df 4f 3f bd f9 51 bf
       -0.027258983 -0.22461507 0.81199735 -0.82021695
000030 4b 48 d3 3e af 6c e8 be 4b 7d c1 bd 2a b9 cd bd
       0.41266093 -0.4539542 -0.09447726 -0.10045083
000040 d5 99 47 be 50 6f c9 3e 85 77 6b 3e 88 c9 b4 3c
       -0.19492276 0.39342737 0.22994812 0.022068754
000050 1b 39 38 be 68 2e ae bf 6e 82 1f 3e 1a a3 b1 bd
       -0.17990534 -1.3607912 0.15577099 -0.08673687
000060 e7 67 58 bf 52 a5 56 3d 65 10 4f bd 42 27 87 bd
       -0.8453354 0.052403755 -0.050552744 -0.06599285
000070 87 e3 e9 3e 56 5d 6c bf 31 f2 66 c0 81 c0 8f bf
       0.45681402 -0.9232992 -3.6085322 -1.1230623
000080 06 d7 ad bf 24 33 16 c0 1a a4 73 3f 9e 6b fa bf
       -1.3581245 -2.3468714 0.95172274 -1.9564092
000090 9c 68 a3 bf cc 88 82 c0 49 e7 7a be c3 2a 05 bf
       -1.2766299 -4.079199 -0.24502291 -0.52018374
0000a0 e5 da d4 3e 42 13 88 bd fe e0 8a bf 51 f7 14 40
       0.41573253 -0.06644298 -1.0849912 2.327595
0000b0 dd ac f5 3c 70 0a c9 3f ce 25 86 3f c0 79 b4 bf
       0.029989654 1.570631 1.0480287 -1.4099655
0000c0 c3 ba 27 3e f5 7d 1a bf 62 cd 19 bf e9 c8 25 40
       0.16379838 -0.60348445 -0.60079014 2.5903876
0000d0 81 07 48 bf a6 60 3e 40 bc cb 74 3f 9d ed 2d bf
       -0.7813645 2.974649 0.95623374 -0.67940694
0000e0 bc d7 4f bd e3 40 21 bf 0d 2b 90 bf 32 58 de 3c
       -0.05074285 -0.62989634 -1.1263138 0.027141664
0000f0 50 4f f1 be d0 53 ac be e1 d9 6c bd 3b a0 ff bf
       -0.47130823 -0.33657694 -0.057824973 -1.9970773
000100 0c 75 17 be e7 fb fa bd 63 a5 8d be f6 51 c1 3d
       -0.14790744 -0.12255078 -0.27665243 0.09439461
000110 21 81 69 bf fe aa 91 bf fd fb a9 3f 65 e7 a3 be
       -0.9121266 -1.1380308 1.3280026 -0.32012478
000120 73 8d 3d bd 62 bf 6d bd b4 f8 9f 3f 1d 76 48 40
       -0.046277475 -0.058043845 1.2497773 3.132209
000130 91 eb 31 bd 56 2c a5 3f 99 ee bf bc 35 ab c7 be
       -0.043437544 1.2904155 -0.023429202 -0.38997808
000140 e1 6a 3a bf d2 42 42 bf 18 15 83 bf 9e d6 c7 bc
       -0.72819334 -0.7588321 -1.0240812 -0.02439433
000150 e6 5f ba 3f b1 2b 53 3f 51 c7 0a 3f 33 24 19 bd
       1.4560516 0.8248854 0.5421038 -0.037388038
000160 aa 37 fb bc 87 b6 93 bf e4 3e 3d bd 7d 40 2d bd
       -0.030666191 -1.1540078 -0.046202555 -0.04229783
000170 17 1b 07 bf b1 8b f3 bd b1 05 0d bf 92 2e 64 bc
       -0.5277571 -0.118918784 -0.5508681 -0.013927119
000180 20 ed d0 bd 4a 82 12 3f 52 ae 08 bf 89 eb f1 3f
       -0.10201478 0.57230055 -0.5339099 1.8900005
000190 72 d8 31 bf 71 f1 71 bc a9 dc b1 bf 55 19 d1 c0
       -0.69470894 -0.014767037 -1.3895465 -6.5343423
0001a0 b3 76 45 c0 18 0f 5c be 8b 63 fa bc 94 e6 19 3f
       -3.0853698 -0.21490133 -0.030565044 0.6011746
0001b0 3f 8f 73 3d e4 1f d2 be 76 f0 38 40 df 56 84 40
       0.059462782 -0.41039956 2.8896766 4.1356044
0001c0 a2 2c 91 bf 25 09 dc bd fd 50 b4 bd 9e 52 13 c0
       -1.1341746 -0.10743932 -0.0880451 -2.3019176
0001d0 24 f1 b6 bd 41 cb 97 3f ca 86 6a c0 e3 df aa bd
       -0.08932713 1.1858903 -3.6644769 -0.08343484
0001e0 38 62 b0 bd 76 b5 24 bf e8 2b e7 3f fa ea 7c 3f
       -0.08612484 -0.6433939 1.8060274 0.98796046
0001f0 3e 71 be bc f2 c9 12 3c ae c8 cb bd c8 1f 95 bd
       -0.023247357 0.00895928 -0.09950386 -0.072814524
