results/Elemental_Mapping/models/CNN1D_testSaintJohn.pt (torch, 277481 bytes, 12 tensors)

conv_layers.0.weight f4 [64, 1, 5]
00000000: 0f7d 97be 4769 0f3b fb04 afbe 5011 f2be
00000010: 9698 513a 6ca2 6dbf d679 df3d d576 69be
00000020: 617f 02bf f675 8ebc 3196 a3bd 6361 91bb
00000030: db93 943c 0881 30ba a581 933c cdee 723d
00000040: b279 dd3d 7185 513d cf24 173b 677f 943a
00000050: 32c5 e0bb bab6 b4bb 4a87 f0bb db21 14bf
00000060: 85ba debe b0a9 98bd 2e01 88be 570f b5bc
00000070: 08de 39be fb95 c5bc 0ea8 363a 1db4 6b3b
00000080: fe54 7b3d aa65 e53d 6664 5d3d 40e0 6fbc
00000090: a674 28bf e4d3 4ab9 c3c6 87be 74a0 acbb
000000a0: 6370 feb9 2c0c 663a 1e69 ffbc 1fcc d0bb
000000b0: d2d3 1abd 3b64 96b9 eb12 35bd fe75 18bf
000000c0: e52f d5be 1856 0d3d a7ca 083d afa9 e6bb
000000d0: 4742 2dbd 45c4 e8ba 39ca aa3a dee4 01bf
000000e0: da32 573a 4227 96be bf31 89be e2f2 ccbe
000000f0: 30e0 cb3b 680b b1bb cc52 dabc daff 30bc
00000100: 9f01 0a3d 915b 73bb 22fd ecbb 3fcd 0bbc
00000110: 1799 0bbd 7ac2 c0bb 182a 97bd b10c 0abe
00000120: 37bd d0ba 3c17 0cbc 028d 70bd 0c5f d8ba
00000130: 9f59 37bd c893 6a3b adf2 bdbd 440c 6abc
00000140: 2c44 0f3d 218a 7f3d 6a56 9a3a 33d8 5fbd
00000150: 6346 bebc 73da 033d 047d 52bf 2230 abbf
00000160: 2ece 62bd 731c ec3b d35e cdbc 1eb2 40bd
00000170: 45a8 003c 3c48 743d ac6e ff3c afd5 033b
00000180: 84da 18be 3c87 79bd 0cfb 1ebb 2be2 a1bd
00000190: 8718 91be f623 a6bd 828e d2b9 00e8 09be
000001a0: 60a7 71be e749 9fbe 5447 21be 4b1b d4bd
000001b0: 8364 e93c 9c06 d4bb 79a4 0abd ac1b 27be
000001c0: 71db 50be 4774 22be 5eae 833d 2476 42be
000001d0: 4b28 1bbe 6d42 ccbd 3768 243d e711 2ebe
000001e0: 1abd bebb 9d1c 71bc af06 c1bc febc 09bd
000001f0: c44e 5bbc a38a ccbc 62e3 1abd 832b 83bb
00000200: 8e8f 4ebc 1cd3 cbbc 7091 173c 2e2e afbe
00000210: b2f7 f8bf ec9f b5be dc1e a0bc 48a5 20bd
00000220: 2797 2ebe 85b8 26bd aeab 443b f467 9b3a
00000230: 5421 9a3b 523e 8bbb 747d 47bf b1e8 e2be
00000240: 3680 03be 467f f73b 477a b2bf a258 a1be
00000250: 00f3 853e c77c 36bf 8cac 9ebf 8851 19c0
00000260: 1328 513e 4d13 4e3e 1273 cfbe 311d 1abe
00000270: 94e6 fdbe b7b0 d7bc 9d0a 31ba f3c7 783a
00000280: baff 4abd 504e 81bd 80c1 08bf 69d6 05bf
00000290: 1a8f 70bd d9ba 303e c69c f1bf c886 92bf
000002a0: 95b8 5f3c 6ce4 653e 14f2 4dbc 6863 4cbe
000002b0: 336e 87bd 13da 40bc 87a9 39be f4d2 ea3c
000002c0: 0b25 10bf ba6b 27bf 0ed7 82bd 9885 73bd
000002d0: 2bba 92bd 3bfb 63bd be81 4339 be4e d0bc
000002e0: 6f6a 83bd 28b2 6a3c 328a c23c babe cc3c
000002f0: 7348 b83c de7d 643c f9af edbe 0499 8abd
00000300: b039 5b3e 8719 30bf 585f d3bf 5f73 f6bc
00000310: ae6b 1a3c bc62 bf3c 887e 24b9 e714 33bd
00000320: 4d59 12bf 1a92 c8bc 2f5e 1e3d 8507 12be
00000330: 3be7 0abe 2a08 8abe b57d bc3d 19df 1bbf
00000340: 6fe0 3ebf db17 76bf 6b78 a83b 7b9f f33b
00000350: 234a 9abc c517 ebbd a1b3 74bd fd56 c6bc
00000360: 54d9 3b3e dca1 e5bf 0b6c 45bf c971 44bf
00000370: 5f22 683d 5f18 d63d 0875 c7bb cd55 dabd
00000380: 4d4c 4fbd c854 89be 1934 c1be 332b dabe
00000390: 78c2 8dbc 3cc2 d5bc 5544 6dbd 90fb d8bd
000003a0: f962 0d3c eeec d53d 4ad9 483d 18fa 85bf
000003b0: 20ab 88bf 4a19 b03d 0024 98bf 5009 5abd
000003c0: 4a18 eebb ac90 68be eaf4 f1bd 90b3 2b3c
000003d0: fc71 a1bd 632c c63a e2f4 b13c 5c7e 95be
000003e0: e804 45bf 3eaf 04bf cec7 183e 4a5a ab3d
000003f0: be7f 87bf 65e5 a9bf 958d cbbe 23d7 213d
-0.295876 0.0021882819 -0.34183487 -0.47278833 0.00079954544 -0.9282596 0.1091191 -0.22799237
-0.50975615 -0.017390233 -0.07987631 -0.004436658 0.01813691 -0.00067330943 0.018006155 0.05930977
0.10814227 0.05115265 0.002306271 0.0011329473 -0.006859445 -0.0055149468 -0.0073403465 -0.5786416
-0.43501678 -0.0745424 -0.265634 -0.022102041 -0.18151104 -0.024119368 0.0006967791 0.003596551
0.06136035 0.112010315 0.054050826 -0.014640868 -0.6580299 -0.00019343157 -0.2651883 -0.005268151
-0.0004853039 0.00087756175 -0.031178053 -0.0063719894 -0.037799664 -0.00028684907 -0.044207495 -0.5955504
-0.41638103 0.034505934 0.03339639 -0.007039271 -0.042299535 -0.0017758688 0.0013030238 -0.5073985
0.00082091766 -0.29326826 -0.26795766 -0.40029055 0.0062217936 -0.005402971 -0.026650809 -0.010803187
0.033692952 -0.0037133435 -0.007232324 -0.008532821 -0.034081545 -0.0058825584 -0.073810756 -0.13481404
-0.0015925531 -0.008550461 -0.058728226 -0.0016507818 -0.044763204 0.003579365 -0.09274802 -0.014285151
0.034977123 0.06238759 0.0011775021 -0.054649543 -0.023226922 0.03219075 -0.8222201 -1.3374064
-0.05537241 0.00720554 -0.02506963 -0.047044866 0.007852619 0.0596392 0.031180702 0.002011638
-0.14927107 -0.060919985 -0.0024258522 -0.07904466 -0.28339025 -0.08112328 -0.00040160498 -0.13467407
-0.23599005 -0.3111107 -0.15749866 -0.10356768 0.02849031 -0.0064705145 -0.03384826 -0.1631915
-0.2039621 -0.15864669 0.06429742 -0.1899038 -0.1515209 -0.09973607 0.04013845 -0.16999017
-0.0058208825 -0.014716295 -0.023562757 -0.033627503 -0.013385478 -0.02496845 -0.037814505 -0.0040029897
-0.012607468 -0.024880938 0.009250984 -0.3421492 -1.9450591 -0.35473573 -0.019545965 -0.039220124
-0.17049848 -0.040703315 0.0030009556 0.0011856542 0.00470368 -0.0042493725 -0.779258 -0.44318154
-0.12841877 0.007553014 -1.3943566 -0.31512934 0.26161957 -0.71284145 -1.2396407 -2.3956013
0.20425443 0.2012455 -0.4051748 -0.15050198 -0.4958998 -0.026329381 -0.00067535957 0.0009490244
-0.049560286 -0.06313765 -0.5342026 -0.5228029 -0.058730222 0.17258777 -1.8875968 -1.1447382
0.013654848 0.22450417 -0.012569923 -0.19959795 -0.06612816 -0.011770743 -0.18131076 0.028665043
-0.56306523 -0.6539875 -0.06388675 -0.059453577 -0.07164415 -0.055659514 0.00018644982 -0.025428172
-0.06416785 0.014324702 0.023747537 0.02499329 0.022495484 0.013946025 -0.4642332 -0.06767467
0.21408725 -0.6878895 -1.6513472 -0.03008431 0.009425087 0.02336251 -0.00015687395 -0.043721106
-0.5716751 -0.02448373 0.03866404 -0.14260681 -0.1356477 -0.26959354 0.09203664 -0.60887295
-0.7456121 -0.9613015 0.005141308 0.007434783 -0.01883418 -0.11479143 -0.05974162 -0.024211401
0.18344623 -1.794002 -0.77117985 -0.7673612 0.056673404 0.10453867 -0.0060869493 -0.106608965
-0.050609875 -0.26822495 -0.3773506 -0.42611083 -0.017304644 -0.026093595 -0.057926495 -0.10594857
0.008629554 0.104455814 0.049035348 -1.0466948 -1.0677223 0.085985735 -1.1885986 -0.053231537
-0.007266079 -0.22711438 -0.11814292 0.010479823 -0.07883069 0.001511943 0.021723215 -0.29197967
-0.7696061 -0.518299 0.1491997 0.08366831 -1.0585859 -1.3273131 -0.39756456 0.03951181

conv_layers.0.bias f4 [64]
00000000: 1d62 ccbc 13e1 acbf ad01 df3b 64a0 393b
00000010: 904c d7ba 2f6f 45be aa37 05bc 6f54 d5bb
00000020: 4d1b 52bc 9303 ec3a 0c16 113c 3af3 a6bc
00000030: 735a da3b 11ed 34bb 587d dcba d3ff 06bd
00000040: 6ed1 e73d fe27 983c 7e8a bc3d 271f 6fbd
00000050: 7b1d ddbb badb 0abf 59b2 09be a187 d4be
00000060: eb58 f93d 0a02 40ba 98e7 dabe 6d43 873d
00000070: 7258 bd3c 0c40 09c0 5022 e3bf a8d5 b3bd
00000080: 7ccd 89bc 57e7 01c0 10e8 5bbb 1a7c a7bb
00000090: 2175 cabb ef9c ffbe 0287 91bf 6882 093c
000000a0: 9b5f b2be bfe5 55bf c106 88be 66a2 77bf
000000b0: 7646 30bb a192 a1bb c1a9 2dbb 230b 5ebf
000000c0: 7d54 d4bd fbe5 81bb ca23 83bf 3d2b 5abd
000000d0: 6535 2abe 08b2 4fbf c89c 8c3a f331 36be
000000e0: d512 143b 8500 d8be d09e bdbe 24ce 02be
000000f0: 193a d7bc 877b 503c 21b3 8ebd 09ec bdbf
-0.024949128 -1.3506187 0.0068056197 0.002832436 -0.0016426016 -0.19280694 -0.008130947 -0.0065103094
-0.012823892 0.0018006436 0.008855354 -0.020379651 0.0066636144 -0.0027607123 -0.0016822023 -0.032958817
0.113192424 0.018573757 0.09206103 -0.05837932 -0.006747899 -0.54241526 -0.1344694 -0.41509727
0.12175163 -0.00073245226 -0.42754817 0.06604657 0.023113463 -2.144534 -1.7744846 -0.08780986
-0.016821615 -2.0297449 -0.0033555068 -0.0051112296 -0.0061785136 -0.49924418 -1.1369326 0.008392908
-0.34838566 -0.8355369 -0.26567653 -0.96732175 -0.0026897467 -0.0049308096 -0.0026498886 -0.86735743
-0.10367677 -0.0039641834 -1.0245297 -0.05326389 -0.16621931 -0.8113103 0.0010727877 -0.17792492
0.0022594233 -0.42187896 -0.37035227 -0.12773949 -0.02627282 0.012724764 -0.0696776 -1.4837657

conv_layers.1.weight f4 [64, 64, 3]
00000000: b358 1f3c 121f be3c 42b7 c4bd 712f 1bbd
00000010: 8c1d 8bbd c66c 6abd 7262 b1bd 89bb 983a
00000020: 0411 823c 95e1 aa3c 5637 c9bd 4311 b0bd
00000030: ba3d 5dbc 6219 1fbd e323 3f3d f8f7 1e3d
00000040: 76a2 23bd cdc9 703d 75c8 d0bd 60ba a0bd
00000050: fcb0 c6bd 435d f2bc 6141 92bd f168 d7bd
00000060: a1ad d6bd 5674 37bd 7320 e1bd 2bf3 8cba
00000070: dd9c f3bb 205f 413c 5cc2 c3bc 26a0 b0bd
00000080: 6989 e5bd d279 e2bd d213 1f3c 85b5 93bd
00000090: 3261 a3bd 447a ba3b 2a81 1dbd e80b 50bd
000000a0: 8dbd da3c 45cb 8fbd 755d 033c 1bd7 4cbd
000000b0: 838d fb3c 1d78 a13c 24c3 5abc 7b42 bdbc
000000c0: c6f2 68bd b196 ddbc c462 44bd dcbc cabc
000000d0: ad7b ff3c 286a e3bc 5cb5 96bd b705 0bbd
000000e0: f01d 73bd b730 ccbd 2fce f33c 96ef 99bd
000000f0: b8f2 1abd c44c 773c 3303 043d 1a11 1e3d
00000100: 85fd 63bd 4fc8 73bd be65 fbbc 937a bebb
00000110: 5727 8abd e4bc 7bbd 5ba1 9fbb d7a6 9e3c
00000120: 9ef9 973c d113 94bd 47cc 44bd e150 a5bd
00000130: cf61 46bd 4c67 9cbd 6ca4 91bd 76c2 f6bc
00000140: 5a7c bcbd d164 71bd 0c6a 533d 41bc 6cbc
00000150: 941c 8cbd 9f03 21bd 9c86 f23c d9fa a73c
00000160: c207 3cbd d3fb 7cbc eea1 bdbd ee95 d6bc
00000170: 9c35 18bd 39cc d4bc 6825 94bd 4bb9 b3bb
00000180: 395c 7c3b 9e0a c53c c6b1 5ebd 9732 643b
00000190: 449f ccbd 4533 383d 6e00 82bd 1bcb 0d3c
000001a0: 274d 0cbd 4a92 acbd 1085 9abd 7ebe d7bb
000001b0: 86f0 f23b 7641 3bbd 7f76 003c a039 97bd
000001c0: ca96 0bbd 83ae 64bd 421d 38bd 866c 8fbd
000001d0: 09dd 5e3d 1dd5 ec3b 5e28 cdba 3758 b23b
000001e0: 7516 0a3c 65e5 91bc d546 5bbc 901f 8c3b
000001f0: f767 633c 5e15 6ebd a007 8cbd 62c7 023d
00000200: b882 4b3d 7e93 70bb ebe9 22bc 7d5d ebbc
00000210: b35d b7bc dd03 38bc 6362 68bb d367 6dbd
00000220: f502 043d bcb5 adbd 5959 bf3b 2fe1 f23a
00000230: 9838 1bbd 9927 863b fd61 4abc dc75 51bd
00000240: 3623 aabb fbe3 92bc 9243 a1bd c921 c1bc
00000250: b35b 05bd 6a19 c3bc cea7 54bd 9dd4 3abd
00000260: 20ce a23c 74a5 853d c782 abbd d9dc 613b
00000270: 66b7 34bd b67d 6abd bcda cebd 4ef8 2fbc
00000280: 86b5 803c 0a02 11bd 3fa9 81bd fe3a 7b3d
00000290: 561e 583d bf95 a6bd 85f1 60bb 7dce 7e3c
000002a0: 9deb 4bbd f211 ccbc 073f 02bd 7b1d 48bc
000002b0: 599e a63a a73d e73c 43a2 ab3b 62fa 873b
000002c0: 822e 9bbd 7ef0 1d3d af39 69bd 0186 773b
000002d0: 3cdc 08bd 01b5 ddbc b04e a3bd bf41 43bc
000002e0: 5716 24bd a7f0 d83c 57cc c4bd 2d06 8dbd
000002f0: bd0a 9d3b e74b 9bbd 8f89 ccbc c2e1 2bbd
00000300: 76d5 38bd 88d5 e93c b37a 72bd 6d80 d73c
00000310: 5d73 95bd 9b1b 273d 44c6 143d deaf 783c
00000320: 292e f1bd 1df8 e8bc 9a58 93bc 9965 723c
00000330: ed27 52bd 80d5 cebc 7263 28bd 0265 bbbc
00000340: 4a34 81bd f966 7b3d 4de8 95bb b34d 65bc
00000350: 379b 83bd cbbd 90bc 9b23 88bd f8cd bb3b
00000360: 1e74 87bc 21f0 cfbd b90c f5bc 6fc6 013d
00000370: e2a8 a03c 5996 acbc 2f17 fabb c879 a3bd
00000380: 0555 90ba db44 723d e9f7 98bd c5e6 97bd
00000390: 58fd 00bd 39fa 16bd 9ed2 acbd 5631 f8ba
000003a0: 78f9 7d3b 3009 62bd 2751 d1bd 32bd 943c
000003b0: 0219 92bd 0c46 adbd 6f86 e8bc 160f b33b
000003c0: d51b e5bc 1c5f cebd aaf6 95bc 30df 8c3c
000003d0: e4cb 1fbd 25dc 2abd 9daa e1bd e163 81bd
000003e0: e436 5fbb b54f c7bd 9dbc 16bd 1f0d e2bd
000003f0: ec78 2bbc f7af 093d d960 babd 4df6 5abd
0.009725737 0.023208175 -0.09605266 -0.03788704 -0.06792745 -0.05723264 -0.08661355 0.001165257
0.015877254 0.020859519 -0.098250076 -0.085970424 -0.013503486 -0.038842566 0.046665084 0.0388107
-0.039949857 0.058786202 -0.10194484 -0.07848048 -0.09701726 -0.029585486 -0.07141376 -0.10518063
-0.10482336 -0.04478868 -0.10992517 -0.0010753622 -0.007434471 0.011802465 -0.023896389 -0.08624296
-0.112078495 -0.11058392 0.009709315 -0.072123565 -0.07977523 0.0056908447 -0.03845326 -0.050792605
0.026701713 -0.070211925 0.008017887 -0.050009828 0.030707126 0.019710595 -0.013352189 -0.02310299
-0.05687215 -0.027049394 -0.047945753 -0.024748258 0.031186903 -0.02776058 -0.0735881 -0.033940997
-0.059354722 -0.09970229 0.029761402 -0.075164005 -0.03782913 0.015093986 0.032229614 0.038590528
-0.055661697 -0.0595172 -0.030688163 -0.005812952 -0.06745785 -0.061459437 -0.00487153 0.019366665
0.018551644 -0.07230342 -0.048046377 -0.08072067 -0.04843312 -0.0763689 -0.07111439 -0.030122023
-0.09203406 -0.058934037 0.051614806 -0.01444918 -0.06841388 -0.039310094 0.029605202 0.020505356
-0.045905836 -0.015440899 -0.09259401 -0.026194539 -0.0371605 -0.025976287 -0.07233697 -0.005484735
0.0038507117 0.024052914 -0.054368757 0.0034820193 -0.09991315 0.04497077 -0.06347738 0.008654381
-0.034253266 -0.0842634 -0.07544911 -0.0065839877 0.0074139265 -0.045716725 0.007840752 -0.07384038
-0.03407935 -0.05583049 -0.044949777 -0.07003121 0.054410014 0.0072275535 -0.0015652289 0.005442645
0.008428206 -0.01780958 -0.013383587 0.0042762235 0.013879768 -0.058125846 -0.06837392 0.031928428
0.04968521 -0.0036709006 -0.009943466 -0.028731102 -0.022383546 -0.01123139 -0.0035459034 -0.057960343
0.032229383 -0.08481929 0.0058395085 0.0018530245 -0.03789577 0.004094076 -0.012352464 -0.05113779
-0.0051921858 -0.017930975 -0.07874216 -0.02357568 -0.032558154 -0.02381583 -0.051917844 -0.04561292
0.019873679 0.06525698 -0.08374553 0.003446391 -0.044120215 -0.057248794 -0.10100314 -0.010740353
0.015711557 -0.035402335 -0.06331109 0.061335556 0.052763306 -0.081340306 -0.0034323644 0.01555216
-0.049785245 -0.0249109 -0.03179839 -0.01221406 0.0012711986 0.02822764 0.005237849 0.004149721
-0.0757723 0.03855943 -0.056939777 0.0037769082 -0.033413157 -0.027063848 -0.07973993 -0.011917531
-0.040060367 0.02648194 -0.09609287 -0.068859436 0.00479254 -0.075828366 -0.024967937 -0.041963346
-0.045125447 0.028544202 -0.059199046 0.026306355 -0.072973944 0.04079781 0.036321893 0.015178649
-0.117763825 -0.028438622 -0.017986584 0.014794731 -0.051307607 -0.02524829 -0.041110463 -0.022875313
-0.063088015 0.0613775 -0.0045748116 -0.013995576 -0.06426089 -0.017668625 -0.06647416 0.0057313405
-0.016534861 -0.10153223 -0.029913293 0.03168338 0.01961178 -0.021067785 -0.007632158 -0.07982212
-0.0011011666 0.059147697 -0.0746916 -0.07417063 -0.031491607 -0.036859725 -0.084386095 -0.0018935602
0.0038753431 -0.055184543 -0.10220557 0.018156622 -0.07133676 -0.08460626 -0.028384415 0.005464445
-0.027967373 -0.100767344 -0.018306095 0.017196268 -0.039012805 -0.041713852 -0.1101887 -0.063178785
-0.0034059817 -0.09732 -0.03680097 -0.11037659 -0.010465842 0.03361508 -0.091005035 -0.053457547

conv_layers.1.bias f4 [64]
00000000: 507a 8fbd 26e2 85bd 2f2f 60be 9b64 abbe
00000010: d4eb 04be 0d2a 2fbe 9b55 853a 16a3 313e
00000020: 4180 623c 0f80 e13d 6a8f 883c b2f2 84bc
00000030: e241 9d3c 2900 003e b503 e63b 7f59 963d
00000040: 5cd9 70bd a4bf 433b 38d0 60bd fbad 353e
00000050: ff18 91bd 4419 1c3e d56d ec3d 5cbf e63d
00000060: 19c7 d23b 4704 673d 6047 98be 218b a9be
00000070: a5e1 92bd c6ce 513e 471f c03e e346 b7bd
00000080: 9ccf 1b3e b68e e93d 3fbc 35bf 9603 9abd
00000090: a3c3 fc3d 18fc a93d f409 34bd 3678 92bc
000000a0: 8e51 2bbc 5cbe cf3d 85e4 0d3e 794e 03be
000000b0: 8368 733d 22a2 2ebd 8a3f 1fbd 8a87 2cbd
000000c0: 94f5 7d3d 7205 a33d 23e6 2a3f 6e35 533d
000000d0: f33a 85bd 78db f03c 4d26 b53c 3e9c 5e3e
000000e0: a4b5 f83a 26a0 9fbd 3f34 3f3d 27f4 4d3d
000000f0: f906 a4be ec67 063d 30fe e4bc a9d0 5cbc
-0.07005751 -0.06537275 -0.21892999 -0.33475193 -0.12980586 -0.17105885 0.0010172607 0.17347369
0.013824523 0.11010753 0.016669948 -0.016229007 0.019196454 0.12500061 0.007019485 0.07341289
-0.05880104 0.0029868865 -0.054886073 0.1774215 -0.07084846 0.15244013 0.11544386 0.11266968
0.0064324257 0.056400564 -0.29741955 -0.3311396 -0.071719445 0.20489034 0.37523863 -0.089490674
0.15215915 0.11404173 -0.70990366 -0.07520215 0.12342002 0.08300036 -0.043954805 -0.017879587
-0.010456456 0.1014373 0.13856705 -0.12822904 0.059425842 -0.04263509 -0.038878955 -0.042121448
0.06200178 0.07960023 0.6675741 0.051564626 -0.06505384 0.029401526 0.02211299 0.21739289
0.0018975032 -0.07794218 0.046680685 0.05028167 -0.3203657 0.03281395 -0.027953237 -0.013477483

conv_layers.2.weight f4 [64, 64, 3]
00000000: ce65 eb3c 5869 89bc 7170 8b3c c2bb b93a
00000010: 4065 9ebd 9043 093d 7727 09be 6299 92bd
00000020: 328f ccbe acbf 51be c475 41be a479 a23e
00000030: 6ac1 013d abcd 8e3e 9829 58bd 2db5 05be
00000040: 8e32 1e3e ce34 843d 92b0 293e 8762 cebd
00000050: ca4e 70bd f0ff 35c0 0ff5 75be b8ed 82c0
00000060: f082 673e 12d8 433e 5699 183e 94c5 b3bc
00000070: 43af 01bf 4ffe 873d a0ea 2dbe 75c9 d43d
00000080: 2bb1 df3c 1577 5e3f de0a 10bf 8532 a7bd
00000090: f497 cdbd 8611 2d3c ba1e abbd d87f e7c1
000000a0: 2af4 80c0 bd99 01c1 dc65 033f 6b5d 01bf
000000b0: 7610 923d 3fdb 4fbd 2274 ee3d 252b a0bd
000000c0: 18d7 313d 3562 a0be e792 2c3d 9286 a83d
000000d0: 43b3 07be 5f47 1fbd df1b 873e 8eca 17bf
000000e0: 3f0d 8a3e ac4b 273f 2638 d8bf 54e9 ca3e
000000f0: 7d8a 8e3c ae11 933d 93ec 67bd 56ba b0be
00000100: c271 2c3c 9f68 e0bc 245b edbd 1e7c b13e
00000110: 70ed 843d 9aca f7be d5e4 0e40 05de b1be
00000120: 21e9 953c 5dfb 293c a8eb 9a3c a400 183d
00000130: 2463 08bc f5f7 c7bd 8d5f 26bf 654c 293f
00000140: a389 acbe 125f 5bbf 59a6 683f 4426 0dbf
00000150: 458a 9c3c e514 fb3c df19 26bd 7579 7abe
00000160: ff03 4ebe 6aa6 4cbe c1b9 08bf 8144 a33f
00000170: 6f7f 68bf bb86 7dbd a8fe 5d3d c27c 89bd
00000180: 530c 2f3f 4cb9 34bf eecb cf3e ff9e 773b
00000190: 2b04 c43c b386 e5bd 909d 343e bd37 04c0
000001a0: f936 4b3d 72e7 993b 22ac e1bd becc 94bb
000001b0: 8f74 eebf 6cf6 f83f b3ec 17bd 9de1 353e
000001c0: 14a1 8f3c c2d3 d63d 3b85 803d 7092 433c
000001d0: f8de 14bc ca11 613c 13c8 9f3c eb26 b2ba
000001e0: 1f7c 153d bf56 6fbc 88e5 813d 0fd4 c8bf
000001f0: 719c 633f 93c4 21bf 56c9 bebf ad70 0040
00000200: 85cb 513e a0a9 71bd f80e 003e ae87 06be
00000210: 5785 0abd 4afe afbd 53d3 3c3d 0f30 d8bc
00000220: d3c5 abbd 87e8 25bd 5d75 d73c 74ba a7bd
00000230: a303 253d f7b6 41bd 14f7 c7bb 057c 353c
00000240: 478f 3cbd d2fe 78bc 8fb6 1d3d 133a eabd
00000250: b2f0 d0bd fcaa 8fbd 1e23 d6be 29f2 4d3f
00000260: 8fc1 3abe 557b 12bf 842f d43f c54a 39bf
00000270: bf36 82bd ac24 f43c 9da4 b53c a7f0 58bf
00000280: 1407 a63f c654 573b ca6d 00bf 3c6f b53f
00000290: 2745 21bf 8d1f f13e e93a 73bf 2c5e 083f
000002a0: 79b2 9abc 42f3 26bd eac4 2a3d dd74 65be
000002b0: a037 f13e 4d0c 2abe 1876 9f3d 8d3d cd3d
000002c0: 6214 783d a70b 9abe 2815 103e a362 e7bd
000002d0: 4d81 a63d e853 023d 5721 143e 92fd 223e
000002e0: cd4c 06bf 4f1d 6b3e 2d51 83bb d28d 01be
000002f0: e698 d83c 9f53 9bbc 4ced 833d 042d 00bd
00000300: 8aa2 cd3c 79ab 583d beab 173d 9b94 7cbd
00000310: 7e01 2b3d fa8a 29bd 07df 88bf 45d9 35bf
00000320: 304d 853d 76c3 4dbd 2b58 a3be 31a7 f2be
00000330: eabc c63d 8a8a 08bd d19f a43c 6ab0 e43e
00000340: 7fbb a7be 375c dbbe f1da e53c 3b0d a33d
00000350: 6384 873d cdba 8cba 34c2 b4bd 46a5 0f3e
00000360: 8168 dd3e 163c 073f b930 863e 1e2b 02bd
00000370: 8354 183e f7b3 c73b cdd3 86be 97c8 0bbd
00000380: 79ef 61be 058f 853d 1874 a0be d015 fa3e
00000390: 1d19 7b3d a15c 5a3d 4d7d 87bc 473e 3c3e
000003a0: 7322 343e f784 97bd 8428 abbe de58 d4bd
000003b0: 8ea4 00be c1da 13bd a2dc 263e 5690 03be
000003c0: bb88 593e aa06 473e 9155 dcbe 0d67 6f3d
000003d0: a0e6 8b3c 0a7c 983c bf45 f73e 958d 8e3e
000003e0: 8c64 f0bd 40ba a9bd 2956 a63c 5075 7bbb
000003f0: cb57 e3bc 2e8a f3bb d33a 523c 7d39 c43e
0.028735068 -0.016773865 0.01702139 0.0014170336 -0.07734156 0.0335117 -0.13393961 -0.07158162
-0.39953 -0.20483273 -0.1889258 0.3173343 0.031678595 0.27891287 -0.052774042 -0.13057394
0.15448973 0.06455384 0.16571262 -0.10077386 -0.05866889 -2.8437462 -0.24019264 -4.0915184
0.22608542 0.19125393 0.14902243 -0.021944799 -0.50658053 0.066403024 -0.16984034 0.103899874
0.02730616 0.86900455 -0.5626658 -0.08163933 -0.100387484 0.01056326 -0.0835547 -28.937424
-4.029805 -8.100034 0.513273 -0.5053317 0.07132046 -0.0507462 0.11643244 -0.07820729
0.04341802 -0.31324926 0.042132284 0.08228792 -0.13251977 -0.038886424 0.2638845 -0.5929345
0.2696323 0.6534984 -1.6892135 0.3963114 0.01740002 0.071811065 -0.0566221 -0.34517163
0.010525169 -0.027393637 -0.11589649 0.34665006 0.064906 -0.4839676 2.2327168 -0.347397
0.018299641 0.010374871 0.018911198 0.037109986 -0.008324418 -0.09764091 -0.6498955 0.66132194
-0.33698758 -0.8569194 0.90878826 -0.55136514 0.0191089 0.030649612 -0.040552016 -0.24460395
-0.20118712 -0.19985357 -0.5340844 1.2755281 -0.9081945 -0.061896067 0.054197937 -0.06713249
0.6837818 -0.7059524 0.40585274 0.0037783978 0.023927769 -0.112073325 0.1763823 -2.065902
0.049612973 0.00469678 -0.1101916 -0.0045410087 -1.8629321 1.9450202 -0.03709097 0.17761846
0.017532863 0.10489608 0.06275412 0.011936769 -0.009086363 0.013737151 0.019504583 -0.0013591921
0.036495324 -0.014608084 0.06342608 -1.5689715 0.88910586 -0.63190573 -1.4905193 2.0068772
0.20487793 -0.058999658 0.1250571 -0.13137695 -0.03381857 -0.08593424 0.046099972 -0.026390104
-0.08387341 -0.04050496 0.02630108 -0.0818986 0.04028667 -0.04729363 -0.006102452 0.011076932
-0.046035077 -0.015197473 0.03850418 -0.11436858 -0.10202159 -0.070150346 -0.41823667 0.8044763
-0.18237899 -0.5721944 1.6577001 -0.72379714 -0.06358098 0.029802643 0.02217322 -0.84742206
1.297091 0.0032856925 -0.50167525 1.4174571 -0.62996143 0.47094384 -0.95011765 0.53268695
-0.01888393 -0.040759332 0.041691698 -0.22407861 0.4711275 -0.16606255 0.077861965 0.100215055
0.060566314 -0.30087015 0.1407057 -0.1129811 0.08130131 0.0318183 0.14465843 0.15917042
-0.5246094 0.22960399 -0.0040074796 -0.12651756 0.026440095 -0.018960772 0.06441745 -0.03129293
0.025101919 0.052897904 0.03702902 -0.06166516 0.04174947 -0.041392304 -1.0693063 -0.7103465
0.06508863 -0.050235234 -0.31903204 -0.47393182 0.09704001 -0.033335246 0.020095738 0.44665843
-0.32760236 -0.42843792 0.028058501 0.07961508 0.06617048 -0.0010736823 -0.08826104 0.1402789
0.43243793 0.5282606 0.26209047 -0.0317794 0.14875989 0.0060944515 -0.26333466 -0.034126844
-0.22064008 0.065214194 -0.31338573 0.48844767 0.061303247 0.053310994 -0.01653924 0.18383132
0.17591266 -0.07398408 -0.33429348 -0.103685126 -0.12562773 -0.03609729 0.16295102 -0.12848029
0.21243565 0.19436136 -0.43034032 0.058447886 0.017077744 0.018613834 0.482954 0.27842394
-0.11737928 -0.082874775 0.020304756 -0.0038369484 -0.027751824 -0.007432244 0.012831408 0.3832511

conv_layers.2.bias f4 [64]
00000000: 46a4 cebe 7f48 51bf 1d2c 6ebf 230f ea3d
00000010: 60cd 6cbe 5369 b03d 2d57 323f 6b15 bdbe
00000020: 878a 753e 9f62 13bd 4186 b4be 36c9 dc3e
00000030: 5e91 373f ca00 68bd 3756 01bf 270a b2be
00000040: 8706 57bd 6a1e 333f 2885 17be d66e 3c3f
00000050: cbb9 d83e c740 373f fece f7bc 67bf df3c
00000060: eb14 2f3f 128c 383c 975f 36bd 625e f9be
00000070: b59f a9bd 0b44 ddbe 587a fa3d 7bb2 013f
00000080: 84c5 87bf 95a8 6bbf eab6 143f a3d2 b83f
00000090: abe5 bc3e 9905 103f dcc9 6bbe 3164 0d3f
000000a0: 083f 113f 19ac a33e 6062 fdbe 3197 c5bf
000000b0: a5bd 5b3e 3f97 723f db8e 673f 5d70 b5bd
000000c0: 656a 4f3e e18b 5e3f 6cf9 1bbe ae4a 3ebf
000000d0: 9758 fb3e ca39 283e 38e7 35bf 8f2e cbbd
000000e0: eb5c 25bd 2d4d d63e af01 ffbd 7bbb 1ebf
000000f0: 43c3 44be 5442 613f 8870 8c3f 6e9f fa3e
-0.40359706 -0.81751245 -0.9303606 0.11428668 -0.2312522 0.08613839 0.6966427 -0.36930403
0.23978625 -0.035982724 -0.35258678 0.43122262 0.7170619 -0.056641378 -0.5052218 -0.3477337
-0.05249646 0.69968283 -0.14796889 0.7360662 0.4232925 0.7158322 -0.030250069 0.027312947
0.68391293 0.011263864 -0.044524755 -0.4870482 -0.08282415 -0.43215975 0.122303665 0.50662965
-1.0607152 -0.9205411 0.58091605 1.4439281 0.36893973 0.5625854 -0.23026222 0.55231005
0.56736803 0.31967238 -0.49489117 -1.5436765 0.21459062 0.94762033 0.90452355 -0.08859322
0.2025543 0.8693219 -0.15231866 -0.743327 0.49091026 0.16428295 -0.71055937 -0.0992099
-0.040371817 0.41855755 -0.12451493 -0.6200482 -0.19215111 0.87991834 1.0971842 0.4894976

conv_layers.3.weight f4 [64, 64, 3]
00000000: fbf4 6f3f 25e9 cf3f e004 c23e c5db 103e
00000010: 6002 4abe fc17 713d 76ad 4140 74c3 b0be
00000020: 5626 c7be e62c c8be df3c b2be 59f8 26bf
00000030: 73c9 cf3f 4012 5e3f 9a1e e13d 85d2 693e
00000040: af2e b33e 46fd a03d 3f13 50bf 25d3 f6bf
00000050: 15ea d6bf f5e6 bcbf 6c6f 083d 75c9 9c3f
00000060: b5b1 4bbd 7345 113f e09b 943c 9266 6d3b
00000070: bed5 bd3c 46b4 e23b 955e 9cbf b82f 903f
00000080: 9c87 e33e 8532 cdbd 240e f3be b5a6 243e
00000090: 0e36 d43e 9b5f e83e 4c3d ed3e b113 24bf
000000a0: 423d c03d 449e 1ebe 9a73 bd3f 43cd dc3e
000000b0: 5fc4 f03e 956a c73c 7022 073f 637c edbe
000000c0: 52fe 43bd 84d1 6c3c 2afe 96bd acd0 18bc
000000d0: 4a6f 30be eed6 753e 4300 af3e fd67 1b3f
000000e0: 7679 5f3e 3bb0 4fbe 540f afbd 7213 a3be
000000f0: e549 4e3e d97c 01bf 3e23 823e 1e9b 34be
00000100: ff4d 283e 4524 61bf b725 ae3e cbc4 6e3e
00000110: 1f59 bc3e 72b3 89bd 127c 67bd 45c4 f2bb
00000120: 248b 05bf 08d3 743f f60c 05bf e25a 12b9
00000130: 961d babc db9d 623d 1944 e5bd ec07 b7be
00000140: a9b0 36be 22db 363f a200 4c3f 4d3a c4bf
00000150: 4534 513d ecf5 30bb 9464 99bd e79c 343d
00000160: 3b29 443c 575e 48bc 3b1f 8cbf 296d da3f
00000170: c9c7 debc e186 91be 4691 c13d c21d 09be
00000180: 9c5f 8ebe dd52 8e3d 2207 9abe d10e 803d
00000190: ae6a 27bd 42f2 19be 2fdc b93e 3169 673e
000001a0: 02d6 193f 4352 e9be 4fea 4dbf 5dd0 adbe
000001b0: 8ff8 ec3e 583e 4d3e 3146 ea3c 610c 51bd
000001c0: 3fc5 bbbd 5c43 0fbf e127 d23d 7a8e 00bf
000001d0: e83b babe 88be 4ebe 0590 1cc0 4b98 b23e
000001e0: c744 033e 2de7 ed3f 943f b0bc 92c7 d13e
000001f0: f646 c0be aa1e ab3e 1dab 013f ffa2 b83e
00000200: 1e4d 45be 8990 33bf 4fd0 afbe b918 e53e
00000210: 884c 883e ab3f 00bf ee87 f7be d5c6 eabe
00000220: cdeb 973e 1fcd 36bf f96f 913f 9108 a3be
00000230: 5c76 703f b69f fbbe 397d 043f d975 2abf
00000240: e391 1c40 b5ca d03f f450 083f 372b 383e
00000250: afd8 e5bf eaf8 58bf 5cc4 cc3f 3eb8 193f
00000260: 7470 75be 824a 9b3f 91d8 043d 2ef1 233f
00000270: 23a8 b33d 16a4 fa3e f964 b9be cca7 d33e
00000280: 325a c5be 5750 533f a400 5e3f 6ba7 9f3f
00000290: 897f 5b3e 369d 373c c40f 8d3d 1b1e bf3c
000002a0: 98a8 d93d ad27 553d 0770 8f3d 0501 1bbf
000002b0: fda7 6dbf cd36 b93e 4b40 ed3d 317e 22bf
000002c0: 90c7 5838 584d b63f 616b bfbd 3b2d 00bf
000002d0: 3c05 a73b 4885 d73e 530a 3b3e cf4a c4be
000002e0: a9a8 88be 00c6 42bd ea8a b83e 06b3 d33d
000002f0: 7464 58be 60a3 063f 74bd 643e e365 fb3d
00000300: d250 893e 1a0d ee3e 9a39 d13e 66ca da3c
00000310: bb72 a63e 067d c1bd ba49 c53e f811 e6be
00000320: b33a c43e 7a4f 9d3d f83d a83c c399 da3e
00000330: 7d47 b8be ce4c e63e cb6e 9bbe b9f8 86be
00000340: 3fa4 d23d 9c3d 25be 1081 5fbe fa58 61c0
00000350: c207 9ebe 2881 e23e deeb 743e be61 0d3f
00000360: 7b20 d93c 0ba2 1a3c 4ee0 e8bd e981 9c3c
00000370: bdeb 82bd c02c 09bd 8988 4bbe c739 383e
00000380: 9242 debd 3b46 07bf 9fce b9be a622 98bc
00000390: 6ddb 09bf 4693 e63e a80a 02bf 580b 403e
000003a0: 5f7a d63e 9595 b83d 1a57 40be 1e38 a2bd
000003b0: f595 2ebe 2cf5 8fbd 12c5 1fbf 1869 4b3e
000003c0: 2507 423d c1ee 1bbd 1fe3 23bc d0b7 4e3d
000003d0: 883c 2b3d 1771 4b3d b3d8 96be 8b1b 9f3d
000003e0: 3a08 82be fa59 9cbe 6036 883d b746 773d
000003f0: 373f 1dbe 9fab 5cbe d536 393d a942 a6bc
0.93733186 1.6243025 0.37894344 0.14146335 -0.19727468 0.058860764 3.0262122 -0.3452412
-0.38896435 -0.39096755 -0.34812066 -0.652227 1.6233352 0.867466 0.10992165 0.22834213
0.34996554 0.07860808 -0.8127937 -1.9283186 -1.6790186 -1.4757982 0.033309385 1.224898
-0.04973002 0.56746596 0.018140733 0.0036224467 0.02317321 0.006918463 -1.2216364 1.1264563
0.444394 -0.100194015 -0.47471726 0.16079219 0.4144749 0.4538544 0.46335828 -0.64092547
0.09386684 -0.15490061 1.4800904 0.43125352 0.4702482 0.024342814 0.5278692 -0.46383962
-0.04784996 0.014454249 -0.07372697 -0.009327095 -0.17229953 0.2400777 0.34179887 0.6070555
0.21823677 -0.2028207 -0.085478455 -0.31850773 0.20145376 -0.5058113 0.25417513 -0.17637298
0.16436003 -0.8794597 0.3401315 0.23317258 0.36786744 -0.067236796 -0.056514807 -0.007408651
-0.52165437 0.9563451 -0.519729 -0.00013957502 -0.022719186 0.055326324 -0.11194629 -0.3574823
-0.17840828 0.7142812 0.79688466 -1.5330292 0.05107524 -0.002700205 -0.07489887 0.044094946
0.011972721 -0.012229524 -1.0947031 1.7064563 -0.027194874 -0.28423217 0.09451537 -0.13390258
-0.2780732 0.06949399 -0.30083567 0.06252826 -0.040873222 -0.1503382 0.363008 0.22598721
0.60092175 -0.45570573 -0.8043565 -0.3394803 0.46283385 0.20043314 0.028597923 -0.051037196
-0.09168481 -0.5596216 0.102615125 -0.502174 -0.3637383 -0.2018987 -2.4462903 0.34881815
0.12819205 1.8586174 -0.021514691 0.40972573 -0.3755414 0.33421832 0.50651723 0.36061856
-0.19267699 -0.7014242 -0.34338614 0.44745424 0.2662089 -0.5009715 -0.48345894 -0.45854822
0.2967209 -0.7140674 1.1362296 -0.31842473 0.939306 -0.49145287 0.51753575 -0.6658607
2.4464042 1.6311861 0.53248525 0.17985235 -1.7956752 -0.8475481 1.5997424 0.60046756
-0.23968679 1.2132113 0.032433096 0.64039886 0.08772304 0.48953313 -0.3620985 0.41338956
-0.38545376 0.82544464 0.8671973 1.2472967 0.2143537 0.011206916 0.06887773 0.023329785
0.1062786 0.05203979 0.070037894 -0.6054843 -0.92834455 0.36174622 0.115845285 -0.634738
5.168427e-05 1.4242353 -0.09346653 -0.50069016 0.0050970595 0.42093873 0.18265657 -0.38338324
-0.26691177 -0.04755211 0.36043483 0.103368804 -0.2113207 0.5259304 0.22337896 0.12275293
0.26819474 0.4649437 0.4086426 0.02670784 0.32509407 -0.094476745 0.3853281 -0.44935584
0.38326034 0.076811746 0.020537362 0.42695436 -0.3599204 0.44980472 -0.30357966 -0.26361635
0.10285234 -0.16136783 -0.21826577 -3.5210557 -0.30865294 0.44239163 0.23918101 0.5522727
0.026504746 0.009438048 -0.11370908 0.019104915 -0.0639262 -0.033489943 -0.19876303 0.1799079
-0.10852541 -0.5284154 -0.36290452 -0.01857121 -0.5385044 0.45034236 -0.5079751 0.18754327
0.41890237 0.090129055 -0.18783227 -0.0792086 -0.17049392 -0.07029185 -0.6241008 0.19864309
0.047370095 -0.03806949 -0.01000288 0.050468266 0.041805774 0.049668398 -0.29462203 0.07768925
-0.253969 -0.30537397 0.06650996 0.060370173 -0.15356146 -0.21549843 0.045218308 -0.020295458

conv_layers.3.bias f4 [64]
00000000: 3cab 653e ed5f c43e 005b 8bbd 5b57 d0bd
00000010: 1138 0c40 a19d 3bbd 523f dc3e 1eb5 b73e
00000020: 82e4 2abe 57e2 883f adfe be3c d3df 65bd
00000030: 3fec 4ebf f514 8040 9459 00c0 9552 b2bd
00000040: 3899 47bd ff06 aebd eed5 61bd 11e4 18c0
00000050: 177e ba3c e793 863f f3f1 0c40 ac22 ca3f
00000060: 118e 313f d510 1c3e 033a 34bf 284d 083f
00000070: a41f edbd e2a1 40bd a255 843c 8aa4 a03f
00000080: e9c4 4abe 2b3f e0bd b373 683f d232 88bf
00000090: fbf6 573f d40c 08bf 2fc9 2b3d ec75 71bc
000000a0: 1ce4 52bd 3f2c 573f 794e 2e40 62be b8be
000000b0: ffd6 d8bf c8c2 2c3f 9839 ae3f 12ef 493f
000000c0: 72fd 893f 3065 a83f f071 5bbc a1d2 f63e
000000d0: ebd7 7a3d 799d 663c 9560 e0bc a6ea a1be
000000e0: 94ff d0bd c1b5 7ebd 65ba 6d3e f251 3fbf
000000f0: 386f 01c0 cc8f 8bbe a5fa 1640 edfe 27bf
0.22428602 0.38354436 -0.06804466 -0.10172912 2.190922 -0.045804624 0.4301706 0.3588037
-0.16688731 1.0694073 0.023314798 -0.05612166 -0.8082923 4.002558 -2.0054674 -0.087071575
-0.048730105 -0.08497428 -0.05513566 -2.38892 0.022765202 1.0513886 2.2022674 1.5791831
0.693574 0.15240796 -0.7040102 0.5324273 -0.115783006 -0.047029383 0.016154114 1.2550213
-0.19801678 -0.10949548 0.90801543 -1.0640509 0.8436124 -0.53144574 0.04193991 -0.014737587
-0.051487073 0.8405189 2.7235396 -0.3608275 -1.6940612 0.6748471 1.3611326 0.7888042
1.078047 1.315588 -0.013393864 0.48207572 0.06124107 0.01407563 -0.027389804 -0.31624335
-0.10204998 -0.062185053 0.23215635 -0.74734414 -2.0224133 -0.27258146 2.3590481 -0.6562336

conv_layers.4.weight f4 [128, 64, 3]
00000000: 4994 873d 1ad8 55bf 9445 d6be 0c5c 0a3d
00000010: 8a14 d1bd 4da0 213f 871a 33bd 4569 a2bd
00000020: 8b87 2bbd 58ee 4dbd 689c beba f99a 503b
00000030: 47a5 a63e 5f93 b13f 9686 b3be a7d0 0a3b
00000040: 00a6 043d fbf6 42bd afea 0e3e 5743 9ebf
00000050: cdec c73e 0a1f 55be a5ae 6abe ff7d 853e
00000060: 82f7 f7bd 6c68 d53f 1b61 833d 9bb0 9f3e
00000070: ab33 e3bd dcb0 663d 2a76 9e3e 78d9 0d40
00000080: fb83 a0bf 8203 933d b10e 0abd 4291 8dbf
00000090: 610c 94be b87c e23e 7777 14bf ffd9 363f
000000a0: 85d1 cebc d378 1d3d 87f4 743e 31bb 3cbf
000000b0: c3f3 e3be 5f6d 353d 175c 663d c3d9 65bd
000000c0: d444 6fbd 296f 763d 6dd3 9fbc b7df 823d
000000d0: 39fc a53c 3066 6abc 25aa a1bc 8d01 803d
000000e0: 02fb 1abd 0ec7 a8bd 75b6 0640 0b7d 72bf
000000f0: 4e6a f1bc aa8e 563c 9e12 1d3d 433e 883f
00000100: efac b93e 8cec 75bd 9b35 2c3f 3d9c 173f
00000110: 44ea 4dbe 4f98 25be eccf e23d 604b 57bc
00000120: 2199 833e e733 44c0 9e5a a3be d9f4 443e
00000130: 90af af3c d262 08be 1b17 2a40 73b5 b03e
00000140: 9359 5cbd e32c a4bf 57a4 2fc0 94af 7b40
00000150: b0b3 e1bf abad b0bf 1990 22bf cca3 8d3d
00000160: b53c 25bd 3e8a 643d 748c fd3e d9ca 8dbd
00000170: 8ee5 a1bf ab5c 87c0 b1d9 873f 0946 103f
00000180: 65e9 fdbf 688f 723f c50a d23e b66c 73bd
00000190: b035 533c 2e8b 953d 7989 5cbf af08 47be
000001a0: 01fd 40bf 47f5 f33f 90d5 b8be c52f 19bf
000001b0: 83e1 1a3e 559c dbbd b81a 363d e614 c0be
000001c0: c819 25c0 7640 13bf 8c3a f43e 24e8 f33f
000001d0: 791c 62c0 0719 283c cd8e 4e3d 2ad5 02bc
000001e0: 277f ab3b a420 893c 9085 d5bc f1d4 e7be
000001f0: edb2 57bf c9ef 7bbe bfd0 563d 9063 afbe
00000200: 607b 563e 4497 b9be c1f7 60bf e4f3 a9be
00000210: 1472 25be 5135 1d3e c021 743c 75e2 78bf
00000220: 5131 27bd bdc3 253e fe2f 4abf 0d15 113f
00000230: 32a9 86be 4c38 fdc0 1d8a 25c0 ac49 ee3d
00000240: c67a b3be 00af 5c3f c75d 623f 9ef8 a0be
00000250: e987 38bf ae9f 303f 944c 8fbd 44f9 afbd
00000260: 83b9 edbc 95ca 19bd 1d33 0ebf d35d 59be
00000270: 6594 f4be 66cb ed3e b855 10c0 58ef 69bb
00000280: 633c 283d 0502 8cbd 2517 69bd 41c3 77bd
00000290: 0c69 123d d459 65be b049 2dbe 5796 c43e
000002a0: 524f c63c 20ff 80bd 92d5 a43c ae96 33be
000002b0: d6da 733c feb4 b0bd b9f2 7b3e 4569 a7be
000002c0: 83c1 703e 222c 8f3f 8835 24c0 fa18 9ec0
000002d0: 3bd6 9d3d 0971 bcbf b141 80be 7863 253e
000002e0: 6678 0abf 27c0 053f 4792 343d 8f84 23bf
000002f0: 4ad7 203f f379 4cbe 59af 5bbf 81fd 8c3e
00000300: 0bc8 28bb 2b15 9abd 4cc2 3bbd 6f50 bbbf
00000310: 3087 053f 50d7 493e cc25 f13c 5d4b 863d
00000320: 49dd f23b 8a64 e0bd 1644 cebc 1e90 593d
00000330: ce7b 72be 231e bd3e 3017 d73c 52e8 c63c
00000340: b049 1c3c 0038 62bd 645d c03f 3b23 1f3e
00000350: a5d9 253d d865 25be acc9 5a3c 19cb 0c3d
00000360: 99b8 d3bf 01f8 873d b020 083e af04 47c0
00000370: e621 303d 9bb0 b73d 8c78 64be 2690 b4be
00000380: bc60 25bd 43ce c43e 91dc 26bd 3ad3 debc
00000390: 5278 f53e f945 123d d331 293d 9f65 5a3e
000003a0: 211e fd3c 6cdf 7ebd f7ec 9e3d c316 4fbd
000003b0: 929a c2bd d10d 383d 446a 5abd eb41 be3c
000003c0: 509f 78bd 7855 e3bc 92e1 123d 0be1 823d
000003d0: f8fd 273d 873f 593d bbd5 e73b dcd4 6c3d
000003e0: 52b4 6e3d 6127 3f3f 5fb9 e9bc af7b 90bf
000003f0: 7ede 15bd 57c7 413d 5e7a 44bd 3f8a 363e
0.0662008 -0.8353287 -0.4184996 0.03377919 -0.10208996 0.63135225 -0.04372647 -0.07930235
-0.04187731 -0.05027613 -0.0014542462 0.0031830652 0.32547972 1.3873099 -0.35063618 0.0021181495
0.032384872 -0.04759882 0.13956712 -1.23643 0.39047852 -0.20812622 -0.22918184 0.2607269
-0.12107755 1.6672492 0.06415006 0.31189427 -0.11093839 0.05632101 0.30949527 2.2163982
-1.2540277 0.071784034 -0.033705417 -1.1059954 -0.28915694 0.44235778 -0.5799479 0.71426386
-0.025246391 0.038445305 0.23921405 -0.7372313 -0.44521913 0.044293758 0.056240167 -0.056115877
-0.05841525 0.060164604 -0.019509995 0.063903265 0.02026187 -0.01430659 -0.019734452 0.06250296
-0.037837036 -0.08241092 2.1048863 -0.9472205 -0.029469635 0.013095537 0.038347833 1.0644001
0.3626475 -0.06004004 0.67269295 0.59222776 -0.20108896 -0.16171382 0.11074814 -0.013140529
0.25702766 -3.0656679 -0.31905073 0.19234027 0.02144602 -0.13318947 2.6576602 0.34513435
-0.053796362 -1.2826198 -2.7444055 3.9325914 -1.7632961 -1.3802999 -0.63501126 0.069160074
-0.040341098 0.0557959 0.4952122 -0.06923456 -1.264818 -4.230062 1.0613309 0.56356865
-1.9836851 0.9475007 0.41023842 -0.059429847 0.012891218 0.07301937 -0.86147267 -0.19436906
-0.75386053 1.9059228 -0.36100435 -0.59838516 0.15125088 -0.10723177 0.044459075 -0.37515944
-2.5796986 -0.57520235 0.47700918 1.9055219 -3.5329878 0.010259873 0.050429154 -0.007985393
0.0052336636 0.016739197 -0.026064664 -0.4527965 -0.84257394 -0.2460319 0.05244517 -0.34255648
0.20945501 -0.3624822 -0.8787804 -0.33193886 -0.16156799 0.1535237 0.014900625 -0.97220546
-0.040818516 0.1618795 -0.7897948 0.56672746 -0.2630096 -7.913122 -2.5865548 0.116351455
-0.35054606 0.8620453 0.8842434 -0.3143968 -0.7208238 0.6899365 -0.06997028 -0.085924655
-0.029019123 -0.037546713 -0.5554674 -0.21227197 -0.47769466 0.46444243 -2.2552319 -0.0035695639
0.041073214 -0.06836323 -0.056906838 -0.060488943 0.03574471 -0.22397548 -0.16922641 0.3839595
0.024207745 -0.06298661 0.02012137 -0.17537948 0.0148837175 -0.086282715 0.2460431 -0.32697502
0.23511319 1.1185343 -2.5657673 -4.940549 0.07706877 -1.4721996 -0.2505012 0.16151226
-0.54089963 0.52246326 0.044084813 -0.63874143 0.62828505 -0.19968395 -0.85814434 0.27537158
-0.0025754 -0.07523569 -0.045839593 -1.4633921 0.52159405 0.19711041 0.029436968 0.06557343
0.007411633 -0.10956676 -0.02517895 0.053115956 -0.2368004 0.36937055 0.026256174 0.0242807
0.009539053 -0.055229187 1.50285 0.15540783 0.040490765 -0.16152132 0.013353746 0.034373377
-1.654071 0.066391 0.1329372 -3.1096609 0.043001078 0.08969232 -0.2231161 -0.35266227
-0.040375456 0.38438615 -0.040737692 -0.02720033 0.4794336 0.035711262 0.04130728 0.21327828
0.030898156 -0.06222479 0.07760041 -0.050558817 -0.09502138 0.04493505 -0.053324 0.023224792
-0.060698807 -0.027750716 0.035859652 0.0639058 0.041013688 0.0530391 0.007075039 0.057820186
0.058277436 0.7466946 -0.028530775 -1.1287745 -0.03658914 0.047309246 -0.04796826 0.17826174

conv_layers.4.bias f4 [128]
00000000: 9659 b4be 0b56 d0c0 af00 cdbe 9c93 ff3d
00000010: f7c2 b73f 1f4d 30bf b3e2 283f ea84 71bd
00000020: eef9 cfbf a835 a3bd aa8a 10c0 ea4d 6040
00000030: a8cb 75bd b2aa 11c0 70ef 813f 8ab2 9740
00000040: 9348 013d eae3 6bbf c1de 34bf 48a5 cabe
00000050: 2a4d 853f 603e b3bd 146d c13b 3f0f 4fbe
00000060: 9133 0b3f 09db ba3e af13 76bd 1d8e 01bd
00000070: 9e9f 343e 6a9f 1bc0 dcb7 f2bd 9ca7 63be
00000080: 9845 98bf ea7f 64be 3d04 50bd 2bd1 72bd
00000090: 63d2 8fbf 604d df40 fabd ff3f 9295 05bd
000000a0: 769a cdbd b841 d1bd 7848 16bf b237 d2bd
000000b0: 6327 f8bc 77ed 59c0 f802 b1bc 5d13 b0bf
000000c0: 41e1 19bb e2cb 0f3f d36f 0640 2d88 2e40
000000d0: 8687 003f 76e6 18bf e4a5 32bf 9e17 6e3e
000000e0: ddf7 a7bf c28c 38c0 2eab 45bd 7f0a 0340
000000f0: f6e1 2dba 1a21 06c0 f302 7d3c 80ea 073f
00000100: df6c a93f 31f8 c6bf b4d5 7ebd b5dc 8d3e
00000110: 42a1 f53e 22e3 5abb 50ec a1bd 57d4 5fbd
00000120: c211 34be 6da9 2fc1 fc2e 40bd 4460 8140
00000130: f4c1 3640 bd03 5d3a 6440 98bf dc26 fa3f
00000140: 23ab 80be 6558 54bf 6db9 cabc 0341 19c0
00000150: d0a2 9cbc 2814 3abf 9cf5 dc3b 8d6b a5bf
00000160: a727 c0b7 944d 28c0 1499 443c b1dd a8bd
00000170: 8cfb 8a3f fc21 943e aef3 1ebe ebb5 d4bf
00000180: aee1 eb3f aa42 98bd 0ecb 0bbe fcaa ff3e
00000190: f819 9bbd c84c c1bf 77be 073f ee36 2cbe
000001a0: 29bc 7fbf 27ac 41c0 f867 f5be d47d 4fbe
000001b0: 0c28 efbd 120c b7bc ffb6 d93f ee72 833e
000001c0: c00a b6bf dc56 1bbf 197e 4dbe 691c 2a40
000001d0: 8cd5 7ebf 9324 8cbf 51d6 c4bf 0fab f4bf
000001e0: a2e0 9cbe 6e2f 173e d353 febd a6c8 dcbe
000001f0: 21f6 87c0 5fc9 a8bf 18a0 09bf 7e06 883e
-0.352246 -6.5105033 -0.40039584 0.12479326 1.4356374 -0.6886768 0.65970916 -0.058964647
-1.6248147 -0.079692185 -2.2584634 3.5047555 -0.060008675 -2.2760434 1.0151196 4.7405443
0.031563353 -0.92144644 -0.70652395 -0.39579225 1.0414174 -0.087521315 0.0059028957 -0.2022066
0.5437556 0.36495236 -0.060077365 -0.03162967 0.17639014 -2.4316049 -0.11851475 -0.22231907
-1.1896238 -0.2231442 -0.050785292 -0.05928151 -1.123608 6.978195 1.9979851 -0.032613344
-0.10039227 -0.10217613 -0.5870433 -0.10264529 -0.030292219 -3.4051187 -0.02160786 -1.3755909
-0.002348021 0.56170475 2.1005752 2.7270615 0.5020679 -0.59726655 -0.6978438 0.23251197
-1.3122517 -2.8835912 -0.048258953 2.0475156 -0.0006633097 -2.0957704 0.015442598 0.53092194
1.323635 -1.5544492 -0.062215522 0.2770745 0.47974592 -0.0033399542 -0.07906401 -0.054645862
-0.17584899 -10.978864 -0.046919808 4.043001 2.855588 0.0008431038 -1.189465 1.9543109
-0.25130567 -0.8294738 -0.024746621 -2.394593 -0.019120604 -0.72687006 0.006743146 -1.2923447
-2.2906648e-05 -2.629735 0.011999387 -0.08245409 1.0858016 0.28932178 -0.15522644 -1.6618017
1.8428247 -0.0743459 -0.13651678 0.49935138 -0.075733125 -1.5101557 0.53025 -0.16817829
-0.99896485 -3.0261323 -0.47930884 -0.20262843 -0.1167756 -0.022344623 1.7008971 0.25673622
-1.4222031 -0.6067941 -0.20067634 2.657984 -0.99544597 -1.0948662 -1.5377904 -1.9114703
-0.3064013 0.14764187 -0.12418332 -0.43121833 -4.248795 -1.3186454 -0.5375991 0.26567453

l1.weight f4 [12, 512]
00000000: f689 9fbc 14e8 41bb 3a61 033a c004 8e3e
00000010: e33e 423d c6c2 92b9 715b 70bc db0c 243c
00000020: 7ecb ccbd 485b 48bb 0b97 863c 2407 3abd
00000030: f49c 7ebc 21fc d53c 3fad c73c 98ea 9fbc
00000040: 2ada 52bc 3064 0a3b e8ec 053c 16e4 b63d
00000050: 6b06 9d3b e609 bb3a 33f8 a83c 7516 7bbd
00000060: 6ef6 ca3c a237 283b e190 33bd fe28 51bc
00000070: a8e1 10bc 73ed 0b3c be02 6dbc 17bb 05bd
00000080: 0d47 ab3d 0a6c c3bb f178 81bb 3d03 523d
00000090: c7ec 623d 36d4 423d 76ad b9bc ed69 833c
000000a0: 4d10 6dbc a4d1 143c 63cd 11bc 45f1 17bd
000000b0: b174 b3bb 5395 8f37 f622 bd3c 8a55 1ebb
000000c0: 3ae4 813c d366 d03c 5ed2 50bd 5f06 98bc
000000d0: bf25 4e3e 1693 923a 7696 6abc a7f3 6d3b
000000e0: a219 443c 555b a03b ef67 0cbb 3613 4e3d
000000f0: 7a07 abbd 3efd e33b b7ee cc3b 29bc 443c
00000100: 9672 fbbb 40f0 913c d84a 1c3c 0432 c93c
00000110: 2f1e dcbd c895 403c ae37 cd3b f25d 5f3d
00000120: 8464 dcbd 6c88 383b dce2 4f3c ae66 33bb
00000130: 4e1b bcbc eb58 9f3b c282 f4bc 90c4 793d
00000140: 8aea a1bc 5f27 e4b9 6252 6bbb f70e a53d
00000150: 518a 7f3d 5840 3dbd 1b40 b7bc a0e8 a93c
00000160: c4d4 5f3d 9529 2d3c 7ed7 1e3b 56cd 123e
00000170: 2ff9 a2bc fbd5 01bd 6e7e fa3c 9d7b 8dbc
00000180: 8a54 c13a 75a5 a23b a7ff 9b3c 61c7 2b3b
00000190: a43c b53b f3c0 8bbb f9b1 ea3b f35a cb3b
000001a0: df38 613b e6fc a43b dae1 81bc d0c0 c1ba
000001b0: 95dc ffbc 8c97 a4bc 8722 d73a 13c7 3bbd
000001c0: 8830 873f 049e 843c 07a0 2d3e 4913 813d
000001d0: 1b90 963c f93d d6bc 1185 c83b d4d7 c6bc
000001e0: 7ce6 693c 6c54 1cbd 24df 2b3c c597 cbbc
000001f0: 0003 44bb ed24 75bc 74cb 87bb 8f05 19bb
00000200: 1647 8cbc 4d0b f13b b88a 9abc 67d5 7f3e
00000210: 0e25 efbc 3b65 c43c 62db e63c 8415 62be
00000220: 5566 fdb9 e1e1 a5bc 5846 acba 117d d73a
00000230: 4d26 613c e164 7c3d b374 803b 47a7 b0bb
00000240: 77f7 9a3b f939 1eba b5a0 5f3b 6094 ee3c
00000250: 129c 66bc 1feb 9aba 4c3c 643a 59f7 de3a
00000260: 198d 4fbb 7261 72ba d66f bf3a c18c cfbc
00000270: f627 6ebd 6e5a b3bb 85a0 823c 7037 943d
00000280: 4f21 843a de8d 9a3b 6a34 a73d 0ce0 863d
00000290: 9012 1cbc 58c4 03bd 10d7 e03c 6af5 2e3d
000002a0: 81b8 413e b3f6 07bc 6ba7 9c3a 5602 0fbc
000002b0: af94 663c d846 a13b 7ec4 103d 55dd ff3b
000002c0: 79bd 90bc 7e6e 24bc dd28 143c e190 64bc
000002d0: 2e44 1f3e e3a6 8ebd 92e3 903b 9219 60bc
000002e0: f542 a93c 7448 fb3a ce6c 8cbb edc8 94b9
000002f0: bdb7 123e 304e 57bb 647a 72bd 93bf 903d
00000300: 895f 41bd 47cf f5bc 3d40 6f3d 420e 92bc
00000310: 5f06 d13b 9536 7a3c 5b7a aebd 8ea9 113d
00000320: 2e77 c1bb af96 bf3b 3463 bbbb b984 633c
00000330: 0b2d 173d 981f d63a 90d0 16bc 6fbb c73e
00000340: a676 8b3c 870c cfbb 84e5 d8b8 e8b5 bfbc
00000350: 04bd f4bc e161 923b 19ea 313e c499 03be
00000360: 0f33 91bb 467b 0039 848a 6bba a079 b03a
00000370: 9925 bc3b f398 9ebb 976a 47bf a54f d5bd
00000380: 1324 0b3c 986e ec3a 7d4f debc f1c2 f4bc
00000390: 5638 b53c 96b4 42bb e3ff ccbc 1025 2b3c
000003a0: f308 ce3c 43d5 92bb 9c55 e43c 58df 00bd
000003b0: ba3b 1e3e a47c d63b 3791 d1bc 48fc 87be
000003c0: 7827 993c 6744 733b b709 01bd f786 73bc
000003d0: a173 bbbd 464f bb3c bce0 57bc 3835 47bd
000003e0: 3687 b4bc 50eb dfbc 6305 483c d21d 48bc
000003f0: 8b5b 09ba e1ba 03bc c713 e83d 32f6 7dbc
-0.019474965 -0.0029587792 0.00050117413 0.27738 0.047423255 -0.00027992408 -0.014670239 0.010012831
-0.099997506 -0.0030571986 0.016429445 -0.045416966 -0.01554035 0.026121201 0.024374602 -0.019521043
-0.012869397 0.0021116845 0.008174159 0.08930223 0.004792025 0.0014269918 0.020626163 -0.061300714
0.02477571 0.0025667925 -0.04383934 -0.012766121 -0.008842863 0.008540499 -0.014465986 -0.032649126
0.08363161 -0.005963807 -0.003951185 0.05127262 0.05540159 0.04756566 -0.02266572 0.01604172
-0.014469218 0.009083185 -0.008899066 -0.037095327 -0.005476557 1.7116463e-05 0.02308796 -0.0024159872
0.015855897 0.025439655 -0.05098187 -0.018557725 0.20131586 0.0011182751 -0.014318099 0.0036308558
0.011969002 0.0048937 -0.0021424254 0.05031129 -0.083510354 0.006957679 0.006254043 0.0120077515
-0.007673572 0.017814755 0.0095393285 0.024559982 -0.107479446 0.011754461 0.006262741 0.054532953
-0.10761359 0.0028157486 0.012688365 -0.0027374434 -0.022962239 0.004862895 -0.029847506 0.060978472
-0.019765157 -0.00043516883 -0.0035907258 0.08059495 0.06238777 -0.04620394 -0.022369435 0.020740807
0.05464627 0.010568996 0.002423733 0.14336142 -0.01989421 -0.03169821 0.030577864 -0.017270857
0.0014749926 0.0049635717 0.019042803 0.0026211368 0.0055309106 -0.0042649447 0.0071623293 0.0062059104
0.0034366173 0.0050350307 -0.015854765 -0.0014782194 -0.031233111 -0.020091794 0.0016413488 -0.04584415
1.0561686 0.016188629 0.16955577 0.063025065 0.018379262 -0.026152598 0.0061193784 -0.024272837
0.014276143 -0.03816645 0.010490213 -0.024852643 -0.0029909015 -0.014962417 -0.0041441265 -0.002334926
-0.01712374 0.0073560835 -0.018864974 0.2498375 -0.029192474 0.023974052 0.028180782 -0.2207852
-0.00048332164 -0.020249309 -0.0013143523 0.0016440471 0.013742042 0.061619643 0.0039201616 -0.0053910348
0.004729207 -0.000603586 0.0034122888 0.029123485 -0.014075296 -0.0011819339 0.00087064947 0.0017010971
-0.0031669794 -0.0009246088 0.0014605473 -0.025335671 -0.05814358 -0.0054734265 0.015945682 0.07237136
0.0010080728 0.004716619 0.08164294 0.06585702 -0.00952591 -0.03216967 0.0274463 0.042714514
0.18918039 -0.008298564 0.001195175 -0.008728584 0.014073535 0.0049217753 0.03534364 0.0078083673
-0.017668473 -0.010036109 0.009042946 -0.013950557 0.15553352 -0.06965425 0.0044216597 -0.013677971
0.02066181 0.0019171373 -0.0042854315 -0.0002837846 0.14327903 -0.0032853 -0.059198752 0.0706779
-0.04721025 -0.030006064 0.05841087 -0.017829064 0.0063789333 0.015271802 -0.08519431 0.03556209
-0.0059041 0.0058468203 -0.005718613 0.013886624 0.03690819 0.001633632 -0.009204999 0.39010188
0.01702435 -0.006318632 -0.00010342433 -0.02340217 -0.029875286 0.0044672345 0.17374457 -0.12851626
-0.0044311355 0.00012252954 -0.0008985179 0.0013463981 0.0057417867 -0.0048400103 -0.7789702 -0.104155816
0.0084924875 0.0018038331 -0.027137512 -0.029878112 0.02212159 -0.0029709688 -0.02502436 0.010445848
0.025150752 -0.004480989 0.027872853 -0.031462997 0.15452471 0.00654562 -0.02558194 -0.26559663
0.018695578 0.0037119628 -0.031503405 -0.014863721 -0.09152914 0.022864949 -0.013176139 -0.048634738
-0.02203713 -0.027333885 0.012208316 -0.012214141 -0.0005239776 -0.008040161 0.11331897 -0.015500592

l1.bias f4 [12]
00000000: 4bb7 6d3d 88cf a13e a1ed 3ebf c97b 8abe
00000010: 2b1f a53f 7850 713e 39b1 dc3e 2fbf a43f
00000020: 9336 a63f c6ea 4d40 e85f 5640 2f4e cf3f
0.05803613 0.31603646 -0.7458134 -0.27047566 1.2900137 0.23565853 0.4310396 1.2870845
1.2985405 3.2174544 3.3496037 1.6195735
