results/Elemental_Mapping/models/CNN1Dplus_testSaintJohn.pt (torch, 491837 bytes, 13 tensors)

prior_layer.w f4 [12, 4096]
000000 87 d6 3b 37 76 04 48 37 0c e3 54 37 7c 7a 62 37
       1.1196017e-05 1.1921968e-05 1.2689048e-05 1.3499168e-05
000010 3b d3 70 37 00 f6 7f 37 e4 f5 87 37 e7 5e 90 37
       1.4354296e-05 1.5256461e-05 1.6207756e-05 1.721033e-05
000020 c8 3a 99 37 6a 8e a2 37 cd 5e ac 37 11 b1 b6 37
       1.8266393e-05 1.9378222e-05 2.0548143e-05 2.1778544e-05
000030 79 8a c1 37 63 f0 cc 37 4f e8 d8 37 d6 77 e5 37
       2.3071874e-05 2.4430634e-05 2.5857384e-05 2.735473e-05
000040 b1 a4 f2 37 59 3a 00 38 e3 76 07 38 fa 0a 0f 38
       2.8925338e-05 3.057192e-05 3.229723e-05 3.410408e-05
000050 ab f9 16 38 0f 46 1f 38 4a f3 27 38 88 04 31 38
       3.599531e-05 3.79738e-05 4.0042483e-05 4.220431e-05
000060 fb 7c 3a 38 df 5f 44 38 73 b0 4e 38 fc 71 59 38
       4.4462253e-05 4.681933e-05 4.927856e-05 5.1842988e-05
000070 c1 a7 64 38 0c 55 70 38 27 7d 7c 38 ac 91 84 38
       5.451567e-05 5.7299665e-05 6.019804e-05 6.321384e-05
000080 72 25 8b 38 87 fb 91 38 86 15 99 38 0a 75 a0 38
       6.635011e-05 6.9609894e-05 7.2996176e-05 7.651195e-05
000090 a5 1b a8 38 e5 0a b0 38 52 44 b8 38 68 c9 c0 38
       8.0160135e-05 8.394363e-05 8.786529e-05 9.192788e-05
0000a0 9e 9b c9 38 5e bc d2 38 08 2d dc 38 ef ee e5 38
       9.613413e-05 0.000100486664 0.00010498805 0.00010964076
0000b0 59 03 f0 38 7a 6b fa 38 3d 94 02 39 b6 1d 08 39
       0.00011444715 0.00011940948 0.00012452989 0.00012981039
0000c0 a9 d2 0d 39 8e b3 13 39 d1 c0 19 39 d3 fa 1f 39
       0.00013525285 0.00014085902 0.00014663047 0.00015256861
0000d0 e9 61 26 39 5e f6 2c 39 6c b8 33 39 43 a8 3a 39
       0.00015867468 0.00016494977 0.00017139473 0.00017801025
0000e0 01 c6 41 39 b9 11 49 39 6b 8b 50 39 0b 33 58 39
       0.00018479677 0.00019175456 0.00019888363 0.0002061838
0000f0 78 08 60 39 83 0b 68 39 ea 3b 70 39 5a 99 78 39
       0.0002136546 0.00022129533 0.00022910503 0.00023708251
000100 b6 91 80 39 d3 ec 84 39 bf 5d 89 39 28 e4 8d 39
       0.00024522626 0.0002535345 0.00026200523 0.00027063605
000110 b4 7f 92 39 ff 2f 97 39 99 f4 9b 39 0a cd a0 39
       0.00027942436 0.00028836724 0.00029746143 0.00030670344
000120 cd b8 a5 39 54 b7 aa 39 06 c8 af 39 3f ea b4 39
       0.0003160894 0.00032561517 0.0003352763 0.00034506802
000130 53 1d ba 39 8c 60 bf 39 2b b3 c4 39 6d 14 ca 39
       0.00035498533 0.00036502292 0.00037517524 0.0003854366
000140 8c 83 cf 39 c1 ff d4 39 51 88 da 39 90 1c e0 39
       0.00039580127 0.00040626343 0.00041681764 0.0004274589
000150 f0 bb e5 39 14 66 eb 39 dd 1a f1 39 8a da f6 39
       0.00043818308 0.00044898747 0.00045987117 0.000470836
000160 cc a5 fc 39 f2 3e 01 3a 5b 32 04 3a 70 2e 07 3a
       0.00048188714 0.0004930339 0.0005042904 0.0005156761
000170 dd 34 0a 3a a2 47 0d 3a 05 69 10 3a 6e 9b 13 3a
       0.00052721595 0.0005389397 0.0005508813 0.0005630766
000180 39 e1 16 3a 80 3c 1a 3a d7 ae 1d 3a 07 39 21 3a
       0.00057556067 0.0005883649 0.0006015128 0.00061501603
000190 cc da 24 3a a7 92 28 3a b9 5d 2c 3a c8 37 30 3a
       0.0006288707 0.00064305443 0.0006575245 0.0006722179
0001a0 54 1b 34 3a d4 01 38 3a 09 e4 3b 3a 65 ba 3f 3a
       0.0006870527 0.00070193154 0.0007167464 0.0007313847
0001b0 7a 7d 43 3a 62 26 47 3a 1e af 4a 3a d7 12 4e 3a
       0.0007457357 0.0007596967 0.0007731783 0.0007861084
0001c0 0a 4e 51 3a 92 5e 54 3a 92 43 57 3a 4e fd 59 3a
       0.0007984346 0.000810125 0.0008211668 0.00083156384
0001d0 f3 8c 5c 3a 55 f4 5e 3a ab 35 61 3a 5b 53 63 3a
       0.0008413337 0.0008505036 0.0008591066 0.0008671784
0001e0 c0 4f 65 3a 09 2d 67 3a 22 ed 68 3a a3 91 6a 3a
       0.00087475404 0.00088186614 0.0008885433 0.0008948093
0001f0 d1 1b 6c 3a a0 8c 6d 3a b9 e4 6e 3a 8c 24 70 3a
       0.00090068305 0.0009061787 0.0009113062 0.00091607193
000200 54 4c 71 3a 28 5c 72 3a 03 54 73 3a cc 33 74 3a
       0.0009204794 0.00092453 0.0009282233 0.00093155797
000210 5d fb 74 3a 89 aa 75 3a 22 41 76 3a f8 be 76 3a
       0.00093453174 0.000937142 0.0009393861 0.0009412612
000220 e0 23 77 3a b2 6f 77 3a 50 a2 77 3a a8 bb 77 3a
       0.0009427648 0.0009438946 0.00094464887 0.0009450265
000230 b2 bb 77 3a 77 a2 77 3a 13 70 77 3a b7 24 77 3a
       0.0009450271 0.00094465114 0.00094390026 0.0009427773
000240 a9 c0 76 3a 4b 44 76 3a 15 b0 75 3a 9e 04 75 3a
       0.0009412864 0.0009394332 0.00093722466 0.00093466963
000250 94 42 74 3a be 6a 73 3a fc 7d 72 3a 3e 7d 71 3a
       0.0009317782 0.000928562 0.00092503405 0.0009212083
000260 83 69 70 3a d7 43 6f 3a 46 0d 6e 3a dd c6 6c 3a
       0.0009170996 0.00091272354 0.00090809574 0.00090323185
000270 9e 71 6b 3a 80 0e 6a 3a 62 9e 68 3a 0b 22 67 3a
       0.0008981469 0.0008928552 0.00088736985 0.00088170235
000280 1e 9a 65 3a 1f 07 64 3a 69 69 62 3a 31 c1 60 3a
       0.0008758622 0.0008698571 0.0008636923 0.00085737096
000290 86 0e 5f 3a 54 51 5d 3a 6b 89 5b 3a 83 b6 59 3a
       0.0008508939 0.00084426 0.0008374664 0.00083050894
0002a0 44 d8 57 3a 53 ee 55 3a 51 f8 53 3a ee f5 51 3a
       0.0008233825 0.0008160818 0.0008086013 0.00080093637
0002b0 ea e6 4f 3a 1a cb 4d 3a 75 a2 4b 3a 0f 6d 49 3a
       0.0007930832 0.0007850394 0.00077680434 0.00076837925
0002c0 20 2b 47 3a 05 dd 44 3a 41 83 42 3a 78 1e 40 3a
       0.00075976737 0.0007509741 0.0007420071 0.0007328759
0002d0 6f af 3d 3a 0b 37 3b 3a 4a b6 38 3a 3f 2e 36 3a
       0.00072359195 0.0007141686 0.0007046206 0.000694964
0002e0 0e a0 33 3a e4 0c 31 3a f2 75 2e 3a 69 dc 2b 3a
       0.0006852158 0.0006753935 0.00066551485 0.0006555976
0002f0 6f 41 29 3a 20 a6 26 3a 85 0b 24 3a 93 72 21 3a
       0.0006456589 0.0006357152 0.000625782 0.00061587355
000300 29 dc 1e 3a 0e 49 1c 3a f0 b9 19 3a 69 2f 17 3a
       0.0006060028 0.0005961814 0.00058641937 0.00057672575
000310 fd a9 14 3a 1e 2a 12 3a 2f b0 0f 3a 86 3c 0d 3a
       0.0005671082 0.0005575734 0.00054812705 0.0005387742
000320 6e cf 0a 3a 2a 69 08 3a fa 09 06 3a 17 b2 03 3a
       0.00052951917 0.0005203659 0.0005113181 0.0005023791
000330 b8 61 01 3a 23 32 fe 39 ad b0 f9 39 70 3f f5 39
       0.00049355207 0.0004848401 0.00047624615 0.00046777306
000340 c8 de f0 39 0c 8f ec 39 8e 50 e8 39 94 23 e4 39
       0.00045942352 0.00045120006 0.00044310506 0.00043514057
000350 5c 08 e0 39 11 ff db 39 cf 07 d8 39 9a 22 d4 39
       0.00042730838 0.00041960974 0.00041204548 0.0004046157
000360 56 4f d0 39 c4 8d cc 39 71 dd c8 39 b7 3d c5 39
       0.0003973196 0.00039015536 0.0003831196 0.0003762075
000370 aa ad c1 39 13 2c be 39 6b b7 ba 39 d9 4d b7 39
       0.00036941218 0.00036272462 0.00035613342 0.0003496248
000380 3c ed b3 39 37 93 b0 39 4f 3d ad 39 0e e9 a9 39
       0.00034318294 0.0003367902 0.0003304281 0.0003240783
000390 34 94 a6 39 ed 3c a3 39 00 e2 9f 39 0d 83 9c 39
       0.00031772407 0.00031135176 0.00030495226 0.0002985228
0003a0 ac 20 99 39 8f bc 95 39 7f 59 92 39 57 fb 8e 39
       0.00029206777 0.00028559982 0.0002791397 0.00027271613
0003b0 dc a6 8b 39 87 61 88 39 19 31 85 39 24 1b 82 39
       0.00026636466 0.00026012605 0.00025404317 0.00024815754
0003c0 76 4b 7e 39 87 a8 78 39 d0 56 73 39 25 58 6e 39
       0.00024251439 0.00023713904 0.00023206626 0.00022730285
0003d0 c1 aa 69 39 73 4a 65 39 80 31 61 39 da 57 5d 39
       0.00022284222 0.00021866876 0.00021476112 0.0002110893
0003e0 7a 37 5a 39 a1 e3 56 39 0a b4 53 39 07 a2 50 39
       0.00020810767 0.00020493429 0.00020189598 0.00019896786
0003f0 f7 a7 4d 39 ef c1 4a 39 9d ed 47 39 73 2d 45 39
       0.00019612895 0.00019336467 0.00019066637 0.00018804315

conv_layers.0.weight f4 [64, 13, 5]
000000 b3 24 2e 3e 12 e3 58 bf 74 6e f8 bf 10 d3 ef 3e
       0.17006187 -0.8472148 -1.9408708 0.46840715
000010 f1 82 ad 3d d9 72 a5 be 04 a2 d7 bf 87 aa 27 c0
       0.08472241 -0.32314184 -1.6846318 -2.6197832
000020 8e b6 95 bf 79 8c a8 be 97 32 4f c0 62 42 91 bf
       -1.1696336 -0.32919672 -3.2374628 -1.1348383
000030 b7 2c 2a c0 3a a8 a8 bf bc 34 24 be b6 26 a2 3d
       -2.6589792 -1.3176339 -0.16035742 0.0791754
000040 8c 1d b1 bf 7b 5f f5 bf a0 f7 a7 bf 24 e4 bf 3d
       -1.3837142 -1.9169763 -1.3122444 0.09369686
000050 25 09 4f bd 75 da 40 bf de 73 a5 bf 59 98 60 bf
       -0.05054583 -0.7533334 -1.2925985 -0.87732464
000060 23 c4 ce bc a4 92 82 c0 1e 9b 9f 3f f2 2d 2d c0
       -0.02524001 -4.0804005 1.2469213 -2.7059293
000070 d6 78 89 3e 87 61 30 bf c1 b6 26 3e 39 93 a7 bf
       0.26850003 -0.68898815 0.16280653 -1.3091804
000080 ea 5c 70 c0 6b b4 9d bf f4 5c ac 3d d7 13 9d 3e
       -3.755671 -1.2320684 0.08416167 0.306792
000090 02 f7 aa bf 12 a1 02 c0 2e 20 ec bf 7c aa 81 3e
       -1.3356631 -2.041081 -1.844732 0.25325382
0000a0 da 5c 09 3d 43 6c 87 bf dd 57 29 c0 40 dc b2 bf
       0.033535816 -1.0579914 -2.6459877 -1.3973465
0000b0 d4 31 3d bd 9c 77 b3 3d 00 a7 8c bf e1 ee c4 bf
       -0.046190098 0.08763048 -1.0988464 -1.53854
0000c0 05 e0 5c bf 0b d7 21 3e b1 54 61 3e 47 ed d3 3e
       -0.86279327 0.15804689 0.22004963 0.41391966
0000d0 a5 69 90 bf 2f ed 4c 3e a4 8c 0e be d8 16 16 3c
       -1.128224 0.20012353 -0.13920838 0.00916072
0000e0 53 5d 02 bf ed 6c 9a bf 41 cc 0b 3f e9 a1 2b be
       -0.5092365 -1.2064492 0.5460854 -0.16760983
0000f0 0e 52 b3 3c cb 9d ef bf b1 2a 4c c0 0a 6a e3 bf
       0.021889713 -1.872003 -3.1901057 -1.7766736
000100 33 54 99 3d ff 27 32 bb 6f c4 af c0 5c 71 9f bf
       0.07486763 -0.0027184484 -5.4927287 -1.245647
000110 80 76 1f bf 8a 93 e8 bf d9 fa 18 c1 d6 5c df c0
       -0.6229019 -1.8170025 -9.561242 -6.9800825
000120 b9 15 14 c0 ae 06 53 be 21 18 8a c0 87 9c 13 c1
       -2.3138258 -0.20608017 -4.3154454 -9.225715
000130 71 ca de c0 3d 84 bd c0 7f 4f 00 3e 2e 0d a1 c0
       -6.962212 -5.9223924 0.12530325 -5.032859
000140 e2 69 32 be ed 21 79 c0 e9 f4 3a bd 53 62 0a c0
       -0.17423204 -3.8926957 -0.04564372 -2.1622512
000150 79 40 2b c0 a8 31 96 3e 1f d0 23 3f 8c d1 44 3e
       -2.67581 0.2933476 0.6398944 0.19220561
000160 62 b3 08 bd 20 02 39 be d2 f1 27 c0 8f 30 d1 c0
       -0.033374198 -0.18067217 -2.6241345 -6.5371776
000170 e4 de 5d c0 86 02 c7 3e 42 b6 a6 c0 d0 e8 22 3d
       -3.4667292 0.38869113 -5.2097483 0.03977281
000180 9b 65 1b 3d 92 4e af bf b4 4d dc 3d 8a ab f2 3c
       0.037938695 -1.3695853 0.10757008 0.029622812
000190 71 d8 0a c1 64 56 f5 c0 e6 a6 1d c0 4f 40 ca be
       -8.677842 -7.6667957 -2.4633117 -0.3950219
0001a0 7b 5f 3b c0 2c 9c 75 bf 70 67 d2 be 9b 4d b8 bd
       -2.9277027 -0.95941424 -0.41094542 -0.08999177
0001b0 67 4b 53 3e 8a 5d 98 be 1f b4 c8 3b f3 64 6d bd
       0.20634232 -0.29758865 0.0061249877 -0.0579576
0001c0 2b 6d 0e c0 43 ac f1 bf e4 2d c9 3e cc b3 8d c0
       -2.225413 -1.8880695 0.39292824 -4.428198
0001d0 ce c5 03 c1 f5 15 1f c0 2b 2e 32 3f b0 5e 80 3d
       -8.235792 -2.4857152 0.69601697 0.0626806
0001e0 82 2f 3f c0 ab 9b 6d bf 59 eb 78 be ea 5b 8e c0
       -2.9872746 -0.92815655 -0.24308528 -4.44872
0001f0 05 71 d8 bf 0e 7e cf 3c c9 4b ef 3c 47 b2 8f 3c
       -1.6909491 0.025328662 0.029210942 0.017541064
000200 14 74 97 be 05 c0 96 bb 1e 05 09 c0 47 27 78 c0
       -0.29580748 -0.004600527 -2.1409373 -3.8773973
000210 ac 6e da 3d 6f 47 3e be d5 f9 08 3e 1a 7f 50 3e
       0.1066564 -0.18581937 0.13376553 0.20360985
000220 a9 78 24 bf 2b 2c 07 bf 61 0b 1a be e8 c0 0a 3c
       -0.6424661 -0.5280177 -0.15043403 0.008468844
000230 fc 70 01 bf f6 31 bd bf 89 e7 96 bd 9d 75 3d bd
       -0.50563025 -1.4780872 -0.073683806 -0.046254743
000240 58 6a 5a bd e4 9d 59 bf 14 e8 1b bf 8a 5c 6f 3e
       -0.053324074 -0.85006547 -0.60901 0.23375145
000250 43 fa 46 3d cb b8 0f 3e 8d d1 e5 3e 72 4f ff be
       0.048578512 0.14035337 0.44886437 -0.498653
000260 32 e4 a7 bd c2 d3 05 be 64 9c c2 3d d5 7f 9e bf
       -0.08197822 -0.1306906 0.095024854 -1.2382761
000270 5e 7c 0a c0 fe 60 02 c0 d3 04 be bd 33 91 14 3e
       -2.1638408 -2.03717 -0.09278264 0.14508514
000280 13 3f 1a c0 09 2d 04 c0 2a 93 7b bf aa 4b 61 bd
       -2.4100997 -2.0652487 -0.9827143 -0.0550038
000290 12 ff 30 bb 84 6c 43 be 5f e6 19 c0 1a 40 f8 be
       -0.0027007503 -0.19084364 -2.4046857 -0.48486406
0002a0 f7 eb 68 3e e7 34 bb 3e de 06 b5 be 29 6e 87 bf
       0.22746263 0.365638 -0.35356802 -1.0580493
0002b0 e5 b8 7c c0 43 10 8a be a7 50 63 bf 8f 5b 17 be
       -3.948785 -0.26965532 -0.8879494 -0.1478102
0002c0 89 e6 5d bf bf 3b 67 3d 51 ac 8f 3d 35 17 a2 3d
       -0.86679894 0.056453463 0.070152886 0.07914583
0002d0 e8 d2 31 3f d7 ee 59 3f 8b 9f 41 3d f5 ce 0d 3f
       0.6946244 0.85130066 0.047271293 0.55393916
0002e0 70 7e 87 3e c8 b4 48 3e 7e c2 0d 3f 34 5b 1c 3e
       0.26463652 0.19600213 0.55374897 0.15269166
0002f0 b3 cf 98 be d1 7d 67 bd ec f8 33 bf a1 31 85 bf
       -0.29845962 -0.056516472 -0.703017 -1.040577
000300 9b a3 26 bd 71 24 d9 bc 62 3f 1c bd d7 ab 8c be
       -0.04068337 -0.026506634 -0.038146384 -0.27474853
000310 18 e3 68 3d 4a 5a 01 bd 5f 39 dd bf 88 b0 1d be
       0.0568572 -0.031580247 -1.7283133 -0.15399373
000320 3b 2c 3a bf 4f 3c 86 3d 93 5c 47 3d 47 df 3d c0
       -0.7272374 0.06554472 0.04867227 -2.9667528
000330 b7 24 86 be 99 1f 54 3d 3d 72 e7 be 30 dd 86 3c
       -0.26199886 0.051787946 -0.45204344 0.016462892
000340 81 36 8d bf c5 b3 68 bf 85 56 01 bf 5f b2 24 be
       -1.1032258 -0.90899307 -0.50522643 -0.16083668
000350 59 ae 85 be dd c6 95 bf 83 38 ab bb b9 2a 35 be
       -0.2610958 -1.1701313 -0.0052252426 -0.17692079
000360 f2 f8 21 bf c2 14 dc be 8d da 21 bc a7 d0 e9 ba
       -0.63270485 -0.42984587 -0.009878767 -0.0017838673
000370 02 78 ac bd e1 d5 86 be 15 b0 be bd c0 a5 fc 3d
       -0.08421327 -0.26335052 -0.09310929 0.12336302
000380 50 d7 e5 3d 0c 36 cc bf 80 d1 9c 3d d3 49 4d bf
       0.11222708 -1.5953994 0.076571465 -0.8019077
000390 db 4d 87 c0 b5 d6 06 c0 06 fd 64 bf ed 3f 40 3d
       -4.228254 -2.1068547 -0.89448583 0.046935964
0003a0 4f ce 83 3c be c4 3b c0 fa a4 61 be dc c6 dd bd
       0.016089587 -2.9338832 -0.2203559 -0.10828945
0003b0 2f 51 cc be 42 81 56 bd 8c 4e 26 3e 46 c1 d8 3d
       -0.39905688 -0.052369364 0.16240901 0.10583739
0003c0 1b 7c 21 be 04 fe 8a bf 5b a2 d6 3c 3d 55 52 c0
       -0.15769999 -1.085877 0.026200464 -3.2864525
0003d0 4b a4 32 be 8a e1 59 3f 3a 29 e2 3f 6f db 89 3f
       -0.17445485 0.8510977 1.7668831 1.0770091
0003e0 35 11 99 3e b6 e4 2b 3e 95 70 a1 3e bd 3a 3f 3f
       0.2989594 0.16786465 0.31531206 0.74699
0003f0 ba e3 dc 3e 84 f4 59 b9 e3 bd 21 3b 9b 5a 5d bd
       0.43142492 -0.00020785822 0.0024679832 -0.054041486

conv_layers.0.bias f4 [64]
000000 42 a1 4a 3d db be a8 bb 66 d0 a9 bc 25 c3 13 bc
       0.049470194 -0.005149705 -0.020729255 -0.009018694
000010 bf ef c2 bb 17 7a c6 3c c6 c7 9e bb f4 e2 8f bb
       -0.00594899 0.024228139 -0.004845592 -0.0043910686
000020 51 e3 13 bc f2 d1 45 bc 28 a9 7c ba 84 7f 68 bc
       -0.009026364 -0.012073981 -0.00096382434 -0.014190558
000030 18 d5 17 bc f0 9d 05 bc eb b7 21 bc 74 59 12 bc
       -0.009267114 -0.008155331 -0.00987051 -0.00893246
000040 7c 99 ce bb d8 bf e6 bb 03 f2 27 bc 2a 27 a1 bb
       -0.006304918 -0.0070419125 -0.010250571 -0.004917999
000050 ec 7f 88 3c 45 59 a4 3c 8f 08 ac bc d5 a5 d7 bf
       0.01666256 0.020062098 -0.021000175 -1.6847483
000060 ae d9 4a bc 37 e4 93 be 83 3d 97 bc f8 b7 4a 3d
       -0.012381 -0.28885052 -0.018461948 0.049491853
000070 94 47 02 bc d6 2b 22 bc b0 1c f8 3b ea 0d 3e bb
       -0.007951636 -0.009898147 0.007571779 -0.0028999993
000080 06 62 3a 3d da 75 7f 3e c4 6c 8d 3e a7 91 cc bc
       0.04550364 0.249473 0.27622044 -0.024971796
000090 58 f9 a1 bb c3 55 cb bb d4 83 fb bb af d6 ed 3c
       -0.004943054 -0.006205292 -0.0076756272 0.029033033
0000a0 f2 c4 86 3e 8c 82 94 3d bc 52 e8 bb 98 56 5c bb
       0.26322132 0.07251462 -0.007089941 -0.003362095
0000b0 8a 5f 70 3c a3 5c 99 bb ed 2a 2b 3d a1 eb 8e bb
       0.014671216 -0.0046802326 0.041788984 -0.0043615852
0000c0 93 7c 17 3b cb 26 16 bc 05 2b 2f 3e 69 47 43 bb
       0.0023115024 -0.009164522 0.17106254 -0.0029797202
0000d0 89 bb fb bf 41 b5 b1 3a 3c 4e ce bc cc 16 3b bc
       -1.9666606 0.0013558046 -0.02518379 -0.011419009
0000e0 7a a5 c8 3e 8a 58 97 3d 46 11 af bc ca 20 73 bc
       0.3918875 0.07389934 -0.021370541 -0.0148393605
0000f0 98 bc 6a bb 66 9b 48 3f b2 10 7a 3c 3f 81 da bb
       -0.0035817977 0.7836212 0.01526277 -0.0066682394

conv_layers.1.weight f4 [64, 64, 3]
000000 87 42 e2 bd f1 6d 9d 3d b1 4e 51 be 6e 75 5c 3d
       -0.11047845 0.07686985 -0.20440175 0.053822927
000010 f4 ce 93 3d 26 9e 8d 3e b9 e8 ae 3e 5f 30 e1 3c
       0.072172076 0.2765972 0.34161928 0.027488885
000020 8a 99 99 be af 03 82 be 4d 77 d5 3e 73 f1 02 40
       -0.29999954 -0.25393435 0.41692582 2.045987
000030 ad 59 2f c0 12 9f 4d c1 f6 04 a0 3e 07 5f b6 3e
       -2.7398484 -12.851336 0.31253785 0.35619375
000040 f2 2b 94 be 16 45 61 3f 28 e7 6f be 82 b8 ee be
       -0.28939778 0.8799604 -0.23428023 -0.46625143
000050 f8 76 eb be 12 fe 0b 3f 16 9b 19 bf db 97 32 bf
       -0.45989203 0.54684556 -0.6000227 -0.69762963
000060 56 b7 cd be 42 a7 02 3d 6f f3 ba be e4 5f 84 3e
       -0.40178937 0.03189779 -0.3651385 0.2585441
000070 68 29 22 3e 90 b3 23 3f cd 81 88 c0 db d5 b9 bf
       0.15836108 0.63945866 -4.265845 -1.4518389
000080 ac 52 5f 3e 01 1f 71 bd aa 08 da bd 1e 6d aa 3e
       0.2180888 -0.05886746 -0.10646184 0.33286375
000090 7b 02 dc c0 bc 75 93 c0 75 79 c9 c0 36 b6 19 be
       -6.875303 -4.608122 -6.2960763 -0.15010914
0000a0 c6 7f b9 be 63 65 b0 3e d5 e0 12 bd 36 fb 81 3d
       -0.36230296 0.34452352 -0.035858948 0.06346743
0000b0 ea c5 dc be 0d da 96 bd cb a6 c8 bd 34 0c 4a c0
       -0.43119746 -0.07365809 -0.09797438 -3.1569948
0000c0 19 87 9f 3d 72 2e fc 3f 16 e4 b7 bf c0 41 a4 bf
       0.0778944 1.9701674 -1.4366481 -1.2832565
0000d0 26 c4 ab be e4 9a 39 3f bb 71 80 3a 02 48 9d bf
       -0.33548087 0.7250197 0.0009799519 -1.22876
0000e0 3c 7c dd bf f0 4c 20 c0 b5 26 26 bf df ca 42 3c
       -1.7303538 -2.504696 -0.6490281 0.011889189
0000f0 af 1b c3 3d fd 39 27 3d 0c 39 da bd 07 01 6d be
       0.095267646 0.040826786 -0.10655412 -0.23144923
000100 68 1b a7 3d f9 95 30 3e af 0a 99 3c ea 5e 9c bd
       0.08159524 0.1724471 0.018681852 -0.07635291
000110 10 ad b3 bf 5a 09 99 c0 01 99 dc 3e 37 49 d6 3d
       -1.403719 -4.7823915 0.43085483 0.104631834
000120 21 cf 4d 3d 67 44 a7 be 56 e2 01 bf f5 07 a5 3e
       0.05024636 -0.32669374 -0.50735986 0.32232633
000130 3f 71 05 bf 80 02 7b bd 8d 9a f3 bc f7 99 1c bf
       -0.52125925 -0.06128168 -0.029736781 -0.6117243
000140 24 9d 1c 3f 0d 90 cb bc 81 5f 84 3e 00 23 b6 3e
       0.6117728 -0.024848962 0.25854114 0.35573578
000150 17 e1 12 3e a3 99 51 3d 53 ab 77 bf 3e ba e2 be
       0.14343677 0.05117191 -0.96745795 -0.44282717
000160 14 05 5a c0 92 bc 92 3f be 88 f5 bf 23 35 16 3e
       -3.40656 1.1463797 -1.9182355 0.14668708
000170 eb a9 a3 3f f7 5e e8 3e d1 cd 5e be d3 60 8f bf
       1.278623 0.45384952 -0.217582 -1.1201423
000180 29 4a 9b 3d da 34 d5 3e 75 56 7e 3e b1 3b c0 bc
       0.07582504 0.41641885 0.24837668 -0.023465963
000190 a3 93 80 3e bf 07 f9 bf 7b 39 02 3e 84 77 6c bd
       0.25112638 -1.9455489 0.1271724 -0.057731166
0001a0 de 3b bd 3e d4 c5 df c0 e1 8f 09 c0 cd 7f d2 bf
       0.36959738 -6.992899 -2.1494067 -1.6445252
0001b0 26 87 b3 be 96 32 7a bf 22 c1 c4 3e 2a 65 01 c1
       -0.35064048 -0.9773344 0.384286 -8.087198
0001c0 8b 50 54 c0 2b 0e 5e bf 2e ad 57 be c1 c7 59 bd
       -3.317416 -0.8674037 -0.21062157 -0.053169016
0001d0 95 35 9a bf 09 ec eb bd fd 01 14 bf a3 64 aa c0
       -1.2047602 -0.115196295 -0.57815534 -5.3247848
0001e0 46 4d 46 3e db 11 1b bd 27 10 f0 bd b2 ff 49 be
       0.19365415 -0.037858825 -0.11721831 -0.19726446
0001f0 a3 c4 15 bd 5a f4 f5 3d 04 61 72 3e 90 5b 8e 3e
       -0.03656448 0.12009497 0.23669821 0.27804232
000200 aa 6a f2 be 95 69 41 bd b3 50 bf be 51 90 87 3f
       -0.47347003 -0.04721983 -0.37366256 1.0590917
000210 70 ca 2a 3f f0 71 68 3e 91 85 46 c0 c7 60 33 3e
       0.66715145 0.22699714 -3.1019022 0.17517386
000220 f1 6c 00 3f 50 7c 00 3f 69 df 13 bf a7 bd 1f 3d
       0.5016623 0.50189686 -0.5776277 0.038999226
000230 b9 42 ff 3f ae 49 12 3e 69 aa a9 be 9f 7f 67 c0
       1.9942237 0.14285919 -0.33137825 -3.6171644
000240 1a 3c fa be e3 dc de be b9 d1 46 3f 3f 62 82 3e
       -0.4887398 -0.43527898 0.7766376 0.2546558
000250 bd b0 a1 3e 35 00 8c be 92 c0 44 be 3a f2 18 bf
       0.31580153 -0.27343908 -0.19214085 -0.5974461
000260 be 0a 97 3e 01 40 88 be d2 c7 68 be 64 b5 c9 bf
       0.29500383 -0.2661133 -0.22732475 -1.5758481
000270 f4 30 b4 bd e6 12 47 3e 48 da 50 3e 67 9e 73 be
       -0.087983996 0.19440803 0.20395768 -0.23790894
000280 63 c5 1c 3e f9 29 35 3f e7 49 08 bf ae ce e3 3e
       0.15309672 0.7076717 -0.53237766 0.44493622
000290 52 9a a5 be a3 a5 aa 3e b1 f8 6c bf 3d 45 39 3e
       -0.323443 0.33329496 -0.9256697 0.18092819
0002a0 50 9e 7a bb e2 63 a4 be 66 5d 7e 3c 50 ea 4c bd
       -0.0038241334 -0.32107455 0.015525198 -0.050028145
0002b0 b7 b0 51 be 84 0b 37 3e f3 a6 55 bd 2b fc 94 3e
       -0.20477568 0.17875487 -0.05216117 0.2909864
0002c0 14 bf 34 3f 4a 3f 03 3e d3 8b 79 3d 66 7c 81 bd
       0.7060406 0.12817112 0.060924362 -0.06322555
0002d0 17 39 f1 3d 8f 6b cd 3b 56 cc 37 c0 92 ec 41 3e
       0.11778467 0.0062689255 -2.8718467 0.189379
0002e0 3c 98 37 3d 97 65 1b be be bb c7 be 45 9e 9c bd
       0.044822916 -0.15175472 -0.39010423 -0.07647375
0002f0 d6 15 7f 3d 0b 13 be be 62 50 18 3d 96 74 01 3f
       0.062276684 -0.37123904 0.037186034 0.5056852
000300 62 c2 31 c1 87 b4 d5 c0 5b 00 b3 c0 72 24 a4 bf
       -11.109957 -6.678287 -5.5937934 -1.2823622
000310 b2 67 04 c1 83 3b 31 c0 10 99 00 3f 72 e0 bb 3d
       -8.275316 -2.7692573 0.50233555 0.09173669
000320 99 5b 9e 3e f3 e9 e1 c0 c2 2d bd bf b0 3c a5 bf
       0.30929258 -7.0598083 -1.4779589 -1.2909145
000330 28 c6 b0 be d2 db 30 3e 0c 3a e0 bd 9d 22 a1 bd
       -0.3452618 0.17271355 -0.109485716 -0.0786793
000340 25 69 56 3e 7b 68 b9 3d 6d d9 3d 3d fb df 88 bd
       0.20938547 0.09053131 0.04634993 -0.06683346
000350 04 01 56 bd ad 5a 8b bd 40 f2 63 be 97 68 2a 3e
       -0.052247062 -0.068044044 -0.2226038 0.1664146
000360 56 d9 cd bf af cb 66 c0 30 40 83 3f e4 ac bd bf
       -1.6081951 -3.6061819 1.0253963 -1.4818387
000370 3d ee 4f be 8e c7 b5 3e 65 3e e8 be 53 94 6d bf
       -0.20305724 0.3550381 -0.45360103 -0.9280445
000380 2b b7 86 bf b2 c9 9f be 00 9a 81 be 92 65 2c 3e
       -1.0524648 -0.3120857 -0.25312805 0.16835621
000390 48 06 4b 3f cd f7 aa bf 76 aa 98 bb d4 0e 43 bf
       0.7930646 -1.3356873 -0.0046589924 -0.761945
0003a0 40 02 e6 bf 6b ce 1f bf 77 61 4c bb d9 c2 c0 3c
       -1.7969437 -0.62424344 -0.0031186023 0.02353041
0003b0 cc 6e e9 3d a0 e2 d5 3d 9a b6 6b bd cc 03 8d bd
       0.11398086 0.10443616 -0.05754719 -0.0688549
0003c0 e8 67 a2 c0 4c ad e3 3c 06 09 fd c0 0a 62 94 bd
       -5.075184 0.027792595 -7.9073515 -0.07245262
0003d0 7d a1 1b bc e4 d7 05 bd 80 4f b2 3f 0b be 29 bf
       -0.009498951 -0.032676592 1.3930511 -0.6630561
0003e0 78 3d fd c0 3c 71 32 be 7e 54 27 be 37 a1 48 3d
       -7.9137535 -0.17426008 -0.16340825 0.04898187
0003f0 02 fe aa bd de d5 36 be 48 c2 46 be 3e c8 32 bd
       -0.083492294 -0.17855021 -0.1941005 -0.043647997

conv_layers.1.bias f4 [64]
000000 92 d7 c1 3e 5e d1 2d 3f 83 a5 10 bd 8b bf 19 be
       0.3785978 0.67897594 -0.035314094 -0.15014474
000010 01 af 14 3f e1 69 80 3e fa 80 4b be f6 78 2c be
       0.58079535 0.2508078 -0.1987342 -0.16843018
000020 00 c9 a6 be a3 df 4e 3f f4 b7 1d 3f 71 a4 4c 3f
       -0.32575226 0.8080999 0.61608815 0.7993842
000030 a2 9b d4 be 96 b7 57 3d 87 ae 25 bf 53 b2 b3 3c
       -0.41524988 0.052665316 -0.6471943 0.021935618
000040 42 1e c4 3e e4 e7 b2 3d 22 20 fd bd ec e6 d3 3d
       0.38304335 0.08735636 -0.123596445 0.10346779
000050 17 08 b7 bf 52 04 39 bf b5 e6 c6 3d d8 09 ab 3e
       -1.4299344 -0.7227222 0.097119726 0.33405948
000060 61 1b 19 3f 71 c5 bf 3e 56 4a 7b 3f 45 ef 1b 3f
       0.598074 0.37455323 0.981603 0.6091197
000070 d3 67 0c bd 1e c2 fc 3e 50 4a fb 3d 4d af 06 3f
       -0.034278702 0.4936685 0.12270033 0.5261124
000080 4f c2 d1 3c 6b 5e 77 3e 4f 2f 2a bd af d5 3c 3e
       0.025605349 0.24157111 -0.041549023 0.18440889
000090 12 4f e6 bd 9a 9d 89 be d5 32 8f bf a5 a9 dc be
       -0.1124555 -0.26878053 -1.1187388 -0.43098179
0000a0 07 87 8c 3f 99 f2 d0 3e 53 94 a2 bd af 43 87 3e
       1.0978707 0.40810087 -0.07938447 0.26418826
0000b0 e1 7c 05 3d c9 15 00 3f 18 0a 9f 3e 65 27 8f bd
       0.032589797 0.5003324 0.31062388 -0.06989936
0000c0 04 ab c7 bd 7c 74 8f 3e bd 8c ca 3f 57 ac 79 3e
       -0.097494155 0.28018558 1.58242 0.24382149
0000d0 ea f7 41 3f 28 d1 9e bd ac 13 09 3f 8e de cb bd
       0.7576891 -0.07754737 0.5354564 -0.09954558
0000e0 ec 7b ea bd d8 26 46 3f 12 6b ed be 15 0c 88 be
       -0.114494175 0.7740302 -0.4637075 -0.26571718
0000f0 3b 3c db 3d 81 5a c6 3e 63 96 18 bf e6 f0 9a 3e
       0.107048474 0.38740924 -0.5960447 0.30261916

conv_layers.2.weight f4 [64, 64, 3]
000000 2f d4 9f bc 9e fe f9 3e 84 f4 ba c0 ff 0d 13 c0
       -0.019510357 0.4882707 -5.842348 -2.2977293
000010 71 f7 8f bd 2e 26 ac be d3 52 4d 3e 70 a5 9b be
       -0.070296176 -0.3362288 0.20051126 -0.30399656
000020 dd 2e 0b 3d 67 5d d9 3c 63 20 85 bd 49 91 8c bb
       0.03398024 0.026533796 -0.06500318 -0.0042897803
000030 26 22 c6 3e cd 13 f3 bd a7 ca 9a bd 55 7b e4 c0
       0.38697928 -0.11869011 -0.07558184 -7.140055
000040 f8 29 47 bf e5 57 b0 bf 1b fa 48 be ad bf 4d 3e
       -0.77798414 -1.3776823 -0.19626658 0.2009265
000050 2b 8b 51 c0 86 09 80 bd e1 0e 29 3f 3f 03 74 be
       -3.2741191 -0.062518165 0.6603833 -0.23829363
000060 dd 81 bb be 56 36 f8 3e 9f f8 76 3e 48 c1 60 3e
       -0.36622515 0.48478955 0.24118279 0.21948731
000070 ec 27 2f 3e b7 16 d6 bc 49 e4 22 c0 0a 53 82 bf
       0.17105073 -0.026133878 -2.5451834 -1.0181592
000080 29 94 87 3f b2 75 70 bd 7e c3 f6 bd 14 20 5d 3c
       1.059209 -0.058705993 -0.12049006 0.013496418
000090 d0 6a a6 bf 12 2c 23 bf 2b e2 82 3e 2a 1d 9c bd
       -1.3001347 -0.6373912 0.25563177 -0.0762275
0000a0 97 2a 9e 3e d3 de e3 bf 4b 5a ea bf 17 e7 f2 3d
       0.30891868 -1.7802376 -1.8308805 0.11860483
0000b0 53 e1 0f bf 77 00 96 bc 65 a1 44 be ef eb 8c bd
       -0.5620319 -0.018310769 -0.19202192 -0.06880938
0000c0 2b e1 7d be 90 a4 e7 3e 1a f3 a3 bd a8 f7 7c be
       -0.24792926 0.4524274 -0.08005352 -0.24703848
0000d0 1d 00 bc 3c ab 2f 96 bf 32 e2 58 bd 84 4c 38 3d
       0.022949273 -1.1733297 -0.05295009 0.044994846
0000e0 97 e3 50 3d b2 e2 89 3d 98 c2 8c be 2b bd eb 3e
       0.050998297 0.06732692 -0.27492213 0.4604276
0000f0 11 c8 18 3f 34 57 06 bf b0 78 f6 3d ec 65 e6 3f
       0.5968028 -0.5247681 0.12034738 1.7999854
000100 85 e0 3f bf 69 a4 2e 3e e1 90 78 3e f9 41 f3 3e
       -0.74951965 0.17054905 0.24274017 0.4751127
000110 2f 65 87 bd c0 90 c2 be 1f 56 08 3f 2b 87 f5 3d
       -0.06611096 -0.3800106 0.5325641 0.11988672
000120 62 a9 c2 bf 51 66 01 3f 56 7d bd bf 8e a2 73 3e
       -1.5207942 0.5054675 -1.4803874 0.23792478
000130 12 d4 50 3f 43 33 48 3f 8c 53 fe 3d c0 82 70 bf
       0.81573594 0.7820322 0.12418279 -0.9394951
000140 71 1d 3b bd ab 5d a8 3e 57 c7 37 be d3 33 a1 3c
       -0.045682374 0.32883963 -0.17947136 0.019678032
000150 74 08 61 c1 47 1c ba 3f 77 08 fb c0 c6 60 59 c0
       -14.064564 1.453988 -7.8447833 -3.3965316
000160 69 b3 31 bf 89 a0 b2 3e 60 33 34 be 73 11 05 40
       -0.69414383 0.34888104 -0.17597723 2.07919
000170 d6 31 34 3f 24 05 3c bd ad 41 26 bf 0b 9c a3 3f
       0.70388544 -0.04590334 -0.64943963 1.2781996
000180 ee fd dd 3d 77 92 ab 3e 33 6b f7 bd b6 4f b0 bf
       0.10839449 0.3351018 -0.120809935 -1.3774326
000190 f4 9c db be f4 77 56 bf 95 e1 43 3d 6f ee 25 3c
       -0.42893183 -0.83776784 0.047822554 0.010127648
0001a0 dd 20 0b 3c 4e 5b 2a bd 03 65 f1 3e a1 87 19 bd
       0.008491722 -0.04159098 0.47147378 -0.03748286
0001b0 5b 72 05 3e fb f7 42 be ec 8e 18 c1 3d 4d 7b c0
       0.13031904 -0.1903991 -9.534893 -3.9265893
0001c0 50 a5 28 3f 25 87 cc bf cf 72 df be ae 39 ca 3d
       0.65877247 -1.5978743 -0.4364228 0.09874283
0001d0 0e a6 e2 3c b1 ac d1 bf d9 06 d8 3e 7e 7b 88 bf
       0.027667072 -1.6380826 0.42192724 -1.0662687
0001e0 5e b3 17 3f f4 7c 83 bf ea c1 22 3d cc e5 e8 3e
       0.5925807 -1.0272508 0.039735712 0.4548782
0001f0 ad fd 01 bf a6 0f 28 bf 4e 2c 49 3c 9e 9b 86 3d
       -0.50777704 -0.6564888 0.0122786295 0.065726504
000200 4d 45 ca be 33 fe 17 be 58 af cb 3c 45 86 90 bc
       -0.39505997 -0.14843063 0.024863884 -0.01764215
000210 81 bd 33 be e1 d4 5f 3e 92 a3 e7 be ea 28 83 3f
       -0.17552759 0.2185855 -0.45241982 1.0246861
000220 65 1e 5f bf da 27 d1 be 17 81 29 bf dd 59 8a 3e
       -0.87155753 -0.40850717 -0.662126 0.27021685
000230 8c 78 0b 3f b1 8b 85 bd b6 32 82 3d fd 75 6c 3d
       0.54480815 -0.06520785 0.063573286 0.05772971
000240 06 dc 06 bf 1c 85 b9 3f 55 5b 42 bf 1c e8 2c 3f
       -0.5267948 1.4493747 -0.7592061 0.6754167
000250 ed 93 0a 40 92 4e e5 bf 69 ba 81 3f 82 5a 83 bf
       2.1652787 -1.7914603 1.0135013 -1.0261996
000260 3b 5c a0 3e ab 31 f2 bd 1e 25 c0 3e 6e aa a0 be
       0.31320366 -0.1182588 0.37528318 -0.31380028
000270 b7 cd a3 be 27 b7 14 bf 73 2e a2 bd 29 16 5f bc
       -0.31992885 -0.5809197 -0.07919016 -0.013616123
000280 f3 e1 54 3d 10 9a 33 bd 1c 68 4e 3f 41 3e 0b bd
       0.051973294 -0.043848097 0.8062761 -0.033994917
000290 eb 1b 42 3d 6e 99 b5 bd 97 a3 a9 bf f1 c1 5d 3f
       0.047389906 -0.08867155 -1.3253049 0.86624056
0002a0 ef 4d fc be 56 03 c4 3f 01 63 b9 3d a6 f7 f1 3f
       -0.4927821 1.5313518 0.090520866 1.8903701
0002b0 6a 26 6d bf 2f db e0 3e 1e 05 a1 be 66 0e e4 3d
       -0.9263674 0.43917224 -0.31449217 0.11135559
0002c0 74 92 7b be f2 10 32 be 53 52 20 be e4 0e 2e bf
       -0.24567586 -0.17389277 -0.15656404 -0.6799147
0002d0 18 8d 2e c1 de d8 b0 be 92 78 9f c0 89 5e 53 bc
       -10.909447 -0.34540457 -4.983468 -0.012900957
0002e0 c4 de 94 bd f8 3a 1a be 33 ae be 3d 68 3f 5d 3f
       -0.07269052 -0.15061557 0.093105696 0.86424875
0002f0 ea 0c 87 bf c5 7e ec bd e8 65 a7 c0 67 7b b5 bf
       -1.0550816 -0.11547617 -5.2311897 -1.4178284
000300 6a e2 97 bf d5 12 8d 3e d1 56 c1 3d 16 55 78 3f
       -1.1865971 0.2755343 0.09440387 0.9700483
000310 e3 21 52 3f 34 47 b9 3f f0 c1 9b 3e 08 83 34 be
       0.8208296 1.4474854 0.304214 -0.1762811
000320 02 6b 7f c0 cb 19 c2 3d 33 ff 21 be 91 68 51 bc
       -3.9909062 0.09477576 -0.15820007 -0.012781278
000330 3b 54 18 3f eb 12 6f bf 08 66 90 3e 75 53 29 c0
       0.59503525 -0.9338824 0.28202844 -2.6457188
000340 2c 21 c9 3f 34 21 61 bf 62 24 09 40 f8 39 86 bd
       1.5713248 -0.8794129 2.1428456 -0.065540254
000350 90 95 82 ba 5c 30 a1 be 00 6d 61 3f 53 58 6a be
       -0.0009962786 -0.31482208 0.88056946 -0.22885256
000360 90 d5 86 3e db e5 10 c0 24 0d 87 c0 b3 c3 d1 3e
       0.2633481 -2.2640293 -4.220354 0.4096962
000370 24 3d 19 3e 37 96 8b 3e 42 6f 5c bf b8 e2 b2 bf
       0.1496473 0.27263042 -0.86107266 -1.3975439
000380 ae 97 19 bf e8 16 6b 3e 1b 65 ac be c2 b3 73 be
       -0.5999707 0.22957957 -0.33670887 -0.23799041
000390 f4 04 65 bf ff 9c c3 be a2 1c 4d be ef 96 62 bf
       -0.8946068 -0.38205716 -0.20030454 -0.88511556
0003a0 81 76 0f c0 24 c8 e3 be 19 ff 34 bf b4 94 60 3d
       -2.241608 -0.44488633 -0.7070175 0.054829314
0003b0 d4 48 2d c0 36 27 9b c0 64 0c 4a be ef 79 b1 be
       -2.70757 -4.8485365 -0.19731289 -0.3466334
0003c0 a3 3c ea 3e 0e 32 e4 3e 46 8d ba bd 21 79 bc be
       0.45749387 0.4456944 -0.09108977 -0.36811164
0003d0 f2 7a a4 be 16 cb 03 bf b5 cd 84 bd eb 86 6c 3d
       -0.3212505 -0.5148176 -0.06484548 0.057745855
0003e0 99 66 93 bc 26 d7 2c be a1 e4 71 bf 35 23 dd bf
       -0.017993258 -0.16878948 -0.94489485 -1.7276369
0003f0 c3 83 45 c0 b7 f5 74 be ad c2 c4 be a8 a1 47 c0
       -3.086167 -0.23921858 -0.38429776 -3.1192417

conv_layers.2.bias f4 [64]
000000 15 8e a4 3f 78 3f 2e bf 99 33 43 bf c9 3b 02 3d
       1.285586 -0.68065596 -0.76250607 0.031795297
000010 53 fc 4d be 5c ea eb 3e b9 09 b5 3b 4f aa bf be
       -0.20115785 0.4607724 0.0055248407 -0.37434623
000020 bf 06 11 3f 0b bc 00 3f 80 44 63 bb c4 25 00 c0
       0.5665092 0.5028693 -0.003467828 -2.002305
000030 2f 3b c0 3e d4 e2 4c 40 23 a6 88 bf 0d 26 ea bf
       0.37545153 3.2013445 -1.0675701 -1.8292862
000040 04 4a a8 3f ed 01 8a 3e a0 3c e2 3e 9a 70 ca 3e
       1.3147588 0.26954594 0.44186878 0.39539033
000050 cb a0 4f bd 55 bd ec bf 13 ff 48 3e 56 50 86 3f
       -0.050690453 -1.849528 0.19628553 1.0493267
000060 0d fc ff 3f 67 48 ec bf 1b bc 0f 3e 41 df 92 be
       1.9998795 -1.8459595 0.140366 -0.28685954
000070 40 71 90 3f 3f 67 08 be 54 b6 76 bf a4 e1 15 3f
       1.1284561 -0.13320635 -0.9637196 0.58547425
000080 6a 95 10 40 bb a5 14 40 24 e9 18 bf d0 1d 84 be
       2.2591195 2.3226154 -0.59730744 -0.25803995
000090 78 44 f2 be d8 12 14 bf 70 e1 af bf 05 14 1f 3f
       -0.47317863 -0.57841253 -1.3740673 0.6213992
0000a0 12 cc 84 bd 90 8c c2 bf da 38 e6 3c 7a da 92 3f
       -0.06484236 -1.5199146 0.02810328 1.1472924
0000b0 f4 d9 25 40 cb 42 fc bd 15 83 c1 3f c8 49 d4 bd
       2.5914278 -0.12317427 1.5118128 -0.10365635
0000c0 c4 56 07 3f f2 d7 8c 3e 71 e6 95 bd 10 ab 07 bf
       0.5286677 0.27508503 -0.07319344 -0.52995396
0000d0 e3 69 70 3f 89 03 a7 bf 0c 78 ab be 05 83 07 be
       0.9391157 -1.3047954 -0.33490026 -0.13233574
0000e0 c4 76 a7 3e c3 ea b6 3f 46 98 40 bd 61 38 58 3f
       0.32707798 1.4290394 -0.04702022 0.8446103
0000f0 ee ab 06 bf e7 0f 91 be db 9c 37 3f 96 6d 91 bf
       -0.52606094 -0.28332445 0.7172372 -1.1361568

conv_layers.3.weight f4 [64, 64, 3]
000000 3b 1f d2 bd b7 2a 25 bd f8 c2 83 bd 32 8d 12 3d
       -0.10259863 -0.04032394 -0.06433672 0.035779186
000010 47 77 94 3c 13 a6 b2 bb d7 d0 42 bd ef e9 42 bd
       0.018123282 -0.0054519265 -0.047562446 -0.047586378
000020 33 60 85 bd 62 4e 56 bd e8 73 5b bd 95 bb 21 bc
       -0.06512489 -0.052320845 -0.053577334 -0.009871383
000030 13 45 39 bd e6 7b be bc b5 c6 4a bd 32 35 c5 bd
       -0.04523189 -0.023252439 -0.049505908 -0.09629287
000040 af f0 50 bd a5 ea 9c bd 12 6a c4 bd 63 f0 96 bd
       -0.051010784 -0.076619424 -0.09590544 -0.07370069
000050 b8 7b ba bb 0b c7 8c 3c 8f 08 5d 3c c9 ea 9d bd
       -0.005691018 0.017184755 0.01349081 -0.07710797
000060 5b 27 ae bd d7 2b 2c be b0 f5 58 bd f2 01 50 bd
       -0.085036 -0.16813599 -0.05296868 -0.050783105
000070 3c de b8 bd d6 6b 9e bd 29 d3 7c 3d c8 c6 cc bc
       -0.09026763 -0.07735412 0.061724816 -0.02499713
000080 74 7e 07 bd 32 89 04 bd a8 98 a5 bd ef 1e 90 3c
       -0.03307958 -0.032357402 -0.080857575 0.017592875
000090 45 10 d8 bd cd c7 37 be 38 4e 8b bc b8 e6 3a bd
       -0.10549978 -0.17947312 -0.017005071 -0.045630187
0000a0 b5 83 00 be b0 2c 9e bd 45 a4 83 3a fd e6 a2 3c
       -0.12550242 -0.07723367 0.0010043463 0.019885534
0000b0 8d 80 e5 bd 03 39 9e bd 68 bf 95 bd a9 0c e1 bd
       -0.1120616 -0.07725718 -0.073118985 -0.10988743
0000c0 9d b7 33 3d 05 3a 00 bd aa 62 f7 bb 3b ef ee bd
       0.04387628 -0.03130533 -0.0075496035 -0.11666723
0000d0 74 6e 81 bd 83 cc ca bb ed ee 5d 3c 52 79 cb bd
       -0.063198954 -0.0061889305 0.013545734 -0.099352494
0000e0 94 80 b9 bd 4e b6 ea bd 3e 0a b5 bd 5c 40 6e bd
       -0.090577275 -0.11460553 -0.08839844 -0.058166847
0000f0 7d e3 25 bd cb 0f 52 bd 40 6f 44 bd 58 f1 ae 3c
       -0.040500153 -0.051284593 -0.04795766 0.021355316
000100 71 d3 a5 bd ee ad 61 bd 7f f7 ef bd 87 86 92 bd
       -0.0809697 -0.055097513 -0.11717128 -0.07154565
000110 d7 ae f7 bc 20 c8 e9 bc f4 8e 23 bd 43 f0 a7 3b
       -0.030234737 -0.02853781 -0.039931253 0.005125077
000120 8f d5 1b bd 6c a4 47 bd c5 18 ae bd c1 f6 f4 bd
       -0.038045462 -0.04874079 -0.08500818 -0.11961127
000130 4c 85 a1 bd 1a 6d 53 3d c9 dc cd 3c 76 7c cb bd
       -0.078867525 0.05161772 0.025129693 -0.099358484
000140 6f 77 3b bd 0c 4e 30 bd e0 57 5d bd 78 6c b9 bc
       -0.045768198 -0.04304318 -0.054038882 -0.02263473
000150 f1 a1 15 be 0a e8 2e be 0f b4 25 3d d4 ea 42 3c
       -0.14612557 -0.17080703 0.04045492 0.011896808
000160 64 b6 d1 bd 16 0f b5 bd ae 3a d6 bd a9 8f 9c bb
       -0.102398664 -0.08840768 -0.10460411 -0.004777868
000170 16 91 9d 3c e3 7a f5 bb a6 52 39 bc c2 da d8 bd
       0.019234221 -0.007491456 -0.011311209 -0.105886
000180 ca 76 0a 3d c6 08 9f bc f1 a8 04 be 92 ee a1 bd
       0.033804692 -0.019413363 -0.12955071 -0.07906832
000190 a8 b8 b8 bd 2b 20 5e bd dc 4f c8 bd b5 6d 0a be
       -0.090195954 -0.054229897 -0.09780857 -0.13518412
0001a0 e9 d8 2e bd d6 8f 6b bd ea 93 60 bd 24 21 f7 3c
       -0.04268733 -0.05751022 -0.05482856 0.03016717
0001b0 8a 97 27 3d 4b 23 4a bc 3d ed 59 bd a1 1c 13 3d
       0.040916003 -0.012337516 -0.053204764 0.035915975
0001c0 91 5d 5a bd 06 ad a9 bd e0 4c 0c bd e0 bb 0e bc
       -0.053311888 -0.08284955 -0.034253 -0.008711785
0001d0 61 ea 1b bd 6d 35 d1 bd 03 9e bc bd a4 95 0f bd
       -0.038065318 -0.10215268 -0.09209826 -0.035054818
0001e0 51 36 84 3d 95 57 52 bd 00 a2 74 3c 93 89 7d bd
       0.064556725 -0.051353056 0.014931202 -0.06189878
0001f0 cf a3 f2 bd 8e 41 bf 3c 78 33 83 bc 84 0d bf bd
       -0.1184765 0.023346689 -0.016015753 -0.0932875
000200 89 eb b2 3b 8b be c9 bd 5d b2 24 bc f3 57 c4 bc
       0.005460207 -0.09850796 -0.010052291 -0.023967719
000210 2f cd 94 bd a5 d0 8c bd 2e 04 7b bd 46 79 e0 3c
       -0.07265698 -0.06875733 -0.061283283 0.027401578
000220 fe 2c bd bd 42 01 61 bd fd 68 bd bc 85 a0 83 bd
       -0.09237097 -0.05493284 -0.023121351 -0.06427101
000230 53 57 09 bd f6 e3 b0 3c 13 2a fd 3c 79 a9 66 bd
       -0.033530544 0.021593075 0.030903852 -0.056313965
000240 96 e2 b9 bc c9 a1 ee bc e4 66 37 bd a5 02 f3 bd
       -0.022691052 -0.02912988 -0.04477586 -0.11865739
000250 9d b7 ff bd 61 69 77 bb 45 22 2f 39 da e8 b9 3c
       -0.12486193 -0.003775202 0.00016702067 0.02269404
000260 91 b9 ec bc cb 59 9c bd 25 a2 81 3c b3 24 df 3c
       -0.028897079 -0.07634314 0.015824387 0.02723918
000270 52 43 7c bd 66 09 90 bd 49 aa 88 3c 87 72 51 bd
       -0.06158764 -0.070330426 0.01668276 -0.051134612
000280 94 9a 22 be 85 c9 7b 3b 91 1d 40 bd c8 38 96 bd
       -0.1587928 0.0038419676 -0.046903197 -0.07335049
000290 ff 51 4a bc b0 48 82 3d 72 96 a8 3c 61 96 ba 3c
       -0.012348651 0.0636152 0.02057955 0.022776784
0002a0 73 19 1e be 88 ed 3e bd 6e b5 00 be c9 83 02 be
       -0.15439396 -0.046613246 -0.1256921 -0.12745585
0002b0 ab 9c 23 be 28 6e 88 bd 5a ba 0b bd 48 7f b5 bb
       -0.15977733 -0.06661636 -0.034113266 -0.0055388547
0002c0 5d 91 b2 bd 10 c4 00 be 29 36 d3 bd 4c 0f 97 bd
       -0.08719132 -0.12574792 -0.103130646 -0.073759645
0002d0 7e 05 5f 3d 41 33 6b bd 28 e0 6e bd 2e b1 07 be
       0.054448597 -0.057421926 -0.05831924 -0.13251182
0002e0 fb 68 e6 3c 01 76 80 bc bf 91 14 3d ca 58 8d bd
       0.02812623 -0.015681269 0.036271807 -0.06901701
0002f0 72 7c 2e 3d 33 af 04 be 9d 3e 67 bd 76 da 48 3c
       0.04259915 -0.12957458 -0.056456197 0.012259116
000300 5f f3 c6 be a2 09 6c bd 0f a8 94 bd 14 d2 33 bf
       -0.38857552 -0.057626374 -0.07258617 -0.7024243
000310 4a 31 e9 3e be 15 1d 3f 0d 75 fa be 06 84 ae be
       0.45545417 0.613613 -0.48917428 -0.340851
000320 61 9b 69 c0 fc 00 3b 3d 84 91 fd bd 81 bc 1e be
       -3.6501086 0.045655236 -0.123812705 -0.15501596
000330 90 f5 36 bc d7 19 f3 bd ef 4f 06 3e 8a 5e a6 bf
       -0.011166945 -0.11870163 0.1311643 -1.2997601
000340 de 80 bb 3e be 21 a2 3e a1 f1 29 c0 1a 97 61 bf
       0.36621755 0.31666368 -2.6553729 -0.8812119
000350 0e 81 25 c0 69 c6 b1 bd 1e e0 39 bf 49 02 a4 be
       -2.5860019 -0.08680422 -0.726076 -0.32032993
000360 6d e8 38 bd d8 b3 9d 3f 18 42 2e be ce 27 cf be
       -0.045143533 1.2320509 -0.170174 -0.40460056
000370 75 54 9c 3d 11 0d 40 bd e2 6c f0 3c 8e c3 b4 3d
       0.076332964 -0.04688746 0.029348794 0.088263616
000380 38 21 d3 bc 1f 54 7a 3d 20 85 27 bf 55 b5 89 bf
       -0.025772676 0.06111538 -0.6543751 -1.0758463
000390 d9 b9 66 bd 73 30 2b bd 0a 2a fe be 5f 18 63 3e
       -0.056329582 -0.04179425 -0.49641448 0.22177266
0003a0 3d 91 61 3d 28 57 8c 3d 1d c3 bb bc 10 0d 2b bd
       0.05507015 0.06852561 -0.022920186 -0.041760504
0003b0 e4 fc 92 3d 67 71 dd bf 80 56 dc bf 4c b8 99 bf
       0.07177141 -1.7300233 -1.7213898 -1.2009368
0003c0 49 a2 ed 3e 19 3b bf bd d1 a2 52 bd c9 70 25 bf
       0.46412876 -0.09337444 -0.051424805 -0.6462522
0003d0 ab 90 e7 3e 39 5c ca 3e e5 3b f8 be 15 37 41 bd
       0.4522756 0.39523485 -0.48483196 -0.04717167
0003e0 8c fc 16 3e 90 23 48 bf 08 4d 22 3f 77 98 ec 3d
       0.14744776 -0.78179264 0.6339879 0.11552518
0003f0 21 7c 0f 3e ff b3 e0 3e 9a 3b c2 bc ff a0 1b bf
       0.14012195 0.43887326 -0.02371006 -0.60792536

conv_layers.3.bias f4 [64]
000000 ed ae 1b be 5c 0a 3c be 3f 91 af bb f1 c2 55 3d
       -0.15203448 -0.18363327 -0.005357891 0.052187864
000010 9d 07 14 bd c1 7a d7 3d 55 42 86 bd db 22 a4 be
       -0.036140073 0.1052146 -0.065556206 -0.32057843
000020 23 ae 1e be c2 62 07 be 11 2f 57 3e 1d 10 24 3e
       -0.15496115 -0.13221267 0.21014048 0.16021772
000030 c4 06 82 be 8e 25 29 be 60 8e 8a bd 8e 2b 75 be
       -0.25395787 -0.16518232 -0.06765437 -0.23942396
000040 ad dd c5 3d 7f 81 37 c0 8a eb fe 3d b9 38 e8 3d
       0.09661422 -2.8672788 0.12447269 0.11338944
000050 80 94 99 3c 96 25 6e 3d 01 1d a6 bd 9d 46 7b bc
       0.018747568 0.058141313 -0.08111001 -0.01533666
000060 73 36 8f 3d cf d3 26 be 64 f4 26 be c0 4f f7 be
       0.06992807 -0.16291736 -0.16304165 -0.48303032
000070 38 34 d6 3b 53 ed 97 bd 0f 80 da 39 8c 72 85 3e
       0.0065369867 -0.07418313 0.0004167561 0.26063955
000080 9c ff 32 3d 23 85 76 be 48 c1 51 bd 4b 6e 6f bd
       0.0437008 -0.24074225 -0.051209718 -0.058454793
000090 01 ce 77 3c f3 44 7c bd ed 6d 3e 3c 60 c6 3d bb
       0.015124799 -0.061589193 0.011622888 -0.0028957352
0000a0 d7 c1 97 bc 7d 1b 26 3e d0 cb b9 3d e9 07 55 3c
       -0.018525047 0.16221423 0.09072077 0.013002374
0000b0 01 db 0f bc d9 c9 74 3d 51 46 85 bc 4c 58 42 3d
       -0.008780242 0.05976281 -0.016268881 0.047447488
0000c0 79 41 04 be e9 74 8b 3e 31 21 cd be 0d 9c f2 bd
       -0.12915601 0.27237633 -0.40064386 -0.118461706
0000d0 8f 98 5d be 5b ec a8 be a6 f1 53 3e cf aa 8e bd
       -0.21640228 -0.32992825 0.2069765 -0.06966173
0000e0 11 d4 30 3d 44 cf 4e bb 2b 62 b7 3d 82 ab e5 be
       0.043170992 -0.0031556645 0.08954271 -0.44857413
0000f0 93 55 2a bf dc 21 06 3e 83 a2 15 be 44 4e c2 bc
       -0.66536826 0.13098854 -0.14612775 -0.02371896

conv_layers.4.weight f4 [128, 64, 3]
000000 5f 7b 24 bd 58 9f af bc d8 f0 64 3b 17 2e bc bd
       -0.04015672 -0.021438286 0.0034933593 -0.091884784
000010 37 76 54 be 3a e9 12 be 1f d7 cd bd d1 b2 aa bd
       -0.2074822 -0.14346781 -0.10050797 -0.08334888
000020 38 84 5e be 08 6f 3c be aa 32 2b bd e2 53 8e bd
       -0.21730125 -0.1840173 -0.041796364 -0.06949593
000030 ec c3 fc bd 8e 32 d1 3c e5 c5 ee 3b 73 97 37 bd
       -0.12342057 0.025536802 0.0072867745 -0.044822168
000040 47 07 b4 bd d4 29 91 be 2d 2c a5 bb ae 80 38 bc
       -0.087904505 -0.28352225 -0.0050406666 -0.011261148
000050 32 89 83 3d 85 9d b0 bc 98 c5 78 bd 63 31 88 3b
       0.06422652 -0.021559486 -0.060735315 0.004156278
000060 00 f2 f6 bc 64 ed f4 bb 69 af 89 3d 7d 76 56 be
       -0.030144691 -0.007474588 0.0672291 -0.20943637
000070 97 0a 52 bd ac 45 dc bd 4b 23 90 3c c6 3c 0a be
       -0.05127963 -0.10755476 0.017594954 -0.13499746
000080 43 d5 af be dd 65 9f bd 7c 06 d2 bd 6f 15 77 be
       -0.34342393 -0.07783101 -0.10255143 -0.2412927
000090 92 f1 b5 3c 32 ae 6e 3d 1c db 88 bc 45 92 f6 bc
       0.022209916 0.058271594 -0.016706042 -0.030099044
0000a0 42 17 43 3d 55 b3 39 3d ff 1e 24 bd bf b4 59 3d
       0.047629602 0.04533704 -0.040068623 0.05315089
0000b0 ed 87 3d 3d bc 93 5f be a0 7f 2b be 0a a3 bc be
       0.046272207 -0.218337 -0.16747904 -0.3684314
0000c0 5e 47 6b bd bb fa 2e 3d b6 f3 2d be cd 26 a8 3b
       -0.057441108 0.042719584 -0.169875 0.0051315785
0000d0 26 e6 30 be 2c ad 35 be 89 0e 0c bd ad 46 b4 bc
       -0.17275295 -0.17741841 -0.03419355 -0.022006357
0000e0 55 64 3f be 83 e4 8b bc 58 14 00 3e 64 c6 c2 bd
       -0.18690617 -0.017076736 0.1250776 -0.09510496
0000f0 e5 77 25 3c 04 e3 72 be 4f 1e 26 3d 81 98 b8 bc
       0.010099386 -0.23719412 0.04055625 -0.022533657
000100 17 43 fb bd dc 1c 92 be 8c a9 db 3b d1 fb 98 3c
       -0.12268656 -0.28537643 0.006703561 0.018674763
000110 46 a0 64 3d d4 7e 0b be 12 3c 44 3d fe 0d 9a bd
       0.05581691 -0.136226 0.04790885 -0.075222
000120 f8 6f e1 bd e4 5f 98 be 8f e0 cd bd a8 7d 27 be
       -0.110076845 -0.2976066 -0.10052597 -0.16356528
000130 af cc d5 bc e9 18 fb bd 00 f4 2e 3b b1 81 9b bd
       -0.026098577 -0.122606106 0.0026695728 -0.07593096
000140 d1 08 7d be ec 34 23 be de b6 b8 be 8a e7 31 3d
       -0.24710394 -0.15938157 -0.36077017 0.043433703
000150 df ca ef 3c ab b0 8b bc e2 f6 4d be 8b db 31 be
       0.029271541 -0.017052015 -0.2011371 -0.17368905
000160 45 4e 57 bc b4 cc 38 be c3 03 b4 bd 5f 86 c2 bd
       -0.0131412195 -0.18046838 -0.0878978 -0.094982855
000170 17 2f 5b be 5f 00 c6 bd c9 32 8b bd 37 58 03 be
       -0.21404682 -0.096680395 -0.06796796 -0.1282662
000180 b0 b9 6b bd 37 8c e7 bc 44 f9 ff bd 04 8b 8e be
       -0.057550132 -0.028265102 -0.124987155 -0.27840436
000190 52 35 02 be fe 4b 70 be 9a 00 7a 3d 79 3b 2e 3d
       -0.12715653 -0.23466489 0.06103573 0.042537186
0001a0 c3 d6 86 bc 05 a1 6b 3d 39 f2 c3 bc 6e b1 36 3b
       -0.016459828 0.057526607 -0.023919212 0.0027876752
0001b0 97 98 76 3d b8 ea d2 bd 2f 78 b0 bc f1 fa 2c 3a
       0.060204115 -0.10298675 -0.021541683 0.00065986725
0001c0 89 0b 66 bd d2 21 87 bd dd 20 e4 bd 05 ea 86 bd
       -0.056163345 -0.065982476 -0.11139081 -0.065876044
0001d0 03 b3 64 be 91 9f 45 3b b4 7e 3d be 4e 15 16 be
       -0.22333913 0.0030154923 -0.18505365 -0.14656565
0001e0 a1 5b 6e 3d db a7 a8 bd 05 d4 3b bd 2c 20 1e be
       0.058192853 -0.08235141 -0.045856494 -0.1544196
0001f0 13 fc 95 3c 55 a5 29 be 6c 6e 98 bc 88 61 8c 3d
       0.018308675 -0.16566975 -0.01860734 0.0685454
000200 c1 e7 f7 3c ae fb 98 3d 14 6f a5 be b4 9d 7a be
       0.030261876 0.07469879 -0.32311308 -0.24474221
000210 f5 af 4d 3b 5f 72 37 be 1a 17 94 be 2f ba b2 3c
       0.0031385396 -0.17914723 -0.28923875 0.021817295
000220 7c b4 36 be 06 35 53 be f1 65 3f be a1 ce 8b be
       -0.17842287 -0.20625696 -0.18691231 -0.27306083
000230 be 2c e1 bd 5f dd aa 3b ed b3 39 3d 3e 48 a9 be
       -0.10994862 0.005214378 0.045337606 -0.3306293
000240 b3 84 40 bd 45 6e 96 ba ad 9a f1 3c 18 02 79 bd
       -0.04700155 -0.0011476955 0.0294927 -0.060793012
000250 93 07 cb bd f9 90 30 be 1f 3c 57 be 22 bc 6f bd
       -0.09913554 -0.17242803 -0.21019028 -0.058529027
000260 09 bf 49 be 9b c6 5b 3c 4e b4 46 3d fc 10 4d 3d
       -0.1970178 0.01341405 0.048511796 0.050065026
000270 9a ee b0 3c 46 ef 9f bd b8 dc 34 be bb 23 04 be
       0.02159815 -0.0780931 -0.17662323 -0.12904255
000280 01 ed 2c 3d ab ae f9 bd cd 3a 68 bd 5c 4d 0e bd
       0.042218212 -0.121915184 -0.0566967 -0.034741744
000290 e3 49 f5 bd 5e 9d 7f bd fd 42 71 bc 8e fc 7b be
       -0.119769834 -0.062405936 -0.014725444 -0.2460806
0002a0 21 a2 2c bc a0 96 be bc 46 c9 3f be 08 c1 d5 bc
       -0.010536701 -0.023265183 -0.18729123 -0.026093021
0002b0 17 e6 a4 bb f8 aa 97 bd 2e ed aa bd c7 83 aa be
       -0.0050323117 -0.074056566 -0.0834602 -0.33303663
0002c0 e1 70 32 3c 14 87 99 bd bb 24 a9 bd 72 70 46 be
       0.01089117 -0.07496467 -0.08258959 -0.19378832
0002d0 f0 32 ac bd 11 35 f6 bd bb d9 85 3d a3 2d ea bc
       -0.08408153 -0.1202184 0.065356694 -0.028586214
0002e0 f8 86 59 be a7 36 6a be f8 e5 9a bd c0 b8 cd bd
       -0.21242893 -0.2287241 -0.07563394 -0.10045004
0002f0 b4 dd ea 3c bc 9f 8f bd 25 fa 27 be 94 bc 90 be
       0.02867017 -0.07012889 -0.16404016 -0.28268874
000300 57 e2 3f bd 1a 5e f2 bd e5 07 95 3c 1d 29 18 be
       -0.046846714 -0.11834355 0.018192241 -0.14859433
000310 4d 0a 21 be fa cc fc bd 3e 2d 1b be ff 7a 96 be
       -0.15726586 -0.12343784 -0.15153977 -0.29390714
000320 fc 49 d3 be 13 cd 70 be 0b 60 1e be dd cd 64 be
       -0.41267383 -0.2351573 -0.15466325 -0.22344156
000330 51 79 3f 3e 62 71 67 be cd a8 bb bd b3 b5 a8 bd
       0.18698622 -0.22601846 -0.091630556 -0.082377814
000340 ae 03 05 bf ee 48 e6 bd b6 53 4a bc cc 83 65 bd
       -0.5195874 -0.11244379 -0.01234906 -0.056033894
000350 e3 02 9a bc 4f 6e 9f bc 11 14 d0 3c 64 fa 6e bd
       -0.018800205 -0.019461779 0.025400193 -0.05834426
000360 00 68 c2 be 22 e9 9b bd b1 20 02 be fc 1b 6c be
       -0.3796997 -0.07612826 -0.12707783 -0.2305755
000370 86 6b 67 be 6f 80 69 bd 44 f6 34 bd 7c 21 b8 be
       -0.2259961 -0.05700725 -0.04418017 -0.35963047
000380 16 9f 64 bd dc cf 8d be 82 da c2 bd ef 91 1a bd
       -0.05581578 -0.27697647 -0.09514333 -0.03773683
000390 ae 39 82 bd 2b 3b 21 bd ec 5d f5 bc a7 a3 f3 3c
       -0.06358658 -0.039363068 -0.029952012 0.029741121
0003a0 5b bf a7 3d a3 fc 73 3d 4c 8e 04 3d 24 34 aa 3b
       0.08190795 0.059567105 0.032362267 0.005194204
0003b0 d7 df 24 3d d6 dd bd bd 98 02 b3 be 2e 65 55 be
       0.040252533 -0.092708275 -0.34962916 -0.20839378
0003c0 95 0e 1d be 81 87 ab be e3 51 35 be 1d c5 64 be
       -0.15337594 -0.3350182 -0.17707019 -0.22340818
0003d0 94 94 cf be e9 7e 8a 3b 93 b7 47 3d 17 5d 1d be
       -0.40543044 0.0042265547 0.048759054 -0.15367542
0003e0 72 9a 2f 3e 05 ab d8 3d d0 5e b3 bc 0e b7 bc 3d
       0.1714876 0.105794944 -0.021895796 0.092146024
0003f0 68 75 b5 be 4f 9d d5 bd b1 09 06 3f 4d 29 bb be
       -0.35441136 -0.10430395 0.5235854 -0.36554947
