results/Elemental_Mapping/models/CNN1Dplus_testOdigitria.pt (torch, 491837 bytes, 13 tensors)

prior_layer.w f4 [12, 4096]
00000000: 87d6 3b37 7604 4837 0ce3 5437 7c7a 6237
00000010: 3bd3 7037 00f6 7f37 e4f5 8737 e75e 9037
00000020: c83a 9937 6a8e a237 cd5e ac37 11b1 b637
00000030: 798a c137 63f0 cc37 4fe8 d837 d677 e537
00000040: b1a4 f237 593a 0038 e376 0738 fa0a 0f38
00000050: abf9 1638 0f46 1f38 4af3 2738 8804 3138
00000060: fb7c 3a38 df5f 4438 73b0 4e38 fc71 5938
00000070: c1a7 6438 0c55 7038 277d 7c38 ac91 8438
00000080: 7225 8b38 87fb 9138 8615 9938 0a75 a038
00000090: a51b a838 e50a b038 5244 b838 68c9 c038
000000a0: 9e9b c938 5ebc d238 082d dc38 efee e538
000000b0: 5903 f038 7a6b fa38 3d94 0239 b61d 0839
000000c0: a9d2 0d39 8eb3 1339 d1c0 1939 d3fa 1f39
000000d0: e961 2639 5ef6 2c39 6cb8 3339 43a8 3a39
000000e0: 01c6 4139 b911 4939 6b8b 5039 0b33 5839
000000f0: 7808 6039 830b 6839 ea3b 7039 5a99 7839
00000100: b691 8039 d3ec 8439 bf5d 8939 28e4 8d39
00000110: b47f 9239 ff2f 9739 99f4 9b39 0acd a039
00000120: cdb8 a539 54b7 aa39 06c8 af39 3fea b439
00000130: 531d ba39 8c60 bf39 2bb3 c439 6d14 ca39
00000140: 8c83 cf39 c1ff d439 5188 da39 901c e039
00000150: f0bb e539 1466 eb39 dd1a f139 8ada f639
00000160: cca5 fc39 f23e 013a 5b32 043a 702e 073a
00000170: dd34 0a3a a247 0d3a 0569 103a 6e9b 133a
00000180: 39e1 163a 803c 1a3a d7ae 1d3a 0739 213a
00000190: ccda 243a a792 283a b95d 2c3a c837 303a
000001a0: 541b 343a d401 383a 09e4 3b3a 65ba 3f3a
000001b0: 7a7d 433a 6226 473a 1eaf 4a3a d712 4e3a
000001c0: 0a4e 513a 925e 543a 9243 573a 4efd 593a
000001d0: f38c 5c3a 55f4 5e3a ab35 613a 5b53 633a
000001e0: c04f 653a 092d 673a 22ed 683a a391 6a3a
000001f0: d11b 6c3a a08c 6d3a b9e4 6e3a 8c24 703a
00000200: 544c 713a 285c 723a 0354 733a cc33 743a
00000210: 5dfb 743a 89aa 753a 2241 763a f8be 763a
00000220: e023 773a b26f 773a 50a2 773a a8bb 773a
00000230: b2bb 773a 77a2 773a 1370 773a b724 773a
00000240: a9c0 763a 4b44 763a 15b0 753a 9e04 753a
00000250: 9442 743a be6a 733a fc7d 723a 3e7d 713a
00000260: 8369 703a d743 6f3a 460d 6e3a ddc6 6c3a
00000270: 9e71 6b3a 800e 6a3a 629e 683a 0b22 673a
00000280: 1e9a 653a 1f07 643a 6969 623a 31c1 603a
00000290: 860e 5f3a 5451 5d3a 6b89 5b3a 83b6 593a
000002a0: 44d8 573a 53ee 553a 51f8 533a eef5 513a
000002b0: eae6 4f3a 1acb 4d3a 75a2 4b3a 0f6d 493a
000002c0: 202b 473a 05dd 443a 4183 423a 781e 403a
000002d0: 6faf 3d3a 0b37 3b3a 4ab6 383a 3f2e 363a
000002e0: 0ea0 333a e40c 313a f275 2e3a 69dc 2b3a
000002f0: 6f41 293a 20a6 263a 850b 243a 9372 213a
00000300: 29dc 1e3a 0e49 1c3a f0b9 193a 692f 173a
00000310: fda9 143a 1e2a 123a 2fb0 0f3a 863c 0d3a
00000320: 6ecf 0a3a 2a69 083a fa09 063a 17b2 033a
00000330: b861 013a 2332 fe39 adb0 f939 703f f539
00000340: c8de f039 0c8f ec39 8e50 e839 9423 e439
00000350: 5c08 e039 11ff db39 cf07 d839 9a22 d439
00000360: 564f d039 c48d cc39 71dd c839 b73d c539
00000370: aaad c139 132c be39 6bb7 ba39 d94d b739
00000380: 3ced b339 3793 b039 4f3d ad39 0ee9 a939
00000390: 3494 a639 ed3c a339 00e2 9f39 0d83 9c39
000003a0: ac20 9939 8fbc 9539 7f59 9239 57fb 8e39
000003b0: dca6 8b39 8761 8839 1931 8539 241b 8239
000003c0: 764b 7e39 87a8 7839 d056 7339 2558 6e39
000003d0: c1aa 6939 734a 6539 8031 6139 da57 5d39
000003e0: 7a37 5a39 a1e3 5639 0ab4 5339 07a2 5039
000003f0: f7a7 4d39 efc1 4a39 9ded 4739 732d 4539
1.1196017e-05 1.1921968e-05 1.2689048e-05 1.3499168e-05 1.4354296e-05 1.5256461e-05 1.6207756e-05 1.721033e-05
1.8266393e-05 1.9378222e-05 2.0548143e-05 2.1778544e-05 2.3071874e-05 2.4430634e-05 2.5857384e-05 2.735473e-05
2.8925338e-05 3.057192e-05 3.229723e-05 3.410408e-05 3.599531e-05 3.79738e-05 4.0042483e-05 4.220431e-05
4.4462253e-05 4.681933e-05 4.927856e-05 5.1842988e-05 5.451567e-05 5.7299665e-05 6.019804e-05 6.321384e-05
6.635011e-05 6.9609894e-05 7.2996176e-05 7.651195e-05 8.0160135e-05 8.394363e-05 8.786529e-05 9.192788e-05
9.613413e-05 0.000100486664 0.00010498805 0.00010964076 0.00011444715 0.00011940948 0.00012452989 0.00012981039
0.00013525285 0.00014085902 0.00014663047 0.00015256861 0.00015867468 0.00016494977 0.00017139473 0.00017801025
0.00018479677 0.00019175456 0.00019888363 0.0002061838 0.0002136546 0.00022129533 0.00022910503 0.00023708251
0.00024522626 0.0002535345 0.00026200523 0.00027063605 0.00027942436 0.00028836724 0.00029746143 0.00030670344
0.0003160894 0.00032561517 0.0003352763 0.00034506802 0.00035498533 0.00036502292 0.00037517524 0.0003854366
0.00039580127 0.00040626343 0.00041681764 0.0004274589 0.00043818308 0.00044898747 0.00045987117 0.000470836
0.00048188714 0.0004930339 0.0005042904 0.0005156761 0.00052721595 0.0005389397 0.0005508813 0.0005630766
0.00057556067 0.0005883649 0.0006015128 0.00061501603 0.0006288707 0.00064305443 0.0006575245 0.0006722179
0.0006870527 0.00070193154 0.0007167464 0.0007313847 0.0007457357 0.0007596967 0.0007731783 0.0007861084
0.0007984346 0.000810125 0.0008211668 0.00083156384 0.0008413337 0.0008505036 0.0008591066 0.0008671784
0.00087475404 0.00088186614 0.0008885433 0.0008948093 0.00090068305 0.0009061787 0.0009113062 0.00091607193
0.0009204794 0.00092453 0.0009282233 0.00093155797 0.00093453174 0.000937142 0.0009393861 0.0009412612
0.0009427648 0.0009438946 0.00094464887 0.0009450265 0.0009450271 0.00094465114 0.00094390026 0.0009427773
0.0009412864 0.0009394332 0.00093722466 0.00093466963 0.0009317782 0.000928562 0.00092503405 0.0009212083
0.0009170996 0.00091272354 0.00090809574 0.00090323185 0.0008981469 0.0008928552 0.00088736985 0.00088170235
0.0008758622 0.0008698571 0.0008636923 0.00085737096 0.0008508939 0.00084426 0.0008374664 0.00083050894
0.0008233825 0.0008160818 0.0008086013 0.00080093637 0.0007930832 0.0007850394 0.00077680434 0.00076837925
0.00075976737 0.0007509741 0.0007420071 0.0007328759 0.00072359195 0.0007141686 0.0007046206 0.000694964
0.0006852158 0.0006753935 0.00066551485 0.0006555976 0.0006456589 0.0006357152 0.000625782 0.00061587355
0.0006060028 0.0005961814 0.00058641937 0.00057672575 0.0005671082 0.0005575734 0.00054812705 0.0005387742
0.00052951917 0.0005203659 0.0005113181 0.0005023791 0.00049355207 0.0004848401 0.00047624615 0.00046777306
0.00045942352 0.00045120006 0.00044310506 0.00043514057 0.00042730838 0.00041960974 0.00041204548 0.0004046157
0.0003973196 0.00039015536 0.0003831196 0.0003762075 0.00036941218 0.00036272462 0.00035613342 0.0003496248
0.00034318294 0.0003367902 0.0003304281 0.0003240783 0.00031772407 0.00031135176 0.00030495226 0.0002985228
0.00029206777 0.00028559982 0.0002791397 0.00027271613 0.00026636466 0.00026012605 0.00025404317 0.00024815754
0.00024251439 0.00023713904 0.00023206626 0.00022730285 0.00022284222 0.00021866876 0.00021476112 0.0002110893
0.00020810767 0.00020493429 0.00020189598 0.00019896786 0.00019612895 0.00019336467 0.00019066637 0.00018804315

conv_layers.0.weight f4 [64, 13, 5]
00000000: 9b29 96bd def3 23be 0568 c7ba b9b9 443e
00000010: 8e28 cf3d 1dc1 ebbc 1b5b 1dbd 3fd2 023d
00000020: db67 023e 6f1f ad3d f23c e2bd 1465 58bc
00000030: 0b5a acbe 0d8f cbbe 6e66 1dbe bc31 91bd
00000040: 086d d2bd 8e30 293d 5c05 433e 1f75 c13d
00000050: 0150 c8bd fcb3 70be a0e5 923c c643 a33e
00000060: 1c0a 4b3e cdcb 0a3d 2388 ebbc db6a 92bd
00000070: 7af3 82be c025 abbd 2605 bfbe 9cc2 3bbf
00000080: 9b98 b0bf 7375 67bf 1ec6 4ebf d011 20bd
00000090: e9a6 d0bc fc76 823d 5dde c53d d959 0d3d
000000a0: 1098 d0bd 8a08 bbbd 4c71 95bd 6a02 04bd
000000b0: 0a5b 51bc 652a bcbd 2979 7ebc cd97 223d
000000c0: 8b0f 48bd 7562 9cbd 1a92 11be 1ff6 2fbe
000000d0: ff95 073e aa14 4c3e 7b56 0c3e bd7e b8be
000000e0: d5c4 a1bf cd3f f6be c88b bbbe 2edf d8be
000000f0: 49b7 82bc 077f 47bd 34e0 9b3c 60b4 983d
00000100: 39d4 273d 1bb8 a7bf 77dc 24bf 907a 2abf
00000110: ca83 32be d40a 19be d3f9 ffbc 7218 b0bd
00000120: be23 613d 5f50 be3d 4354 653c 42cb e8bf
00000130: 98b9 a5bf 8872 b9bf 514a c3bf 9232 d8bf
00000140: 37f7 f13c 9a2e c13d dec5 823e b750 da3e
00000150: b44b 183e 043e 07bc 0f89 4c3d c2a9 4d3e
00000160: 255d ea3e ad80 563e c30d 823b 14b4 0a3d
00000170: 7f3e d73c 73bc ccbf ae6f d7bd 4bcd 8cbe
00000180: 673f b3be 876b 4fbf b7e6 30bf f7bc 92be
00000190: 9b41 133d 6382 b03d 8d30 af3e c5d6 053f
000001a0: b233 3f3e 5692 03bd 223a b0bd 9d76 f6be
000001b0: 6bf5 fbbf 167b ebbe 270e 76bd 3085 9ebc
000001c0: ae08 23bc efa4 5ebd 237b 393c c17c 95be
000001d0: 7817 14bf 2bca 2dbe ab2b e33e 5bcd ae3e
000001e0: 0f8a 92be b33a 0ebf 5ba3 95bd d3fa f73e
000001f0: 3168 a63e 3b3b e83b 9323 a53b d36a 383b
00000200: 259b 8c3c fea5 5d3c 1c74 013e ca12 a1bd
00000210: 5cb1 8b3d bd0a fa3c 9283 593c b34d 103e
00000220: 1b9c 513e 6ef6 353d dafa 803d af91 a93c
00000230: 3ad3 433d 96bb 5c3e 4108 4b3c 245c 37bd
00000240: e566 88bd 1298 8abf 4cd4 82be ba58 f23b
00000250: 41fb 77bd 6b0a 2e3d 04b9 a9bd e941 e93d
00000260: bbaa d13d 6923 aabd d0ea d4bc 8473 c8bd
00000270: 301c 6fbe a90a 24be 6913 513e e061 4a3e
00000280: 0e89 59bd c624 123e f094 3b3d a71d ee3d
00000290: 691b 8b3d 484c e0bd 31a7 28be 00b9 89be
000002a0: 453b f63d c596 6b3d 4a88 2bbd cccf ba3d
000002b0: 5b4c 45bd c3aa 25be ad37 12be 58a9 3ebf
000002c0: ec16 35bf 748a 173d f6cb de3e d985 5a3e
000002d0: 184f 583e 266d 9e3e b095 14bd 24a3 d9bd
000002e0: 2c98 ddbf 1524 1a3e 8b47 c43d 8938 44bc
000002f0: 0bf7 c13d 75a7 ce39 8441 2abe 06e5 93be
00000300: 94cf 3ebd fc79 183d aa18 cf3c 501b 9a3c
00000310: 9d5f d6bd eebf 2abe 7c3d 29be abd7 d2bd
00000320: 5b1d 51bd f276 3cbd fb32 dabd 64ba 8138
00000330: 7796 a8bc d5a6 a3bd 4597 34be 9e94 c839
00000340: 0562 1c3e 35e9 2b3d 59ca e6bc 9c24 46be
00000350: 096a 84bc 1e9d 2d3d 29c3 1d3d 15a0 46be
00000360: f967 e2be 43df 2fbe fce9 fb3c d3ef ab3c
00000370: bf40 6abf 6008 fbbf a25c eabf 2501 0ac0
00000380: 9f8f fdbf cc1a 9cbe 6c08 35bf c2f9 57bf
00000390: 88be 1dbf af3c 99be 60fa 3abe af23 8dbe
000003a0: f183 653d b12e 753e 8b76 a73d 3ed6 6bbd
000003b0: e334 ecbe 1742 cbbe 1e59 0ebf 5512 01bf
000003c0: a26b 56ba d5c4 8bbc 37bc 173e d5d0 553e
000003d0: 5e97 e23d 1cd0 77bd c946 93be 43b4 443e
000003e0: 02e6 883f 0aa7 443f a503 4fbf bc5e 91bf
000003f0: 16a9 b8bf d6d8 0fc0 3cf6 95bf 5054 d23b
-0.07332154 -0.16010997 -0.0015213495 0.19211473 0.10115157 -0.028778607 -0.038416963 0.031938788
0.1273493 0.08453261 -0.11046781 -0.013207693 -0.33662447 -0.39757577 -0.15371105 -0.07089564
-0.10274702 0.04130607 0.19045013 0.09446167 -0.097808845 -0.23506159 0.01793176 0.31887645
0.19828075 0.033885766 -0.028751438 -0.07149287 -0.25576383 -0.083568096 -0.37308615 -0.73343825
-1.3796571 -0.9041359 -0.8077105 -0.039079487 -0.025470214 0.06370351 0.09661553 0.034509514
-0.101852536 -0.09132488 -0.07297 -0.032228865 -0.012778053 -0.091877736 -0.0155318165 0.03969555
-0.048842948 -0.07635967 -0.1421589 -0.17183731 0.13240813 0.19929758 0.13704865 -0.36034194
-1.2638193 -0.4809555 -0.36630082 -0.42357773 -0.015956538 -0.048705127 0.019027807 0.07456279
0.040973876 -1.310306 -0.643989 -0.66593266 -0.17433086 -0.14945537 -0.031247055 -0.085984126
0.054965727 0.09292673 0.01399714 -1.8187029 -1.2947264 -1.4488077 -1.5257055 -1.6890433
0.029536827 0.09432717 0.25541586 0.42639706 0.14872628 -0.008254532 0.049935397 0.20084289
0.4577419 0.20947523 0.0039689257 0.033863142 0.026274918 -1.599501 -0.10519348 -0.27500376
-0.3500931 -0.8102345 -0.6910204 -0.28659794 0.035951238 0.08618619 0.3421673 0.5228084
0.18672064 -0.03212198 -0.08604838 -0.4813737 -1.9684271 -0.45992345 -0.06007209 -0.019350618
-0.0099508 -0.05435651 0.011320862 -0.29196742 -0.5784831 -0.16971652 0.44369254 0.3414105
-0.28620955 -0.5555832 -0.07306548 0.4843355 0.32501367 0.007087139 0.005039641 0.0028139844
0.017163822 0.013528345 0.12641948 -0.07864912 0.06820938 0.030522699 0.013275998 0.1409214
0.20469706 0.044424467 0.06297846 0.02069935 0.047808863 0.21555933 0.012392105 -0.044765607
-0.066602506 -1.0827658 -0.25552595 0.007395831 -0.06054235 0.042490404 -0.08287242 0.113895245
0.102376424 -0.08307535 -0.025990874 -0.09787658 -0.23350596 -0.16019692 0.2041756 0.19763899
-0.05310922 0.1427184 0.045796335 0.116267495 0.067923374 -0.109520495 -0.16470028 -0.26898956
0.120230235 0.057516832 -0.041878022 0.09121665 -0.04816852 -0.16178422 -0.14279051 -0.7447715
-0.707381 0.036997274 0.43514985 0.21340121 0.21123922 0.3094265 -0.036275566 -0.1062682
-1.7312064 0.15052827 0.09583958 -0.01197637 0.09470948 0.00039416147 -0.16626555 -0.2888567
-0.04658468 0.03722571 0.025280315 0.018811852 -0.104674555 -0.16674778 -0.1652736 -0.10295042
-0.051053386 -0.046011873 -0.10654255 6.185917e-05 -0.02057956 -0.07990805 -0.1763583 0.000382577
0.15271766 0.04197045 -0.028172659 -0.19349903 -0.016163843 0.042386167 0.038516197 -0.19397004
-0.4421995 -0.17175011 0.03075122 0.02098838 -0.91505045 -1.9611931 -1.8309519 -2.1563199
-1.9809455 -0.30489194 -0.70715976 -0.84365475 -0.6161885 -0.2992911 -0.18259573 -0.27566287
0.056034032 0.23943593 0.08176907 -0.057577364 -0.461341 -0.3969886 -0.5560473 -0.504186
-0.00081794907 -0.01706163 0.14817892 0.20880444 0.11064027 -0.060501203 -0.28764942 0.1920939
1.0695193 0.7681738 -0.80864936 -1.1357036 -1.4426601 -2.2476096 -1.171577 0.0064187422

conv_layers.0.bias f4 [64]
00000000: a72c 903d 35bc 04bc 519c be3d a3c5 a0ba
00000010: 6433 ed3d a839 313c c84f 5ebb 7665 39bb
00000020: 33b5 633d 8de6 67be e34d 88bf b92a 85bb
00000030: d42a e13b 2754 b5bc aca1 263d 0827 15bb
00000040: 0585 06bb 6fde 603d 3c32 143d 447a 8bba
00000050: da17 f9bb 9089 b8bc 3662 6bb9 8336 b6bb
00000060: aed1 333d 6ca0 0b3c 0cb9 e3bc 6bdf db3b
00000070: 204d d13b 6161 35bf 1207 a6bb 66eb 833d
00000080: 007a 1a3f 0915 90bb 40d9 883e 77a2 d83e
00000090: dd93 babb 5716 483d 78ce e73c 47a6 93bf
000000a0: d698 fdbb 405c afbb 3a41 0a3c ad0c 583c
000000b0: 2d57 5a3c 5a85 c23c be16 48bd eb13 46bc
000000c0: b82c bdbb 3e3a 223e 39c2 cf3c 8082 d9bb
000000d0: 4205 573e ff38 07bc 6278 efbb 4e54 35bc
000000e0: a992 b4ba ca1a 4cbc e451 aebc 2213 b63a
000000f0: c1bd 98bc f341 543b 5e5b d13b a091 2d3e
0.07039767 -0.008101513 0.09307159 -0.0012265932 0.115820676 0.010816969 -0.0033922065 -0.0028289235
0.055592727 -0.22646542 -1.0648769 -0.004063931 0.0068715606 -0.022134854 0.040681526 -0.002275886
-0.0020526063 0.05489963 0.03618072 -0.0010641296 -0.0076017203 -0.022526532 -0.00022447933 -0.0055606975
0.043901138 0.008522134 -0.027798198 0.006709983 0.006387368 -0.70851713 -0.005066761 0.06441383
0.6034241 -0.004397039 0.2672825 0.4231145 -0.005693896 0.04884943 0.028296694 -1.1535119
-0.0077391667 -0.005351573 0.008438403 0.013186616 0.013326448 0.023745228 -0.048849814 -0.01208971
-0.005773153 0.1584253 0.025361167 -0.0066378713 0.209981 -0.008253335 -0.007308052 -0.011067463
-0.0013776618 -0.012457559 -0.021279283 0.00138912 -0.01864517 0.0032387942 0.0063890656 0.16950083

conv_layers.1.weight f4 [64, 64, 3]
00000000: 3e73 083d 68a1 b23d 22e4 9b3b 37f2 c5be
00000010: a5b8 2fbf 02ad 07bf 6af8 3abd 5d91 a7bd
00000020: 2365 07bd e3f2 523d 690c 69bb ce7b db3c
00000030: bd40 d4bb 5a57 01bc 172e 5a3c ba6b 41be
00000040: 17db 94be 4725 b63c 67e8 ab3c 216b cdb9
00000050: 18f7 8abe 8040 f23c 3fd1 7c3e 4016 023c
00000060: eabf 3e3d 8e1f 11bc 11e5 cc3c 9e39 4abd
00000070: c8d0 253e b3d1 47bd e23b a53e 07d1 273e
00000080: 3c6b d93e 597c 1a3e 2b54 13be 7a8c 0abf
00000090: 84e9 e6bd d2fe 293c 856f d43d a8b5 983d
000000a0: 8aa6 a9bc 6a83 883d 2799 513d 5141 003e
000000b0: f7c2 593d 33e6 38be 35b1 6bbf 5601 923e
000000c0: a379 3fbe 96a9 8fbf 7d66 34bd 56f9 743e
000000d0: 2d97 9e3e 4360 403e d16a 9b3c 1790 513d
000000e0: 5fbb 94bc 5720 9fbd cd43 f6bd 0185 c6bd
000000f0: 2fb9 78be a35f 80bd 6401 90bc 76c8 e43d
00000100: d1b3 413e 761a 083e 29b0 fd3d e0d6 a7be
00000110: c8c0 84be 8662 c3bd 99ee 61be df77 65be
00000120: 7d9a e2bb f59f 75bc 1de0 89bc 1624 523e
00000130: 28f9 953e ffb7 2f3d f5e6 92bd 5163 fabd
00000140: 2417 70bd b22e 49be e45a edbe 225e 9cbe
00000150: c9cd c0bc 7d09 243d 99d0 c13c 12b4 153e
00000160: 0a51 0bbc 17fe 03bd a351 8fbd 64aa 023e
00000170: f501 2d3d 1511 563d 2c4e 223d 165e af3d
00000180: fce7 74bd 00a1 b7be 0b68 9dbd 58ee 7dbd
00000190: c0b4 22bf 96a9 51be d43f bcbd 0e41 6abd
000001a0: 3e6a 50bc a7f0 3ebc 219e cdbd f0ea 87bc
000001b0: b2de ff3d 62b5 243d 9a88 e93d 235c 5b3d
000001c0: 3de9 92bc 7a85 d63c 4508 aabe 0871 dc3c
000001d0: cbee 533d d060 98be 1351 083d a9f1 d1bd
000001e0: 9f32 0ebf 6a6a 3cbd 912d fb3e 6556 b9bd
000001f0: 20ca 653d 0313 30bd 5564 49bd 7fe2 bdbc
00000200: db3d 943e 22c5 90bd 1fab e03d 523d 62bd
00000210: 95e1 053e 4edc d63d a4c8 48be 1c83 abbe
00000220: 3fd7 e9be edb5 d9be cf6a 953d 459c 50be
00000230: d361 983c 8e96 b13d 95f2 91be ac3f 78be
00000240: 5ce4 1a3e d0f0 bb3e 11bf 333d e682 113e
00000250: 4022 96bd 0c21 0c3a ba21 a1bd 0951 f0bc
00000260: d299 463d 1593 b03c 7657 e3bd 7ee2 2ebe
00000270: 53e5 103d 331b 99bc 1b6a 82bd 2982 8e3c
00000280: 9dbb 8d3d 5b3b 293c 26cc 113e cf70 01be
00000290: 8a71 863d 6d82 9bbd f8a1 a5be f6ac 1ebe
000002a0: c829 a1bd c6c2 a8be 2a6a a1bd 3cfa 8f3c
000002b0: 60d7 ac3e 66ee 0d3f 3d4c 08bd 5cd1 41bd
000002c0: 5801 ec3d aa2d ff3d 9548 b33e efc1 d23e
000002d0: bde5 fcbb df6c c33c efff 95bd 4499 37be
000002e0: 4018 1ebf 9c13 abbe 97f3 ff3d c3da d5bd
000002f0: a23b 8d3d cbfb f0bb fd28 d33c 9997 a8bc
00000300: b332 f03b e4b1 febd 19c3 633d c1a0 1cbf
00000310: ea1e 08be 9910 86bd a1cb 99bd 45d2 583d
00000320: f6ea 903c 0d1a 2e3d 0e65 27be 49f6 ffbb
00000330: af7f d3bd 9ae7 00be d7e6 fe3c f130 8cbd
00000340: 5b92 d03d 58d9 853e 9f67 49bd a748 6c3c
00000350: c9f3 163e 48e5 45bc 930e 403e 4a43 a13e
00000360: 31bd 42bd 0fac 003e c26f 083e 94b1 f4bc
00000370: 1969 87bd 07a5 6d3d 9999 053c bffd 203e
00000380: 1f5b 6b3e a58a 313e 9d63 3fbe e6b8 05bf
00000390: 9167 84bd a149 753d 4817 13bc cc7b a4bb
000003a0: 197c 9dbd a367 d33c 43e3 f4bd a3b8 04be
000003b0: 2097 adbd 7b6e 46bb fd12 6f3e 66ad 143e
000003c0: a8cb 853e 3963 ef3d 03a7 07bf 2ab9 513d
000003d0: edec c2bd 09b2 ddbd 2a20 07be dae7 cdbe
000003e0: 4c0b 9fbe 9a68 483d 7953 21be b080 20be
000003f0: e8a3 d1be 3146 a0be c318 3ebd b91a 54bd
0.03331303 0.08722192 0.00475742 -0.38661358 -0.6864112 -0.52998364 -0.045647062 -0.08182023
-0.033055436 0.051501166 -0.0035560376 0.026792433 -0.006477444 -0.007894361 0.013316653 -0.1888875
-0.29073402 0.022234572 0.020984842 -0.00039180464 -0.27141643 0.029571772 0.24689196 0.007939875
0.046569742 -0.008857621 0.025011571 -0.049371354 0.16192925 -0.04878397 0.3227225 0.16388331
0.42464626 0.15086497 -0.14387576 -0.541206 -0.11275008 0.010375695 0.10372833 0.07456523
-0.020709295 0.0666569 0.051171448 0.12524916 0.05316445 -0.18056564 -0.9206727 0.28516644
-0.18698744 -1.1223629 -0.044043053 0.23923239 0.30974713 0.18786721 0.018971832 0.051162805
-0.018155752 -0.0776984 -0.12024651 -0.09693337 -0.24289392 -0.06268241 -0.017578788 0.111710474
0.18916251 0.13291344 0.123871155 -0.32781124 -0.2592833 -0.09540276 -0.22063674 -0.22409008
-0.006915389 -0.01499175 -0.016830498 0.20521578 0.29291654 0.04290008 -0.07172958 -0.12225974
-0.05861582 -0.19646719 -0.46358407 -0.30540568 -0.023535626 0.04004811 0.023659037 0.14619473
-0.008503208 -0.03222474 -0.06997993 0.12760311 0.042238194 0.052262384 0.03962533 0.08562867
-0.05979155 -0.3586502 -0.0768586 -0.06199488 -0.6355705 -0.20474848 -0.09191862 -0.057190947
-0.012720643 -0.011654056 -0.10039926 -0.01659152 0.12493648 0.040212043 0.11403008 0.053554665
-0.017933482 0.026186693 -0.33209434 0.026909366 0.051741403 -0.29761362 0.033280443 -0.10251171
-0.5554599 -0.04599992 0.49058202 -0.090496816 0.056100965 -0.04298688 -0.04916795 -0.02317929
0.28953442 -0.0706885 0.10970139 -0.05523426 0.13074334 0.104912385 -0.19607788 -0.33498466
-0.45672032 -0.4252161 0.07295763 -0.20372112 0.018601334 0.08671294 -0.28505388 -0.24243039
0.15126175 0.36707163 0.043883387 0.1421009 -0.073307514 0.00053455005 -0.07867761 -0.029335516
0.04848654 0.02155451 -0.11100666 -0.17078587 0.03537495 -0.018689727 -0.06367894 0.01739605
0.0692055 0.010329093 0.14238033 -0.1264069 0.065646246 -0.07593236 -0.32350135 -0.15495667
-0.07869297 -0.329611 -0.07881577 0.017575376 0.33758068 0.5544189 -0.03327583 -0.0473188
0.11523694 0.124598816 0.35016313 0.41163585 -0.0077178166 0.023855625 -0.07324206 -0.1792956
-0.6175575 -0.33413398 0.12497633 -0.10442116 0.0689614 -0.007354235 0.02577638 -0.0205801
0.0073302626 -0.12436274 0.05560598 -0.6118279 -0.13293043 -0.065461345 -0.07509542 0.052934904
0.017690163 0.042505313 -0.16347143 -0.007811342 -0.10327088 -0.12588349 0.031115932 -0.06845272
0.10184165 0.26142383 -0.049171086 0.014421619 0.14741434 -0.012078591 0.1875556 0.3149665
-0.04754371 0.12565635 0.13323882 -0.029869832 -0.06611843 0.05801871 0.008154296 0.15721796
0.22983979 0.17338045 -0.18690343 -0.5223526 -0.06465066 0.05988467 -0.008977719 -0.0050196406
-0.076896854 0.025806254 -0.11957409 -0.12961058 -0.084760904 -0.0030278254 0.23347087 0.14519271
0.2613194 0.11688847 -0.52989215 0.051201977 -0.09517846 -0.10824973 -0.13195863 -0.4021595
-0.31063306 0.04892788 -0.15754499 -0.1567409 -0.40945363 -0.31303552 -0.046410333 -0.051783297

conv_layers.1.bias f4 [64]
00000000: 989b ab3e 8c98 003e 600b cd3e 90e8 53be
00000010: 8678 823e 08bf 1d3e 7b24 8e3e 2a30 cd3d
00000020: 77cb 083e 1255 94bd ff6b cfbe d629 383c
00000030: 5f1e aebd a10b 543e 9e32 273c 11f7 76bc
00000040: d54e b43e 2527 823f 17cb ad3e e063 06bf
00000050: a8f4 b0bd c8cb ac3d 5a80 e7bf 1b38 02bc
00000060: bd4d 77be 568c e2bc 2590 2a3e 059a 10bf
00000070: 7f6f 1c3f 1b41 6e3e c9af b03e 90ce ee3c
00000080: 1aa7 023e ae07 513e dcae 193e d885 bb3e
00000090: 2c3e 9f3e 9f00 f93e 118f 133f 92bf 98be
000000a0: 95df 593e 3586 433d 7b65 d03d 7459 6c3e
000000b0: 0325 c2bc 15de 62be e1fc 08be 7e9f da3e
000000c0: e918 5bbd 0c18 dcbd 4689 0f3e a2a9 9bbd
000000d0: 3408 edbd e92a 8f3e 5324 a5bc b954 803c
000000e0: 94db c43d 1e2b 9fbd 6160 4a3f 81c1 933e
000000f0: 2518 d93c 0638 e33e b8d4 f1bd 457f 32be
0.33517146 0.12558192 0.4004774 -0.20694184 0.25482577 0.15404904 0.27762207 0.10018952
0.13358866 -0.072427884 -0.40512082 0.011240443 -0.085018866 0.20707561 0.010204939 -0.015073554
0.35216394 1.0168196 0.33944008 -0.5249615 -0.086404145 0.08437306 -1.8086045 -0.007947947
-0.24150749 -0.027654808 0.1665655 -0.56485015 0.6110763 0.23267023 0.34509113 0.029151231
0.12759057 0.20413086 0.1500811 0.36625552 0.3110212 0.48633286 0.57640177 -0.29833657
0.21276696 0.04773541 0.10175606 0.23080999 -0.02369929 -0.2215503 -0.13377716 0.42699808
-0.053490553 -0.10746774 0.1401721 -0.07600714 -0.1157383 0.27962425 -0.020158922 0.015665399
0.09612194 -0.07771896 0.7905331 0.2885857 0.02650077 0.4437868 -0.11808151 -0.17431362

conv_layers.2.weight f4 [64, 64, 3]
00000000: 582d 5b3c 308b 09bf 2da4 e8bd 2cb6 783e
00000010: 21ab 663d 68b2 4abf 5e51 94bf 5553 163f
00000020: f776 e4be 7b0d 00bf ac8f 06bd f0bb 09bf
00000030: 9469 f73e 5953 12bf 6e92 9abd b255 eebe
00000040: 5c8d e8be acec 10be 9ce1 d23e 6e9d 9b3e
00000050: 4b95 923e 119a d53d 29ed 5ebe 837f 7dbf
00000060: de8c 1c3f 99a3 7c3e d4a9 ef3e 2284 f8bf
00000070: da47 d9be d87c 093f 0cc5 a9be d80f 653f
00000080: 6c28 383f a00e c13f 6efc ce3b 9ccd 31bf
00000090: 5a71 203f 4f3e b53e a435 e4be 7bd8 6f3d
000000a0: a273 03be 8849 1bbf dd65 b73e a915 11bf
000000b0: fbf5 873f 11e3 333d 3192 e0bc 182c 68bd
000000c0: edc1 253d ede5 8f3d 02a6 8b3c b6ee 3abe
000000d0: 1b2f 93be f9b0 3abe 8f31 12bf fe81 1b3f
000000e0: 0314 14c0 b904 9ebf 6426 23bf 35c1 20bf
000000f0: 0f37 c03e fa28 a9be 7e7d 5bbe ccc0 133f
00000100: efa6 333f 0372 c5bc 8c4f 34bf 13b7 7dbe
00000110: 1bc2 c5be dc5e 9bbe 9e9e 8fbe 061c 31be
00000120: 7e65 11be 4f60 0bbf a7d6 403e f178 77bc
00000130: 16a6 89be b633 0abf a523 333e 9c81 adbf
00000140: d7b1 a33d 15bd cabe 6637 833c ae80 90be
00000150: 39b2 1e3f ff4d fdbe 0c34 e7bd ccbc d5be
00000160: 550a 383f fc55 efbe 55e7 9bbe d84b 33bc
00000170: 9941 56bf 76a9 03bf f5a2 893c 3d46 dc3e
00000180: 0098 343e 8dc1 5dbe df22 00bf 6df8 fb3d
00000190: 279b 49bf ddb5 0abf f59e be3e b520 203f
000001a0: b62b df3d 01ae 6ebf 6dc1 d8be 900b 3ebf
000001b0: 6841 6cbc d400 6b3a 0197 c33d fb93 1f3e
000001c0: 6d23 3cbf 191d 553e 48dd b6be cc43 a6be
000001d0: 9cc1 c3be b53c 33bf 5a1f dabe c866 34bf
000001e0: b0dd 1d3e e9d2 b33d b12c 74be 3602 3fbe
000001f0: e6e9 203e 0d48 2dbe ae2c 36bf 9f96 aebe
00000200: fb6c a53c 756e abbd 2aa0 21be 93f6 953e
00000210: c4e4 583e 17dd 37bf 5d48 82bf 7a5a 1f3f
00000220: f475 c2be 0aee 643e 61c1 423f 6f30 83bf
00000230: 09f5 c7be 0202 bebe 889b cbbe 671b e6be
00000240: 2a53 0fbe b297 63bf bd89 0ebf 299f 6fbf
00000250: 9d21 323f 7d92 043e 243c 753f b5ce 653e
00000260: 3731 4ebf de78 123f 026e d63b 9d40 3a3e
00000270: 28f2 03bf 1d22 803e 3cb8 aabd b3ee c0be
00000280: 4a92 f33e bd6b f03d 2776 b2bc 235b 7a3d
00000290: 8422 14bd 73e7 1a3e d733 b2be 7742 483c
000002a0: d8e7 54bf 3d9a 39bf 051c 5abf 8b40 ca3d
000002b0: 8143 da3c 45e0 ffba f319 803e 0e80 f6bf
000002c0: a7ff a5be 8628 ab3e 3f3e 90bc a991 a63d
000002d0: 5488 88bd c2d7 8bbd 5897 7bbd fbeb 15be
000002e0: 9795 d1be 80fa 03bf 3fa2 e33c 4c2e 9bbc
000002f0: c7b8 f83c 72cb 893e 5829 543d 0eef 993e
00000300: 3c2e 66bf 4783 ca3f 7bc9 593e 7cb1 7d3e
00000310: 27f0 80be ba16 113d 13e6 e5be b031 c1be
00000320: 0a41 1e3f a1ce 1ebf a07f 06bf 58cc 213e
00000330: a172 b73d c674 9dbf bd9d b8bd 4ffc 8a3f
00000340: 4c2f 1d3f ef8c ccbf e590 81bf 6103 45c0
00000350: c7a7 b5bf be58 98bd d126 4dbf a0a1 aebf
00000360: 879b 36bf 9441 11be 4198 1bc0 c6f2 28bf
00000370: 2202 e7bf 16c8 6dbe c8b3 2b3d 2992 98bd
00000380: 49ee 803c 38ea 20bf 5d39 9bbe 1e4c fc3e
00000390: 087f 5ebf f2a9 fc3b d183 f6bf 1447 ab3e
000003a0: 643b efbe aee4 863e f149 193e c352 86bf
000003b0: d694 303f 00cc 9fbd b1d1 573d f895 87bd
000003c0: 3e1d afbe 8e29 573e d478 d4bd 6a0e 913d
000003d0: 5e81 263e cb69 fabc 980d 65bf fedb 7c3e
000003e0: 8b9b fabf c106 0a3d a9ab c3bd 5bf1 5bbc
000003f0: 4523 de3e ccde 3bbf 882c c6bd 9a52 c9bf
0.01337751 -0.5372801 -0.11359439 0.24288243 0.056315545 -0.79178476 -1.1587331 0.58720905
-0.44622013 -0.5002057 -0.03285186 -0.53802395 0.48322737 -0.5715843 -0.075474605 -0.46549755
-0.4542035 -0.14152783 0.4118775 0.30393547 0.28629526 0.104297765 -0.21770157 -0.9902269
0.61152446 0.24671783 0.46809256 -1.9415324 -0.4243763 0.5370612 -0.33158147 0.894773
0.7193668 1.5082588 0.006316713 -0.6945436 0.6267296 0.353991 -0.44572175 0.05855606
-0.12837079 -0.60659075 0.35819903 -0.56673676 1.0621942 0.04391772 -0.02741346 -0.056682676
0.040468145 0.07026277 0.017046932 -0.18255123 -0.28746876 -0.18231572 -0.5710687 0.6074523
-2.3137214 -1.2345191 -0.63730454 -0.6279481 0.37542006 -0.33039075 -0.2143459 0.5771606
0.70176595 -0.024102217 -0.7043388 -0.24776869 -0.38624653 -0.3034581 -0.28050703 -0.17295846
-0.14198872 -0.5444383 0.18831883 -0.015104518 -0.26884526 -0.53985155 0.17494066 -1.3555179
0.07992905 -0.39597383 0.016017627 -0.28223175 0.61990696 -0.4947357 -0.11289224 -0.41745603
0.71890765 -0.46745288 -0.3044993 -0.0109433755 -0.83693844 -0.5143045 0.016801337 0.43022338
0.17636108 -0.21655865 -0.5005321 0.12303243 -0.7875237 -0.5418375 0.3723065 0.62549907
0.10897009 -0.9323426 -0.42335072 -0.7423639 -0.014419891 0.0008964662 0.09550286 0.15583794
-0.73491555 0.20811881 -0.357157 -0.324736 -0.3823365 -0.70014507 -0.42602044 -0.7046933
0.15416598 0.08780462 -0.23845173 -0.18653187 0.15714225 -0.16922016 -0.71161926 -0.3409929
0.020193567 -0.083706774 -0.15783754 0.29289684 0.21181017 -0.7182173 -1.0178334 0.6224743
-0.37980616 0.2235643 0.7607632 -1.0249156 -0.39054134 -0.37110907 -0.39767098 -0.4494278
-0.13996568 -0.88903344 -0.5567892 -0.93602234 0.6958254 0.12946506 0.9579489 0.22442134
-0.80543846 0.5721568 0.0065438757 0.1818871 -0.51541376 0.25026026 -0.08335921 -0.37682113
0.47572547 0.117392994 -0.021784855 0.06112207 -0.03616573 0.15127353 -0.34805176 0.012222878
-0.83166265 -0.72500974 -0.85199004 0.09875592 0.026643516 -0.0019521794 0.25019798 -1.9257829
-0.3242161 0.33429354 -0.017607806 0.08133251 -0.066666275 -0.06828262 -0.06142363 -0.146408
-0.4093444 -0.5155411 0.027787326 -0.018942975 0.030361546 0.2691303 0.05179724 0.30065197
-0.899143 1.5821313 0.21268265 0.24774736 -0.25183222 0.035422064 -0.44902095 -0.3773322
0.6181799 -0.6203404 -0.5253849 0.15800607 0.089574106 -1.2301261 -0.09014461 1.0858248
0.61400294 -1.598051 -1.0122343 -3.0783312 -1.4191827 -0.07438801 -0.80137354 -1.3643074
-0.71331066 -0.14185172 -2.4311678 -0.6599544 -1.8047526 -0.23220858 0.0419195 -0.07449753
0.015738623 -0.6285739 -0.30317202 0.49276823 -0.86912584 0.0077106887 -1.9258977 0.33452666
-0.46725 0.26346344 0.14969613 -1.0494007 0.68977106 -0.07802582 0.05269021 -0.06620401
-0.34201998 0.21011946 -0.10374609 0.070828274 0.16260287 -0.030568024 -0.8947387 0.24693295
-1.9578718 0.033697847 -0.09554226 -0.013424243 0.43386284 -0.73386836 -0.096764624 -1.5728333

conv_layers.2.bias f4 [64]
00000000: 49de 8fbe 2a1e 553d 33d9 f43e 4be8 1a3e
00000010: d7ee 08be 0845 8c3c 1520 8e3d 6673 173d
00000020: ebb5 8cbe 5a11 b53f 892f e4bd a9ad eb3d
00000030: 6d77 aabc 1df9 f9be 7e89 d5bc 563f 033f
00000040: 845c 98be 1a5b 073f aff2 5dbd 9b53 24be
00000050: 3f83 b6be 534a c63d 6528 3d3e 74e0 f13e
00000060: 9141 63be 00e1 59bf 0cd3 193c 000f d4bd
00000070: 5880 5b3d 47db 403e eb3a 603e e335 333e
00000080: 5766 6c3f 9331 51bd df49 8bbd 7240 6f3e
00000090: 89ef 833e 3b47 94bd 20b5 d63c 6119 723e
000000a0: 6713 8c3e 38c8 0b3e bd9d 433f 520b 95be
000000b0: c01c cc3d 2561 7f3e e555 73be 321d f6bd
000000c0: 7f61 a03e ece3 97be a695 cabc bf5c 613e
000000d0: a3ff 173f e494 a83f 7fbe 293e fbd4 fb3d
000000e0: 00dc ae3e 2305 1bbe 6af7 733f 5feb 063e
000000f0: 5b61 dd3d b02b 873d 20cd 7dbd 797d a5bd
-0.28099278 0.05203072 0.4782196 0.15127675 -0.1337236 0.01712276 0.06939713 0.036975287
-0.27482542 1.414592 -0.11141879 0.115077324 -0.0208089 -0.4882287 -0.026066538 0.5126852
-0.29758084 0.52873385 -0.05418652 -0.16047518 -0.35647008 0.09682145 0.1847244 0.47241557
-0.2219298 -0.8510895 0.009388696 -0.103544235 0.053589195 0.18833648 0.21897475 0.17501025
0.9234366 -0.05107267 -0.06801199 0.23364428 0.25768688 -0.07240149 0.026209414 0.23642494
0.27358553 0.13650596 0.76412565 -0.291102 0.09966421 0.24939401 -0.23763235 -0.12017287
0.31324384 -0.29666078 -0.024729561 0.22008036 0.59374446 1.3170438 0.16576575 0.12296482
0.34152222 -0.15138678 0.952994 0.13175724 0.10809585 0.066001296 -0.0619632 -0.08080573

conv_layers.3.weight f4 [64, 64, 3]
00000000: 36a0 e33d d3f7 c93a 7fcc 373f d9dd 533e
00000010: e01c 0bbe 01d3 fa3e 041f d9bd 4ff7 623d
00000020: 1588 9ebe 4e6b 13bf 9f25 88bf 30e1 c2bd
00000030: 6fe4 f3ba 2ef2 8c3d ae2a 9939 192f 323e
00000040: e0b6 da3c 1237 083f be6b 6fbd d801 aa3c
00000050: 507b dabe d403 a63e 6209 613e 9a10 4abf
00000060: fc79 b8be f14d b6bf 129c 1abe 4359 9fbd
00000070: 87d8 833f f945 663d 1465 8fbf 855d 15bf
00000080: c16e b0be e9af 353e e4c0 69be 3693 99bc
00000090: 2d4f a3bf 061a 2abe c5b4 8a3d 2d45 9cbf
000000a0: c211 c9bd d62e 53bf dc34 213e 3b9f 343f
000000b0: 51b5 773f cba8 46be 20be ffbc c2cc 20bf
000000c0: a061 80be 818f 82bf ad28 babf 8ff3 a0bf
000000d0: 13b2 083f e521 2cbc 184b 4cbe 8530 1e3d
000000e0: 4cc6 eebe 8c65 f63e cf8a 33be c7f2 13bf
000000f0: 0b65 39bc c0ef b43e da54 853e 35d6 843e
00000100: c396 95bf 2e9c 2b3d 94d3 a33e f40b dcbd
00000110: 0e2e a9bd 6664 a5be fe94 793e 193d d9bf
00000120: 08fc eabe 49bb 673d 71fd 63bf 03f1 4cbe
00000130: 703d ef3e 3619 003f b9d3 9fbc ec39 843d
00000140: c08d e5be 25bc 423d c00b c1bd bba5 973d
00000150: d89e fc3c b32f 22bf da4d 2f3e f929 1cbf
00000160: 5190 6fbe 5771 223e 2e46 f5be f09a 7bbe
00000170: 56b7 843e 866e 2f3f cd6b 36bf 0dbf 94be
00000180: 18d2 d93d 65e7 a13c 9fb2 a9be bc2b 483d
00000190: 7bd1 413c cd89 d0bc ce36 abbd d594 863d
000001a0: 6149 09bd ddb2 8c3e 426d 12bf 4bf2 813e
000001b0: fb4c b3bd 680e adbf 653c bfbe 59d9 e2be
000001c0: fce5 22be e4ab 16be c603 d03c b9aa bb3b
000001d0: 18dc cd3c ca42 10bf ec1e bbbd 0a09 f4be
000001e0: 4e70 10be 157d 893e e562 95bf e8b7 e43e
000001f0: 79a3 92be ee01 babd c8d9 e43d cfbb 73be
00000200: 5629 52be 2ca0 c83e 32f9 723e e356 9cbf
00000210: 6416 e1bb 5490 963d b2ef 2d3d 4207 24bf
00000220: 0d1e 0c3e 5224 8b3e 2fb5 a13d 6233 a5be
00000230: 2eb7 c13d 866e ed3e a09a a9be 8c59 b33d
00000240: 9c72 623e e87d a8bc dacc 42be 0535 0dbf
00000250: 0d2c 05bf 54a1 aebf b039 16bc 0586 733c
00000260: c9cd 863b 714c 2e3d 3fb0 dd3e 21b7 1e3d
00000270: da30 2abd aa0f 9a3e b44f 483f 310d 08be
00000280: b0b0 bb3a 99dc 023f af4c e8be 2ce2 003f
00000290: 29c3 37be 1ebb 2b3d b69a c3bd 3f73 58be
000002a0: 6c28 153d ac5c cebe 7472 54be 8cbe 823e
000002b0: 266b 0ebf 9653 babd c446 cebe aa90 34bf
000002c0: 1146 a63e b503 65be 9295 20be 348c 723f
000002d0: 9648 783d f852 82bc 0885 e13d 57cf d9be
000002e0: 28da e8bd 10aa 03bf 7f70 1cbe 0790 d6be
000002f0: 97a2 30c0 4f05 06bf c758 01c0 fdde 4ec0
00000300: 97f7 4f3e 3af2 0ebf 8d89 a5bf 0855 70bd
00000310: 6d1b a63d 2112 b83d b676 3a3d 0ea2 0f3e
00000320: d8a1 51bd b4d3 cd3e 3eb5 9d3d e6f6 babe
00000330: efb3 84bd 93c0 ae3d ace8 1c3d 65ed f7bd
00000340: 0c29 3f3d 9fc7 27bf 2120 b638 7fc9 87bd
00000350: 02ad 843e 6458 8a3e 0732 76bf 3e72 19bd
00000360: fe9b f8bd cd69 553e 419b 3f3d 21ba ca3e
00000370: ece5 e9bd dc26 31be 9dc7 d63e 66c4 57bd
00000380: f907 a9be 136d c6be e0f3 3c3d 0074 00bf
00000390: 58ab 0fbe a391 f73c a0c3 42be 7a6e b8bd
000003a0: e03a 843d c3ce 93bd 3184 e1bc 86d0 2fbe
000003b0: 3a1e 5ebe ae32 04be dbcf 55be 3c09 48bc
000003c0: 5560 453d 3b03 e83d 62e6 b23d 930a 6c3e
000003d0: 0754 edbd 591b 423f eb1b 6e3f 4cf6 16be
000003e0: 842b 9e3f ef44 063f 7b90 afbc 89c3 89be
000003f0: 3690 823e cc5e 3a3e 5a40 0cbe 523d 113f
0.11114542 0.001540894 0.7179641 0.20690097 -0.13585234 0.48989108 -0.10601619 0.055411633
-0.30963197 -0.5758561 -1.0636481 -0.09515607 -0.0018607507 0.068821296 0.00029214233 0.17400779
0.02669853 0.5320903 -0.05845236 0.020752832 -0.42672205 0.32424796 0.21976236 -0.7893158
-0.36030567 -1.4242536 -0.15098599 -0.07780697 1.0300454 0.056219075 -1.1202722 -0.58345824
-0.344595 0.17742886 -0.22827488 -0.018746953 -1.2758538 -0.1661149 0.0677276 -1.2208611
-0.0981784 -0.8249334 0.1574282 0.70555466 0.9676104 -0.19400327 -0.031218588 -0.62812436
-0.25074482 -1.0200044 -1.4543663 -1.2574328 0.5339672 -0.010506128 -0.19950521 0.03862049
-0.46635664 0.4812435 -0.1753342 -0.57792324 -0.011315594 0.35339165 0.260413 0.25944677
-1.1686634 0.04189699 0.3199736 -0.107444674 -0.08260737 -0.3230316 0.24373242 -1.697177
-0.4589541 0.056575093 -0.89058596 -0.20013814 0.4672656 0.5003847 -0.019510137 0.0645636
-0.4483471 0.04754271 -0.09426069 0.074046575 0.030837461 -0.63354033 0.17119542 -0.61001545
-0.23394896 0.15863548 -0.47905105 -0.24570823 0.25921124 0.6852802 -0.7125824 -0.2905201
0.10635775 0.019763658 -0.3314409 0.048869833 0.011829729 -0.025456334 -0.083600625 0.06571356
-0.033517245 0.27480212 -0.57197964 0.25380167 -0.08754917 -1.3520021 -0.37350765 -0.44306448
-0.15908045 -0.14714009 0.025392424 0.005727139 0.025129363 -0.5635191 -0.09136757 -0.47663146
-0.14105341 0.26853243 -1.1670805 0.4467156 -0.28640345 -0.09082399 0.11174351 -0.23802112
-0.20523581 0.391847 0.23727873 -1.2214016 -0.0068691242 0.07351747 0.04246492 -0.64073575
0.13683338 0.27176148 0.07895886 -0.32265764 0.09458767 0.46373385 -0.33125782 0.08757314
0.22114033 -0.02056785 -0.19023457 -0.55159026 -0.5202034 -1.3642983 -0.009169027 0.014863496
0.004113887 0.04255337 0.43298528 0.038748864 -0.041550495 0.30090076 0.7824662 -0.13286282
0.0014319625 0.51117855 -0.45371005 0.5034511 -0.17945541 0.041926496 -0.09550993 -0.21137713
0.036415502 -0.40305078 -0.20746785 0.25536 -0.55632246 -0.09097974 -0.40288365 -0.7053324
0.3247533 -0.22364695 -0.15682057 0.94745183 0.0606161 -0.015908703 0.11011702 -0.42541
-0.11369735 -0.5143137 -0.15277289 -0.4190676 -2.7599237 -0.5235185 -2.0210435 -3.2323601
0.20309292 -0.5583836 -1.2932602 -0.058674842 0.081107 0.08987833 0.045523368 0.14026663
-0.051179737 0.4020058 0.07700585 -0.36516494 -0.06479632 0.08532824 0.03830783 -0.12105826
0.046670005 -0.6553897 8.684421e-05 -0.06630229 0.25913244 0.27020562 -0.96170086 -0.037462465
-0.12139128 0.20841141 0.04677892 0.3959513 -0.11420807 -0.1729998 0.41949168 -0.052677535
-0.33013895 -0.38755092 0.046131015 -0.50177 -0.14030206 0.030220812 -0.19019938 -0.09005447
0.06456542 -0.07217171 -0.027528854 -0.17169389 -0.21691218 -0.12909958 -0.20880072 -0.012209233
0.048187573 0.11328741 0.08735348 0.23050909 -0.115882926 0.7582298 0.9301135 -0.14742392
1.235703 0.52448934 -0.021431198 -0.26906994 0.2550065 0.18200225 -0.13696423 0.5673419

conv_layers.3.bias f4 [64]
00000000: 4468 b9bb 47b4 2ebd 35b3 593b ac86 483e
00000010: 5ef1 b43d 28fb 24bd 58e4 233d 641f d1bd
00000020: fe76 c03b 1ab8 b33c 0f23 44be 9226 18be
00000030: e95e 3bbc 2f44 dabd 83b5 f7bd 5031 31bf
00000040: 425c e8be 726c 8abd 073a 403d 7caa aa3b
00000050: e2d4 57bd 7637 f9bb 5ad6 b3be 2be0 203d
00000060: d7f8 6b3e 7e3a 453e c0be 993d 1fde 98be
00000070: de00 f0be 2ede 413d 7b0e bf3d 7106 be3e
00000080: 8948 9e3e 2d48 663d 4c78 443e 411b 343d
00000090: ae60 043e 418c 28be c451 1a3e 6455 053e
000000a0: efb8 37bc f738 cebe 060c 09be 6f01 1cbd
000000b0: 955d 15be 62fd 46bc 3c33 0bbf 5a82 77bf
000000c0: 7714 483e 55d2 9dbd 9c7d eb3e 09e8 c7bd
000000d0: f323 c1be 0f25 09bd c0a6 d03d 895f 0f3d
000000e0: 094c a1be 4059 9c3b b647 00bd 2f84 87bd
000000f0: 1d5b 7c3e 9558 72bc 0d12 043d 5e6a 69be
-0.0056581814 -0.042652395 0.0033218388 0.19582623 0.088351 -0.040278584 0.040012687 -0.102110654
0.00587356 0.021938372 -0.19153999 -0.14858463 -0.011436203 -0.10657536 -0.120951675 -0.6921587
-0.45382887 -0.067589656 0.04693034 0.0052083116 -0.052693255 -0.0076054884 -0.35124475 0.039276283
0.23044144 0.19260594 0.07507086 -0.29856965 -0.46875662 0.047331028 0.09328934 0.3711429
0.30914715 0.056221176 0.19186515 0.043971304 0.12927505 -0.16459753 0.15070254 0.13020855
-0.011213525 -0.40277836 -0.13383493 -0.038087305 -0.1458648 -0.012145372 -0.5437505 -0.96683276
0.19539057 -0.07706133 0.4599427 -0.09761054 -0.3772274 -0.033482607 0.10188055 0.03500322
-0.31503323 0.0047713816 -0.03131839 -0.06617009 0.24644132 -0.014791627 0.032243777 -0.22794482

conv_layers.4.weight f4 [128, 64, 3]
00000000: dbfa 61bd 41bc 17be f227 ecbc 024b 42bd
00000010: e160 20be 6e7f 18be 2936 9b3d fe66 31be
00000020: 8db1 16be fb8a 1b3d c100 e4bd 3f7d 53be
00000030: 5c6a 183d efe3 12bd 1c97 92bd a010 b13c
00000040: c4a8 13bd c9a0 26bd 3e80 bcbd 3935 cdbd
00000050: 097f 45be 3512 61bd c6fa 67bd 8199 1a3b
00000060: 09b2 fbbd a2cc f0bd 287d 8ebe f17e c9bc
00000070: 1c66 e0bd 5659 c2bd b267 233d a4ca 0cbe
00000080: 53e2 633c a477 07be 4d62 3abe e8c0 86bd
00000090: 35ce 45bd 3c65 e6bd 085a 40bd ea1b 34bb
000000a0: 95c6 553b 708a b23d 74bb 6cbd 3501 98bd
000000b0: e095 e0bd fb44 0b3d 3974 b3bd 21b2 863d
000000c0: 0802 40bc 9bd4 7dbd 873d 86bb b709 ab3e
000000d0: 8976 e2bd ca62 a83c 2641 793c af5a aabd
000000e0: 5dac 22be 1ec4 cabd 17e2 87bd a8dd 1ebc
000000f0: 3b5a 2abd cd3d b9bd a6c6 dfbd a40f 71bd
00000100: 5ae0 33be e305 19bd 9a92 08bd 6004 85bd
00000110: 944f ccbd 239b 95bc 7004 bcbd bef4 29be
00000120: 530b 2c3c db96 0dbe d8de adbd dd67 bbbc
00000130: 1208 87bd 6a8c eabc bd83 1dbd 5651 3bbd
00000140: 5d2d 5bbd c049 393d f90d dbbd dd17 703a
00000150: 0216 74bd 84b4 13bd 48c5 05bd 2008 183d
00000160: 927e febd 05f2 2fbd 5f62 91bd 328a 14be
00000170: c998 34bc 774c 933c 14c4 cbbd 41a1 bebd
00000180: b438 e2bb 8687 00be 441d 2bbe 321d 59bd
00000190: 1a0a 28bd 834a edbd e93b 933d 79e9 08be
000001a0: 46f8 90bd a4a8 b6bd 5efe 71be 88b1 16be
000001b0: 919b 91bd ef86 abbc 0b44 3bbe 8a2c 11be
000001c0: be0e 47be 9534 463b 1fff bfbd 461a 1cbe
000001d0: 718e 21be 05a6 833d cb86 4cbe d13a 48bd
000001e0: 1aec 6ebc c41b b0bd 3c6f 19bb a1a5 163e
000001f0: f372 6abc 85e3 52bd 3d84 103d ce51 5ebd
00000200: beef 60bd e182 70bd bd77 0cbe 0f98 a5bd
00000210: 0678 453d 27a8 113d a0d3 cdbd 082c 0f3d
00000220: 520d e9bd 7361 19bd 3c66 063e 9d7c 1e3d
00000230: b89c 613e 9f8c b7bd 1745 02be ac5b 7abd
00000240: a4e3 303e 652f 743d d03f 24bd 1727 123d
00000250: 7662 9abd 0df6 cabd 6749 ae3d a0a2 17be
00000260: afe7 b5bd c773 77bd e508 08be 08b9 ae3c
00000270: da6d f63d c959 e9bd e4ab d1bd d916 cf3d
00000280: c518 81bc 655f c4bc 6c7c a5bb 023d 5abd
00000290: 79fd ccbd 2be1 98bd e709 8ebc 58ce 3dbe
000002a0: bff9 b83d 87e0 9dbd 324b 76bd 03e0 343d
000002b0: b3fd 36bd ee8d a9bd 96a1 7fbc 1581 593c
000002c0: 44f1 43bc e88f 4abb 022a 59bd 22d5 50be
000002d0: ed90 dbbc 6e64 5abe 3185 0ebd dbca 943d
000002e0: 297c 68bd 1c01 d1bd a8c6 adbc af13 06be
000002f0: c981 813c 72cb c9bd 2b6f 9abd bde3 23be
00000300: 829b 073a 560e 92be b463 163d 55f2 613b
00000310: 65ef 5abc fb90 4bbd abc9 d9bc 6965 37bd
00000320: f343 9abc 2aab e83c fe16 62b9 05b2 6cbd
00000330: f3d0 b0bc d4eb 90bd ddea 58be afec 84bb
00000340: f543 773c 7876 2f3a 29dd 903d 26e9 043b
00000350: c112 313d e397 03bc 8e91 0d3c f091 aabb
00000360: 5da6 2bbc 3690 46bc adc3 513c 84ae c8bc
00000370: 4614 be3a efca 5d3d c3f8 9cba 1bb0 d13c
00000380: 02d5 35bb a6f4 7b3d d57c 91bc ec3d 28be
00000390: b630 133c 9368 2b3b 43e5 d7be f3fb 22bc
000003a0: 092c 25bd 142f 4a3d 5b4a 03bd 4664 783b
000003b0: b752 b9bb 130d 88be 9872 3e3d 4ee5 bd3d
000003c0: 3a8d 7abd 0c07 8ebc 146f a03c e86e 2bbd
000003d0: 9693 aabc e042 ad3c 0481 2d3c 90b5 16bc
000003e0: ae34 a8bc a10a 01bc 6a13 88bb 02d1 0240
000003f0: d92f 11bc bbab 23be 472c 353f bf81 8ebc
-0.055170875 -0.14817907 -0.028827641 -0.047434814 -0.15661956 -0.1489236 0.075786896 -0.17324445
-0.14716168 0.03797434 -0.11132956 -0.20653246 0.037210807 -0.035861906 -0.07157728 0.021614373
-0.03604962 -0.04068068 -0.09204148 -0.10019917 -0.19286741 -0.054949004 -0.05663564 0.002359003
-0.12289817 -0.117577806 -0.27829862 -0.024596663 -0.10956976 -0.09489696 0.039893813 -0.13749176
0.01390894 -0.13229233 -0.18201561 -0.06579763 -0.048292357 -0.11249778 -0.04696086 -0.0027482458
0.0032619585 0.08717811 -0.057795957 -0.07422105 -0.109660864 0.03400133 -0.08762402 0.06576944
-0.011719234 -0.061970335 -0.00409669 0.3340585 -0.11057765 0.020554919 0.0152132865 -0.08318078
-0.15886064 -0.09900688 -0.0663492 -0.009696402 -0.041589957 -0.09044991 -0.10926561 -0.058852807
-0.17566052 -0.03735913 -0.033342935 -0.06494975 -0.09976116 -0.018262452 -0.09180534 -0.16597268
0.010500747 -0.13827078 -0.0848977 -0.022876674 -0.06593336 -0.028631408 -0.038455714 -0.045731865
-0.05351006 0.04523635 -0.106960244 0.00091588293 -0.0595913 -0.036060825 -0.032658845 0.037117124
-0.12426485 -0.042955417 -0.07098841 -0.14505842 -0.011022755 0.017980797 -0.09949508 -0.093081005
-0.006903732 -0.12551698 -0.16710383 -0.05300636 -0.04102526 -0.115864776 0.07189161 -0.13370313
-0.070786044 -0.089188844 -0.2363219 -0.1471616 -0.0710975 -0.020938365 -0.18287675 -0.14177147
-0.19439217 0.0030243744 -0.09374832 -0.15244398 -0.15776993 0.0642815 -0.19973294 -0.048884217
-0.014582658 -0.08599046 -0.0023412248 0.1471162 -0.014309633 -0.05148651 0.035282362 -0.054277234
-0.054916136 -0.058718566 -0.13717552 -0.080856435 0.048210166 0.035560753 -0.1005013 0.0349541
-0.11379494 -0.03744645 0.13124937 0.03869306 0.2203244 -0.08962368 -0.12721668 -0.06112258
0.17274338 0.05961551 -0.04009992 0.03568181 -0.07538311 -0.09910212 0.08510094 -0.1480813
-0.08882081 -0.06041315 -0.13284643 0.021328464 0.12032671 -0.11394078 -0.10237864 0.1011178
-0.015758881 -0.023971269 -0.0050502326 -0.053280838 -0.100092836 -0.074648224 -0.017338706 -0.18535745
0.0903201 -0.07708841 -0.060130306 0.044158947 -0.04467554 -0.08279024 -0.01560249 0.013275404
-0.011959378 -0.0030908529 -0.053018577 -0.20393804 -0.026802504 -0.21327373 -0.03479499 0.07265254
-0.056759033 -0.1020529 -0.02121289 -0.13093446 0.015808957 -0.09853257 -0.07540735 -0.16004844
0.0005173014 -0.28526562 0.036716178 0.0034476717 -0.01336274 -0.04969881 -0.02658542 -0.044774447
-0.018831229 0.02840193 -0.00021561605 -0.05778696 -0.02158401 -0.07076231 -0.21183343 -0.004056535
0.015091886 0.00066933734 0.07073433 0.002028057 0.043230776 -0.008031818 0.00864066 -0.0052053854
-0.010476676 -0.0121193435 0.012803 -0.024497278 0.0014501892 0.05414861 -0.0011975992 0.025596669
-0.002774537 0.06151261 -0.01775972 -0.16429871 0.008983782 0.002615486 -0.421671 -0.009947765
-0.0403252 0.049361303 -0.032053333 0.0037901565 -0.0056556123 -0.26572475 0.046496004 0.09272252
-0.06116984 -0.017337345 0.019584216 -0.041853815 -0.020822328 0.021150053 0.010589842 -0.009198561
-0.020532932 -0.007876069 -0.004152705 2.0440068 -0.008861505 -0.15983479 0.70770687 -0.017395852

conv_layers.4.bias f4 [128]
00000000: 1448 93be c8c4 8f3c e54d a5bb 461e 11bb
00000010: fc6d 75be 8464 e4bd 1664 a9be 6c4c a7bd
00000020: c77f 71bd caaf 1fbe 1b2f 573d 660c f1bb
00000030: ecfc 533e efb9 1d3e f3eb 04bf 8bb8 ecbd
00000040: cec0 00be 992b 87bc b52e 91be b0b8 abbd
00000050: 8f13 87bd 110d cf3e 012e a3bd 9070 98bb
00000060: e433 5dbd e8a2 7ebd ed68 91bd ce40 58bd
00000070: 0738 cc3c b2f4 97bd bea2 ebbd 7d62 a53e
00000080: ba92 adbd 9906 b8bd 6d45 47bd f7f4 a9c0
00000090: 97f7 58bc 9096 44be 8a4a d1bd f954 0abf
000000a0: aa66 d1bb f7ba 76bd c7a9 3fbc 3a18 38bd
000000b0: 5acd d5bd 48be 94bd 3e16 22bd cff4 20bd
000000c0: e92c 73bd a374 6fbe da48 f33d 9edf bbbd
000000d0: 05fb 75bd 1710 523c 6d0c fdbd 26d1 86bd
000000e0: af15 b5bd f70b 263e a00d 40bd 2b59 02bc
000000f0: dfea a2bd 2800 7ebd 78f4 b13b 1772 54be
00000100: ce34 93bd cda2 babc b35b f53d e506 d8be
00000110: b140 94be fc2f 65be 80a6 44be ad43 1bbe
00000120: 471d 81bc 10d6 843d 1ac4 aebd 7207 c8bd
00000130: 75a7 73bd 829a ab3e c626 3cbe 86dd b93e
00000140: c62e 1ebe 7da0 093e bca4 d0bd 2554 983b
00000150: 7471 5c3e b50a eabf afe0 19bf d368 273e
00000160: c5c0 c4bd 0002 693d a2d4 14bd f2e1 f83d
00000170: 5822 f5bd 8055 d83c 82de f5bd 50d5 c3bd
00000180: 821a a2bc a2e7 a3bd 34f9 22be b15b 84be
00000190: 903f 80bc 03a6 87be f43e 40bd d191 0bbf
000001a0: 8e1d 833e ffbc 68bd 0d36 77bc 2b74 36b9
000001b0: 3779 9dbe 618c 1cbd ce81 e9be 2af7 6d3e
000001c0: a66c 073e d782 413e e187 0fbe 7c1b 113e
000001d0: e8fe d1bd 4963 653d 09a6 5c3e 11b9 89bd
000001e0: 5514 10bd 4311 8abe 45c5 adbc 02e0 17be
000001f0: 6fdd 5abb 06c6 5abd f8e5 d93c 2348 36be
-0.2876593 0.017549887 -0.005044686 -0.0022143289 -0.23967737 -0.11151984 -0.33084172 -0.08168873
-0.05895975 -0.15594402 0.052535158 -0.0073562143 0.20701951 0.1540296 -0.5192253 -0.11558636
-0.12573549 -0.016500281 -0.28355947 -0.08384836 -0.065955274 0.40439656 -0.07967759 -0.0046520904
-0.054004565 -0.06216708 -0.07100091 -0.052796178 0.02492906 -0.07419719 -0.1150565 0.32301703
-0.084752515 -0.089856334 -0.048650194 -5.311153 -0.013242624 -0.1919806 -0.10219295 -0.5403591
-0.0063904123 -0.060236897 -0.011698193 -0.04494498 -0.10439558 -0.07262856 -0.039571993 -0.039295968
-0.059369 -0.23384337 0.1187913 -0.09173511 -0.060053844 0.012821219 -0.12355886 -0.06582861
-0.088420264 0.16215502 -0.046887994 -0.00795583 -0.07954954 -0.062011868 0.0054307543 -0.20746647
-0.07187806 -0.022782708 0.11980381 -0.4219276 -0.28955606 -0.22381586 -0.1920414 -0.15162535
-0.01576103 0.06486142 -0.08533497 -0.09767045 -0.05948587 0.33516318 -0.18374166 0.3630182
-0.1544753 0.13440128 -0.101876706 0.0046487027 0.21527654 -1.8284518 -0.60108465 0.16348581
-0.0960708 0.056886673 -0.036335595 0.12152471 -0.11969441 0.026407957 -0.120053306 -0.095621705
-0.01978803 -0.08003165 -0.15915376 -0.25851205 -0.015655309 -0.26493844 -0.046935037 -0.54519373
0.25608486 -0.056820866 -0.01508857 -0.00017400148 -0.30756542 -0.038219813 -0.45606846 0.23238817
0.1322504 0.18897568 -0.14016677 0.1417064 -0.10253698 0.05600289 0.21547712 -0.06724752
-0.03517564 -0.26966295 -0.02121223 -0.14831546 -0.0033396145 -0.053411506 0.026598915 -0.17800955
