results/Elemental_Mapping/models/FCNplus_testOdigitria.pt (torch, 378966 bytes, 10 tensors)

layers.0.w f4 [12, 4096]
1.1196017e-05 1.1921968e-05 1.2689048e-05 1.3499168e-05 1.4354296e-05 1.5256461e-05 1.6207756e-05 1.721033e-05
1.8266393e-05 1.9378222e-05 2.0548143e-05 2.1778544e-05 2.3071874e-05 2.4430634e-05 2.5857384e-05 2.735473e-05
2.8925338e-05 3.057192e-05 3.229723e-05 3.410408e-05 3.599531e-05 3.79738e-05 4.0042483e-05 4.220431e-05
4.4462253e-05 4.681933e-05 4.927856e-05 5.1842988e-05 5.451567e-05 5.7299665e-05 6.019804e-05 6.321384e-05
6.635011e-05 6.9609894e-05 7.2996176e-05 7.651195e-05 8.0160135e-05 8.394363e-05 8.786529e-05 9.192788e-05
9.613413e-05 0.000100486664 0.00010498805 0.00010964076 0.00011444715 0.00011940948 0.00012452989 0.00012981039
0.00013525285 0.00014085902 0.00014663047 0.00015256861 0.00015867468 0.00016494977 0.00017139473 0.00017801025
0.00018479677 0.00019175456 0.00019888363 0.0002061838 0.0002136546 0.00022129533 0.00022910503 0.00023708251
0.00024522626 0.0002535345 0.00026200523 0.00027063605 0.00027942436 0.00028836724 0.00029746143 0.00030670344
0.0003160894 0.00032561517 0.0003352763 0.00034506802 0.00035498533 0.00036502292 0.00037517524 0.0003854366
0.00039580127 0.00040626343 0.00041681764 0.0004274589 0.00043818308 0.00044898747 0.00045987117 0.000470836
0.00048188714 0.0004930339 0.0005042904 0.0005156761 0.00052721595 0.0005389397 0.0005508813 0.0005630766
0.00057556067 0.0005883649 0.0006015128 0.00061501603 0.0006288707 0.00064305443 0.0006575245 0.0006722179
0.0006870527 0.00070193154 0.0007167464 0.0007313847 0.0007457357 0.0007596967 0.0007731783 0.0007861084
0.0007984346 0.000810125 0.0008211668 0.00083156384 0.0008413337 0.0008505036 0.0008591066 0.0008671784
0.00087475404 0.00088186614 0.0008885433 0.0008948093 0.00090068305 0.0009061787 0.0009113062 0.00091607193
0.0009204794 0.00092453 0.0009282233 0.00093155797 0.00093453174 0.000937142 0.0009393861 0.0009412612
0.0009427648 0.0009438946 0.00094464887 0.0009450265 0.0009450271 0.00094465114 0.00094390026 0.0009427773
0.0009412864 0.0009394332 0.00093722466 0.00093466963 0.0009317782 0.000928562 0.00092503405 0.0009212083
0.0009170996 0.00091272354 0.00090809574 0.00090323185 0.0008981469 0.0008928552 0.00088736985 0.00088170235
0.0008758622 0.0008698571 0.0008636923 0.00085737096 0.0008508939 0.00084426 0.0008374664 0.00083050894
0.0008233825 0.0008160818 0.0008086013 0.00080093637 0.0007930832 0.0007850394 0.00077680434 0.00076837925
0.00075976737 0.0007509741 0.0007420071 0.0007328759 0.00072359195 0.0007141686 0.0007046206 0.000694964
0.0006852158 0.0006753935 0.00066551485 0.0006555976 0.0006456589 0.0006357152 0.000625782 0.00061587355
0.0006060028 0.0005961814 0.00058641937 0.00057672575 0.0005671082 0.0005575734 0.00054812705 0.0005387742
0.00052951917 0.0005203659 0.0005113181 0.0005023791 0.00049355207 0.0004848401 0.00047624615 0.00046777306
0.00045942352 0.00045120006 0.00044310506 0.00043514057 0.00042730838 0.00041960974 0.00041204548 0.0004046157
0.0003973196 0.00039015536 0.0003831196 0.0003762075 0.00036941218 0.00036272462 0.00035613342 0.0003496248
0.00034318294 0.0003367902 0.0003304281 0.0003240783 0.00031772407 0.00031135176 0.00030495226 0.0002985228
0.00029206777 0.00028559982 0.0002791397 0.00027271613 0.00026636466 0.00026012605 0.00025404317 0.00024815754
0.00024251439 0.00023713904 0.00023206626 0.00022730285 0.00022284222 0.00021866876 0.00021476112 0.0002110893
0.00020810767 0.00020493429 0.00020189598 0.00019896786 0.00019612895 0.00019336467 0.00019066637 0.00018804315
00000000: 87d6 3b37 7604 4837 0ce3 5437 7c7a 6237
00000010: 3bd3 7037 00f6 7f37 e4f5 8737 e75e 9037
00000020: c83a 9937 6a8e a237 cd5e ac37 11b1 b637
00000030: 798a c137 63f0 cc37 4fe8 d837 d677 e537
00000040: b1a4 f237 593a 0038 e376 0738 fa0a 0f38
00000050: abf9 1638 0f46 1f38 4af3 2738 8804 3138
00000060: fb7c 3a38 df5f 4438 73b0 4e38 fc71 5938
00000070: c1a7 6438 0c55 7038 277d 7c38 ac91 8438
00000080: 7225 8b38 87fb 9138 8615 9938 0a75 a038
00000090: a51b a838 e50a b038 5244 b838 68c9 c038
000000a0: 9e9b c938 5ebc d238 082d dc38 efee e538
000000b0: 5903 f038 7a6b fa38 3d94 0239 b61d 0839
000000c0: a9d2 0d39 8eb3 1339 d1c0 1939 d3fa 1f39
000000d0: e961 2639 5ef6 2c39 6cb8 3339 43a8 3a39
000000e0: 01c6 4139 b911 4939 6b8b 5039 0b33 5839
000000f0: 7808 6039 830b 6839 ea3b 7039 5a99 7839
00000100: b691 8039 d3ec 8439 bf5d 8939 28e4 8d39
00000110: b47f 9239 ff2f 9739 99f4 9b39 0acd a039
00000120: cdb8 a539 54b7 aa39 06c8 af39 3fea b439
00000130: 531d ba39 8c60 bf39 2bb3 c439 6d14 ca39
00000140: 8c83 cf39 c1ff d439 5188 da39 901c e039
00000150: f0bb e539 1466 eb39 dd1a f139 8ada f639
00000160: cca5 fc39 f23e 013a 5b32 043a 702e 073a
00000170: dd34 0a3a a247 0d3a 0569 103a 6e9b 133a
00000180: 39e1 163a 803c 1a3a d7ae 1d3a 0739 213a
00000190: ccda 243a a792 283a b95d 2c3a c837 303a
000001a0: 541b 343a d401 383a 09e4 3b3a 65ba 3f3a
000001b0: 7a7d 433a 6226 473a 1eaf 4a3a d712 4e3a
000001c0: 0a4e 513a 925e 543a 9243 573a 4efd 593a
000001d0: f38c 5c3a 55f4 5e3a ab35 613a 5b53 633a
000001e0: c04f 653a 092d 673a 22ed 683a a391 6a3a
000001f0: d11b 6c3a a08c 6d3a b9e4 6e3a 8c24 703a
00000200: 544c 713a 285c 723a 0354 733a cc33 743a
00000210: 5dfb 743a 89aa 753a 2241 763a f8be 763a
00000220: e023 773a b26f 773a 50a2 773a a8bb 773a
00000230: b2bb 773a 77a2 773a 1370 773a b724 773a
00000240: a9c0 763a 4b44 763a 15b0 753a 9e04 753a
00000250: 9442 743a be6a 733a fc7d 723a 3e7d 713a
00000260: 8369 703a d743 6f3a 460d 6e3a ddc6 6c3a
00000270: 9e71 6b3a 800e 6a3a 629e 683a 0b22 673a
00000280: 1e9a 653a 1f07 643a 6969 623a 31c1 603a
00000290: 860e 5f3a 5451 5d3a 6b89 5b3a 83b6 593a
000002a0: 44d8 573a 53ee 553a 51f8 533a eef5 513a
000002b0: eae6 4f3a 1acb 4d3a 75a2 4b3a 0f6d 493a
000002c0: 202b 473a 05dd 443a 4183 423a 781e 403a
000002d0: 6faf 3d3a 0b37 3b3a 4ab6 383a 3f2e 363a
000002e0: 0ea0 333a e40c 313a f275 2e3a 69dc 2b3a
000002f0: 6f41 293a 20a6 263a 850b 243a 9372 213a
00000300: 29dc 1e3a 0e49 1c3a f0b9 193a 692f 173a
00000310: fda9 143a 1e2a 123a 2fb0 0f3a 863c 0d3a
00000320: 6ecf 0a3a 2a69 083a fa09 063a 17b2 033a
00000330: b861 013a 2332 fe39 adb0 f939 703f f539
00000340: c8de f039 0c8f ec39 8e50 e839 9423 e439
00000350: 5c08 e039 11ff db39 cf07 d839 9a22 d439
00000360: 564f d039 c48d cc39 71dd c839 b73d c539
00000370: aaad c139 132c be39 6bb7 ba39 d94d b739
00000380: 3ced b339 3793 b039 4f3d ad39 0ee9 a939
00000390: 3494 a639 ed3c a339 00e2 9f39 0d83 9c39
000003a0: ac20 9939 8fbc 9539 7f59 9239 57fb 8e39
000003b0: dca6 8b39 8761 8839 1931 8539 241b 8239
000003c0: 764b 7e39 87a8 7839 d056 7339 2558 6e39
000003d0: c1aa 6939 734a 6539 8031 6139 da57 5d39
000003e0: 7a37 5a39 a1e3 5639 0ab4 5339 07a2 5039
000003f0: f7a7 4d39 efc1 4a39 9ded 4739 732d 4539

layers.1.weight f4 [512, 12]
0.041932836 0.041803986 0.51329684 -0.30329344 0.17849533 -9.745656 0.0018499474 0.6289993
-0.62909085 0.072559424 -1.4149623 0.7969123 -0.13697822 0.24554315 0.07008421 -0.2525613
-0.07018106 -1.9390156 0.025593778 -0.09166748 -0.009626599 -0.14170702 0.5186532 -1.820802
-0.18692265 -0.47994763 0.060635865 0.053157393 -0.38171014 0.121404074 -0.060534593 -0.73677486
0.01492534 -0.34476832 -0.59328055 0.5097752 0.01714639 -0.1490213 -0.0037142353 0.007509285
-0.10054972 -0.40617362 -0.14599603 -0.66192615 -0.0036816897 0.0214958 -0.56125224 -0.9338763
-0.055294145 -0.3012642 0.016867379 0.024349531 -0.10249119 -0.5465987 -0.013196783 -0.68739396
-0.54970104 -0.937188 0.029095992 2.0852947 -0.18048565 -0.15015548 -0.3848169 -0.22009392
-0.18984318 -0.24638183 -0.18687506 0.05709474 -0.08308777 0.081546076 0.46935886 -0.6497607
-0.27772614 0.6106966 -2.6662636 0.010890112 0.11556921 4.5410495 -1.3074833 -2.2155106
-0.6424732 0.31680503 0.5234426 -0.0023423692 -0.02950997 0.057740107 -0.0039457004 -0.102591746
-0.14378801 0.42951044 -0.018117955 -0.3534523 -0.03299293 -0.10888882 -0.33152354 0.39793128
0.07004316 -0.13187392 0.15451229 0.037872113 0.009866371 0.4301728 0.0025924116 1.1172245
-5.4255066 0.505299 0.73115283 -0.096627735 -0.16437005 -0.7029403 -0.49602374 -0.38566986
-0.29790282 0.9454809 -0.054278843 0.8596904 -0.028513426 0.12492493 1.7096407 1.3396387
0.027508987 0.007880733 -0.42194927 -0.4034378 -0.05625219 -0.45599636 -0.45483994 -0.5697105
-0.12914966 -0.018794095 0.12098648 -0.2280387 -0.031683203 -0.23904626 -0.03939578 -0.33716926
-0.16649108 -0.09978632 -0.1718757 -0.19431533 -0.08011971 0.08336921 -0.44434318 -0.45426622
0.025282336 -0.31670928 0.01689576 0.017380748 0.005815103 -0.56777376 0.029171567 -0.7173745
-1.7217492 -0.19812803 -0.03565265 -0.13372754 -0.40463406 -0.35348764 -0.8271281 0.036785964
0.09391388 -0.95944226 -0.19531386 -0.4178896 -0.0029282947 -0.15033868 -0.13101667 -0.38184002
-0.074046545 0.484371 -2.3074863 0.09719534 -0.3826278 -0.05468668 -0.17711072 -1.5355409
-1.3945044 -0.623314 1.9860705 -0.53065634 -0.23857626 -1.0447035 0.062078964 -0.26507527
-0.06518355 -0.24844325 -0.19323589 -0.1994481 -0.0018148894 -0.009182199 -0.22263396 0.12877029
0.14267482 -0.007738544 0.35855305 -4.911949 0.0035734288 0.8238596 0.10283913 0.9789825
0.036421448 0.6116041 0.15862994 1.5695909 -0.15413386 -0.0006526461 -0.59616876 0.079599835
-0.5274099 -0.12429279 -0.5056589 -0.48018685 -0.18327345 -0.31923208 -0.4855351 -0.12207509
-0.0028375445 0.019781647 0.0107378345 0.025847575 -0.011087566 0.37557888 0.02750124 -0.7470345
0.0027664779 -0.28686702 -0.4339851 0.32552937 -0.019152137 -0.109893605 -0.21746306 -0.045014203
0.07738184 0.95812464 -0.24310246 0.022339022 -0.24445447 0.06345782 -0.9949564 0.3070782
0.043334607 0.28051284 -0.03941854 -1.1799505 0.058086045 -1.3335828 0.0028291107 -1.3294479
-0.65728605 -0.31497553 0.060100798 0.73768556 -0.23656258 -1.0055296 -3.0358312 -0.4067813
00000000: c4c1 2b3d a83a 2b3d 6c67 033f 4749 9bbe
00000010: 7bc7 363e 35ee 1bc1 ef79 f23a 1906 213f
00000020: 190c 21bf 099a 943d 7c1d b5bf 7202 4c3f
00000030: 0544 0cbe aa6f 7b3e 4f88 8f3d b74f 81be
00000040: 16bb 8fbd aa31 f8bf 0baa d13c 29bc bbbd
00000050: e2b8 1dbc a51b 11be 75c6 043f 0a10 e9bf
00000060: a768 3fbe b2bb f5be 505d 783d 91bb 593d
00000070: 836f c3be b3a2 f83d 1ff3 77bd 479d 3cbf
00000080: 6a89 743c 7985 b0be 3ce1 17bf a180 023f
00000090: 9676 8c3c 0a99 18be 876a 73bb 7310 f63b
000000a0: 03ed cdbd fdf5 cfbe fc7f 15be fe73 29bf
000000b0: 8148 71bb f617 b03c 3aae 0fbf 8412 6fbf
000000c0: 1d7c 62bd 4d3f 9abe 752d 8a3c ab78 c73c
000000d0: e7e6 d1bd e4ed 0bbf 5237 58bc 0df9 2fbf
000000e0: 35b9 0cbf 8eeb 6fbf b85a ee3c 7875 0540
000000f0: 3bd1 38be 5cc2 19be b906 c5be 4d60 61be
00000100: 4066 42be 854b 7cbe 2d5c 3fbe 2ddc 693d
00000110: ec29 aabd a101 a73d ce4f f03e b856 26bf
00000120: 1f32 8ebe 9d56 1c3f 10a4 2ac0 716c 323c
00000130: 8daf ec3d 4750 9140 9d5b a7bf edca 0dc0
00000140: 2079 24bf 4534 a23e 5600 063f 6f82 19bb
00000150: e5be f1bc e480 6c3d ef4a 81bb 9f1b d2bd
00000160: 2a3d 13be cbe8 db3e 1b6c 94bc b3f7 b4be
00000170: 9823 07bd 1a01 dfbd 74bd a9be a6bd cb3e
00000180: ca72 8f3d f509 07be 7838 1e3e ca1f 1b3d
00000190: 8fa6 213c 9c3f dc3e 73e5 293b 3601 8f3f
000001a0: c09d adc0 465b 013f d52c 3b3f c3e4 c5bd
000001b0: 9f50 28be e5f3 33bf d3f6 fdbe 8576 c5be
000001c0: b886 98be 090b 723f 7e53 5ebd ac14 5c3f
000001d0: fd94 e9bc a4d8 ff3d 82d5 da3f 4879 ab3f
000001e0: 875a e13c 311e 013c bc09 d8be 668f cebe
000001f0: b268 66bd 5b78 e9be c8e0 e8be 8cd8 11bf
00000200: cf3f 04be 13f6 99bc c2c7 f73d fa82 69be
00000210: 3fc6 01bd 8bc8 74be 785d 21bd 73a1 acbe
00000220: a37c 2abe c55c ccbd 2f00 30be 99fa 46be
00000230: cd15 a4bd 7abd aa3d f380 e3be 9595 e8be
00000240: e71c cf3c b827 a2be fa68 8a3c 1262 8e3c
00000250: 9f8c be3b 9f59 11bf 36f9 ee3c dba5 37bf
00000260: 4762 dcbf 13e2 4abe 8308 12bd dfef 08be
00000270: 322c cfbe 55fc b4be abbe 53bf e1ac 163d
00000280: ec55 c03d 029e 75bf 5b00 48be a0f5 d5be
00000290: a2e8 3fbb 62f2 19be 3c29 06be 8980 c3be
000002a0: b7a5 97bd 7aff f73e dbad 13c0 5a0e c73d
000002b0: cae7 c3be 24ff 5fbd 835c 35be 9b8c c4bf
000002c0: 1f7f b2bf 8291 1fbf 8f37 fe3f 18d9 07bf
000002d0: 564d 74be d8b8 85bf 8346 7e3d f2b7 87be
000002e0: f47e 85bd e867 7ebe a1df 45be 1f3c 4cbe
000002f0: 95e1 edba ef70 16bc 28fa 63be 5cdc 033e
00000300: 5919 123e 9d93 fdbb 4494 b73e b02e 9dc0
00000310: 3030 6a3b 76e8 523f 529d d23d 999e 7a3f
00000320: a82e 153d 1692 1c3f e36f 223e 5be8 c83f
00000330: 44d5 1dbe 5716 2bba 849e 18bf 3d05 a33d
00000340: 5604 07bf 388d febd dd72 01bf 0ddb f5be
00000350: 09ac 3bbe 6372 a3be 0e98 f8be 8102 fabd
00000360: 19f6 39bb 1f0d a23c beed 2f3c 4bbe d33c
00000370: 9fa8 35bc e04b c03e 484a e13c a73d 3fbf
00000380: cc4d 353b 3ce0 92be 4c33 debe c9ab a63e
00000390: f1e4 9cbc e60f e1bd a3ae 5ebe d060 38bd
000003a0: 5f7a 9e3d a847 753f daef 78be 5300 b73c
000003b0: 4652 7abe 2cf6 813d 76b5 7ebf 5b39 9d3e
000003c0: a17f 313d 619f 8f3e 5675 21bd 9e08 97bf
000003d0: a2eb 6d3d d7b2 aabf 9a68 393b 592b aabf
000003e0: e643 28bf 7944 a1be 412c 763d f6d8 3c3f
000003f0: 763d 72be 32b5 80bf 0f4b 42c0 a345 d0be

layers.1.bias f4 [512]
-2.682076 -1.8835489 -0.12134624 -0.013414788 -0.008270898 -0.002693831 2.6250439 -0.031616386
4.387382 17.1904 -0.11723762 -0.002336341 -0.015654957 -0.0022327243 8.899782 3.994505
-1.4327766 -0.09625725 -0.014551311 -1.5648876 18.478704 -1.2609814 -3.5268672 -0.0016975171
-0.008276306 -0.085048914 -0.005012938 -0.010068275 -0.42256224 -0.0024254255 -0.05578034 -0.8452312
3.0353413 -0.005485252 15.612123 -0.46062046 3.3132656 -0.15986545 1.2507863 -0.0027777904
1.5801018 -0.4123099 -32.33803 -0.46469432 -0.9166001 -3.5119495 -0.36244082 -0.71478254
-0.010885308 -0.0061937044 26.211723 -0.4272936 -0.3454977 -0.75048506 -0.11208227 -1.1871847
-0.2992821 -0.007473701 0.998521 -0.0033460506 -0.0015573804 -0.66172516 -0.002460326 1.0294513
-0.083403446 7.5550933 1.2358638 -0.012054652 -0.07041114 1.4454281 2.291184 1.1667166
-1.5289072 -0.00072357326 0.7521717 -3.4281263 -0.0060688253 3.1678314 -0.29977113 2.4671187
-0.44745344 -0.002645554 -0.32686356 -2.3545878 -0.18531458 -0.15390772 -0.023456924 -0.00010038185
-0.0020387298 -0.000999171 2.1117496 3.5376046 -0.19173786 -0.00016973731 -0.011637568 -0.01286241
-0.00048623793 -0.21283615 -0.36908996 -0.8795996 -0.006569825 -0.00083441776 -0.2490065 -0.7213797
0.64517295 1.178288 -0.79472744 3.2308102 1.5263637 1.6948211 -0.20575237 0.71844095
-0.37983796 2.410878 4.677754 -0.81810695 0.2899226 1.5726978 -0.017950209 2.4444318
-0.1718417 -10.427133 23.266916 -0.14060952 -2.5774841 -0.0017146098 -17.735888 -0.8215796
-5.4130707 12.105477 5.283862 11.432416 -0.0099119665 -0.60266626 6.427714 -0.0548377
-12.569201 1.2640858 1.0340369 -2.0679507 -3.0457454 -0.21528403 -0.0001513956 -5.56559
-0.10174962 -0.0011503304 -0.0038375524 3.3621752 -2.3823204 26.57049 6.78531 -3.8494942
6.532991 -0.02099123 -0.00019548665 -0.76325226 -0.008423364 -0.0005996993 0.8463342 17.341337
-6.642789 -0.53026235 1.8719618 3.5477812 -0.0036009857 -0.012680892 -0.016898997 -0.47903216
-0.006114059 -1.6086849 0.73437005 -0.011782527 2.1577528 -33.653763 -0.005413576 -0.025859464
-0.35991365 -0.11790984 -0.69168067 3.0458229 -0.33720812 -1.0027491 -0.1628957 -7.0635724e-05
-0.4088365 2.652715 -1.912157 -0.0125952205 -0.27219048 -0.008359874 -7.467003 8.741852
1.4243792 -0.35042024 -0.6473311 -0.008153369 -0.0037890135 -0.009869281 -0.0051726787 -0.0007869235
0.29835123 -0.18803369 -0.018287137 -1.8841347 2.036205 -0.0002399343 -1.9957721 -0.06769688
-1.139147 -0.0025913678 27.707218 0.302401 -0.009364268 -4.6110244 -0.55040944 -6.137178
-17.56692 -0.0016345801 -0.5441136 1.1690271 0.42992592 -0.0027243888 1.4826413 -0.009384344
3.3657246 1.8080517 -0.26413217 1.9744006 -4.9574656 11.082998 -7.1340647 1.2857281
4.3685656 -0.0060730386 -0.14913838 -0.0077970773 2.1500175 -0.3851829 -0.0014713828 0.86795497
-0.29721668 -0.22361779 17.199835 -0.0106804045 -0.83621085 -0.9023601 -0.0008144047 -0.0040534143
7.084618 -0.15724115 -0.21398246 -0.6392493 -0.004709074 -0.19326633 -0.003909271 -0.60629565
00000000: 22a7 2bc0 2118 f1bf 6184 f8bd b3c9 5bbc
00000010: a982 07bc fc8a 30bb b800 2840 2f80 01bd
00000020: 6f65 8c40 f085 8941 471a f0bd 4c1d 19bb
00000030: d33e 80bc e652 12bb 8265 0e41 f8a5 7f40
00000040: 3965 b7bf 8522 c5bd 9f68 6ebc 3d4e c8bf
00000050: 63d4 9341 d767 a1bf 31b8 61c0 397f deba
00000060: 5899 07bc 202e aebd 9243 a4bb 68f5 24bc
00000070: 145a d8be e3f3 1ebb ed79 64bd 1261 58bf
00000080: 0843 4240 a1bd b3bb 41cb 7941 72d6 ebbe
00000090: 8b0c 5440 c5b3 23be c419 a03f 970b 36bb
000000a0: c740 ca3f 491a d3be 255a 01c2 6aec edbe
000000b0: 4ea6 6abf c8c3 60c0 d891 b9be fdfb 36bf
000000c0: 4a58 32bc 8ff4 cabb 9cb1 d141 3ac6 dabe
000000d0: 13e5 b0be ca1f 40bf 648b e5bd abf5 97bf
000000e0: 813b 99be f3e5 f4bb 129f 7f3f 6a49 5bbb
000000f0: 0421 ccba d266 29bf 6c3d 21bb 0fc5 833f
00000100: 6dcf aabd 53c3 f140 c930 9e3f e080 45bc
00000110: b733 90bd ca03 b93f c2a2 1240 f856 953f
00000120: 3bb3 c3bf 2eae 3dba 538e 403f 6c66 5bc0
00000130: ffdc c6bb c0bd 4a40 9a7b 99be 46e5 1d40
00000140: 9e18 e5be 0861 2dbb a95a a7be 91b1 16c0
00000150: 1bc3 3dbe fc99 1dbe bc28 c0bc 1884 d2b8
00000160: 369c 05bb 9ef6 82ba e826 0740 1d68 6240
00000170: ee56 44be 83fb 31b9 7fab 3ebc dcbc 52bc
00000180: c0ed feb9 b8f1 59be 5cf9 bcbe 702d 61bf
00000190: b047 d7bb d4bc 5aba 8ffb 7ebe 57ac 38bf
000001a0: 0e2a 253f 24d2 963f 4273 4bbf 98c5 4e40
000001b0: e35f c33f e6ef d83f c0b0 52be bfeb 373f
000001c0: 1f7a c2be d34b 1a40 29b0 9540 756f 51bf
000001d0: bc70 943e 294e c93f 510c 93bc 9271 1c40
000001e0: 45f7 2fbe 89d5 26c1 a522 ba41 f1fb 0fbe
000001f0: 80f5 24c0 c2bc e0ba 19e3 8dc1 0a53 52bf
00000200: e037 adc0 09b0 4141 6615 a940 2deb 3641
00000210: cd65 22bc 5648 1abf d5af cd40 7f9d 60bd
00000220: 731b 49c1 90cd a13f 525b 843f 4e59 04c0
00000230: 7eed 42c0 6b73 5cbe f2bf 1eb9 5019 b2c0
00000240: 1b62 d0bd afc6 96ba 727f 7bbb e12d 5740
00000250: f077 18c0 5d90 d441 4221 d940 1d5e 76c0
00000260: 430e d140 cdf5 abbc 8cfb 4cb9 8064 43bf
00000270: 2602 0abc 2435 1dba 5ca9 583f 0fbb 8a41
00000280: ba91 d4c0 46bf 07bf 729c ef3f d90e 6340
00000290: 84fe 6bbb 84c3 4fbc c46f 8abc b443 f5be
000002a0: 7258 c8bb 63e9 cdbf adff 3b3f 800b 41bc
000002b0: 9f18 0a40 749d 06c2 5e64 b1bb 3ad7 d3bc
000002c0: 9a46 b8be b77a f1bd fc11 31bf c3ee 4240
000002d0: 8ba6 acbe 155a 80bf 21ce 26be 4422 94b8
000002e0: 0553 d1be 15c6 2940 90c1 f4bf 2f5c 4ebc
000002f0: 8d5c 8bbe daf7 08bc b0f1 eec0 a0de 0b41
00000300: 0f52 b63f 486a b3be 7eb7 25bf b595 05bc
00000310: 1951 78bb c4b2 21bc 937f a9bb 8b49 4eba
00000320: 7ec1 983e e78b 40be e8ce 95bc 532b f1bf
00000330: 2f51 0240 e096 7bb9 7675 ffbf a9a4 8abd
00000340: 92cf 91bf f0d3 29bb 62a8 dd41 4ed4 9a3e
00000350: 966c 19bc 838d 93c0 a2e7 0cbf c363 c4c0
00000360: 0d89 8cc1 683f d6ba 074b 0bbf aea2 953f
00000370: 401f dc3e a98b 32bb 31c7 bd3f cbc0 19bc
00000380: 0868 5740 3d6e e73f 553c 87be 29b9 fc3f
00000390: 8fa3 9ec0 f653 3141 424a e4c0 bd92 a43f
000003a0: 4acb 8b40 5700 c7bb bbb7 18be a07e ffbb
000003b0: e399 0940 b136 c5be 6adb c0ba 4c32 5e3f
000003c0: c92c 98be 10fc 64be 4399 8941 ddfc 2ebc
000003d0: ea11 56bf 1201 67bf c67d 55ba 81d2 84bb
000003e0: 31b5 e240 d303 21be 381e 5bbe d8a5 23bf
000003f0: 934e 9abb 9ce7 45be 5819 80bb 3136 1bbf

layers.2.weight f4 [64, 512]
0.059199847 0.16239412 -0.01689147 -0.040833697 0.19595759 -0.044827346 0.15066345 -0.04905473
-0.0406439 -0.43488353 0.036553886 -0.006080653 0.028545553 -0.030154558 0.56556773 -0.26451638
-0.06733549 0.0057138177 -0.031492334 -0.08304783 0.6610909 -0.95807695 0.06364994 0.037240494
-0.023157256 -0.13430578 0.02948844 0.006851063 -0.35847867 -0.022557866 -0.022702513 -0.07647967
1.1685666 0.0011667124 -0.05481375 -0.088612385 0.5208825 -0.04088518 -0.63468564 -0.01931244
-0.16139781 0.040601242 0.08074109 -0.10043978 0.37011445 0.016494965 0.015880704 0.0373698
0.036652848 0.03869248 0.38084152 -0.015501702 -0.053769026 -0.19202743 -0.08433003 0.022729123
0.0025098422 -0.108972095 -0.31278178 -0.16242363 -0.04429294 0.014932633 0.06848746 -0.11134403
-0.1222617 1.0702983 -0.6097683 -0.06742908 -0.035544273 -0.2062128 -0.29313836 -0.20173693
-0.0071173385 -0.055150248 0.03994409 -0.051915463 -0.06650078 0.40069732 0.0035744682 -0.23176295
0.044173967 -0.1144375 -0.008453686 0.43598115 -0.020221941 -0.025085174 -0.11248894 -0.0292339
0.010103165 -0.051232666 0.016059566 -0.02465423 -0.16157305 -0.04722021 0.015609799 0.043776967
0.02351915 -0.20441817 -0.034301497 0.19544978 0.022892214 -0.11852432 -0.014607192 -0.16781533
-0.19594783 -0.1465187 0.008390119 -2.1310444 -0.1107018 -1.2800968 0.029832799 -0.023453262
-0.019412514 0.15133905 0.2733137 -0.050727535 0.21170351 0.21638101 -0.08278542 -0.14283994
-0.04262874 -0.7267878 0.043831173 -0.02648841 -1.9943278 -0.0023520396 0.80680233 -0.088345096
0.024665602 -0.69936365 -0.6435405 -0.45972282 -0.091146864 0.12032974 -0.25315648 0.009831715
-0.24150737 -0.1766109 -0.20521227 -0.19577652 0.04932806 0.010715764 0.050108235 -0.36783305
-0.027625829 0.0063691884 -0.052156944 -0.830919 -0.008372675 -1.0731798 -0.7110712 -0.9640501
1.3734038 -0.010772104 0.0019270449 -0.025319528 0.04350569 -0.10321166 -0.30200288 2.7699234
0.15132779 -0.16864194 -0.14886928 -3.366088 0.0648647 -0.23923463 -0.08954181 0.025214864
-0.010294486 0.013058485 -0.29524797 -0.03467114 -0.6921047 1.094743 0.07220435 2.3122785
0.046430573 -0.31412476 -0.025836073 -1.0502796 -0.13124816 0.16259873 -0.0020091885 -0.07320915
-0.018411927 -0.16604713 -0.21399195 -0.011346718 0.0051424718 -0.0883947 -0.029773673 0.8835865
-0.22550027 -0.050225858 -0.015440796 0.03419546 -0.022999031 -0.010377526 -0.021959053 -0.27082884
-0.12436285 -0.009818342 -0.060369015 -0.0693649 -0.8075653 0.032998458 -0.050275393 -0.03586127
0.008361739 -0.11739596 0.5371001 0.093959875 -0.16310167 0.18768238 -0.13425665 -1.2147232
0.07484515 0.0065866043 -0.038007334 -0.5019761 -0.07800821 -0.23853903 -0.20836765 0.038786575
-0.07325426 -0.43295297 -0.082715034 -0.15267044 -0.019593703 0.86440504 -0.59567004 -0.06834678
-0.065416016 -0.16657454 -0.111516155 -0.12974145 -0.07328074 0.13836932 0.055433206 -0.071791984
-0.16960424 -0.09315526 0.55823046 -0.14484197 0.16804293 0.01269901 0.022695217 -0.14222482
0.13462909 -0.03293035 0.06259284 -0.0069363485 0.07464466 0.005182368 0.07594667 0.10604893
00000000: 8a7b 723d a54a 263e fb5f 8abc 3c41 27bd
00000010: 1ba9 483e e19c 37bd 8547 1a3e 9ded 48bd
00000020: 387a 26bd 0ea9 debe 87b9 153d 3740 c7bb
00000030: 5dd8 e93c b106 f7bc 0cc9 103f b16e 87be
00000040: 30e7 89bd fa3a bb3b 1bfe 00bd fb14 aabd
00000050: 413d 293f 8844 75bf e65a 823d 7d89 183d
00000060: 49b4 bdbc 7487 09be be91 f13c e27e e03b
00000070: 848a b7be 46cb b8bc 9ffa b9bc 60a1 9cbd
00000080: 9793 953f 5fec 983a 6284 60bd 697a b5bd
00000090: 8e58 053f 3877 27bd c27a 22bf 1f35 9ebc
000000a0: 7845 25be 7d4d 263d 965b a53d 5fb3 cdbd
000000b0: a47f bd3e 7320 873c 4018 823c 1311 193d
000000c0: 4c21 163d 027c 1e3d a9fd c23e dafa 7dbc
000000d0: e93c 5cbd d7a2 44be 39b5 acbd 6d32 ba3c
000000e0: 2a7c 243b c32c dfbd ef24 a0be 6152 26be
000000f0: 846c 35bd 01a8 743c 2743 8c3d 5708 e4bd
00000100: 5864 fabd 89ff 883f c619 1cbf 4218 8abd
00000110: df96 11bd 7329 53be 3b16 96be 2094 4ebe
00000120: 9038 e9bb 3ae5 61bd 6a9c 233d 4fa5 54bd
00000130: 9031 88bd 3328 cd3e a041 6a3b 4453 6dbe
00000140: c3ef 343d 355e eabd 5481 0abc ec38 df3e
00000150: 7ca8 a5bc 6c7f cdbc 9a60 e6bd ef7b efbc
00000160: bf87 253c 58d9 51bd 5a8f 833c abf7 c9bc
00000170: 6873 25be fb69 41bd 3ec0 7f3c 7a4f 333d
00000180: 3cab c03c ff52 51be ba7f 0cbd fd23 483e
00000190: 7488 bb3c e1bc f2bd 0153 6fbc c8d7 2bbe
000001a0: 8ca6 48be 0009 16be b676 093c 0863 08c0
000001b0: a0b7 e2bd 36da a3bf ea63 f43c 0e21 c0bc
000001c0: fe06 9fbc a0f8 1a3e c6ef 8b3e adc7 4fbd
000001d0: cec8 583e fc92 5d3e 678b a9bd a244 12be
000001e0: 799b 2ebd c40e 3abf 5188 333d 39fe d8bc
000001f0: 2246 ffbf ad24 1abb 998a 4e3f 46ee b4bd
00000200: 840f ca3c 7f09 33bf 12bf 24bf ca60 ebbe
00000210: 35ab babd 706f f63d ba9d 81be 3415 213c
00000220: b54d 77be 7dd9 34be 2a23 52be a479 48be
00000230: 380c 4a3d 2c91 2f3c 4b3e 4d3d 9d54 bcbe
00000240: 904f e2bc a0b4 d03b 85a2 55bd 1cb7 54bf
00000250: 8b2d 09bc f55d 89bf c308 36bf fdcb 76bf
00000260: b2cb af3f 7b7d 30bc e694 fc3a e66a cfbc
00000270: 0633 323d a360 d3bd 1fa0 9abe 6d46 3140
00000280: acf5 1a3e 79b0 2cbe 3071 18be fc6d 57c0
00000290: c9d7 843d ecf9 74be b261 b7bd 678f ce3c
000002a0: 34aa 28bc 42f3 553c be2a 97be 5303 0ebd
000002b0: c62d 31bf 8a20 8c3f e0df 933d 5ffc 1340
000002c0: fc2d 3e3d f6d4 a0be 2ca6 d3bc 906f 86bf
000002d0: eb65 06be 4880 263e 97ac 03bb aeee 95bd
000002e0: 9cd4 96bc 4208 2abe b520 5bbe 96e7 39bc
000002f0: 2e82 a83b 4808 b5bd ebe7 f3bc ba32 623f
00000300: 8be9 66be a1b9 4dbd 64fb 7cbc 8a10 0c3d
00000310: 7768 bcbc 8006 2abc 79e3 b3bc 14aa 8abe
00000320: f3b1 febd 1cdd 20bc 8045 77bd 2f0f 8ebd
00000330: 99bc 4ebf 6429 073d 92ed 4dbd 44e3 12bd
00000340: adff 083c 4b6d f0bd 647f 093f 096e c03d
00000350: 2004 27be cf2f 403e 937a 09be 0d7c 9bbf
00000360: 6a48 993d 71d4 d73b 94ad 1bbd 8181 00bf
00000370: c5c2 9fbd 9343 74be 545e 55be acde 1e3d
00000380: 5406 96bd 03ac ddbe 8066 a9bd a455 1cbe
00000390: f982 a0bc a649 5d3f d57d 18bf 66f9 8bbd
000003a0: d5f8 85bd 8492 2abe 9562 e4bd f1da 04be
000003b0: 3614 96bd b0b0 0d3e ee0d 633d ad07 93bd
000003c0: bcac 2dbe 2fc8 bebd 31e8 0e3f 7451 14be
000003d0: 7213 2c3e 820f 503c 52eb b93c 62a3 11be
000003e0: 35dc 093e fae1 06bd ad30 803d 4f4a e3bb
000003f0: 4ddf 983d dbd0 a93b ed89 9b3d 2e30 d93d

layers.2.bias f4 [64]
2.5512578 -0.048460636 -0.075148985 -18.85963 -0.03906678 -3.757928 -0.05539509 -0.039832346
-0.05121987 0.7145467 6.530236 -0.10864951 -0.017567933 -0.02965531 -3.5733185 1.2889435
-0.020999808 -0.04343305 -0.07654403 -1.2402186 -0.03913459 -0.059076767 -0.048558637 -0.03186101
0.018986065 1.813595 -0.08402914 -0.028189464 5.2475853 -0.026584521 1.6706021 -0.05938716
-0.038816713 -0.050166145 2.7649972 5.593163 -0.10162174 1.707292 -0.01689242 -0.017790193
4.0424056 -0.05933485 -0.061567336 -0.055956066 0.007940029 -0.021761235 4.572412 -0.09314478
-0.013932785 -0.010809517 -0.345546 10.41488 -1.7837183 -0.07319731 -0.018798165 2.0900235
-0.042392187 -0.001713484 -0.03186232 -0.03719494 6.5413446 -0.07084471 -0.011060153 -0.05286591
00000000: cf47 2340 a97e 46bd b6e7 99bd 86e0 96c1
00000010: 7d04 20bd e481 70c0 f6e5 62bd 3e27 23bd
00000020: edcb 51bd 88ec 363f b1f7 d040 a283 debd
00000030: a0ea 8fbc b1ef f2bc 40b1 64c0 1afc a43f
00000040: ca07 acbc dbe6 31bd 1ec3 9cbd 7cbf 9ebf
00000050: 984b 20bd 7bfa 71bd 6ce5 46bd b180 02bd
00000060: aa88 9b3c e223 e83f 7817 acbd 97ed e6bc
00000070: 38ec a740 c8c7 d9bc 4ad6 d53f f33f 73bd
00000080: 46fe 1ebd 047b 4dbd b7f5 3040 31fb b240
00000090: 0f1f d0bd 8b88 da3f f961 8abc bdbc 91bc
000000a0: 635b 8140 1a09 73bd 082e 7cbd 3032 65bd
000000b0: e516 023c 9e44 b2bc 3351 9240 b1c2 bebd
000000c0: 5646 64bc 671a 31bc 68eb b0be 59a3 2641
000000d0: e250 e4bf 79e8 95bd 9cfe 99bc f2c2 0540
000000e0: 6ea3 2dbd fb96 e0ba 1082 02bd b959 18bd
000000f0: b252 d140 0817 91bd a535 35bc ed89 58bd

layers.3.weight f4 [64, 64]
-0.06461551 -0.037229575 0.056285102 -0.15778506 -0.074865244 -0.12229968 0.0023773308 -0.09560875
-0.046209514 0.031310245 -0.23096235 -0.014207416 0.00073912897 -0.012357464 -0.12352114 -0.14961155
0.104832694 -0.045321614 -0.05086036 -0.03422695 0.07121011 0.016029239 -0.0158698 0.059784353
0.03728723 0.034313094 -0.11540662 -0.08150097 -0.19027352 -0.07785184 -0.09141207 0.07826207
0.09413374 -0.08631426 -0.022461887 -0.008074845 -0.10760309 -0.08371477 0.059021294 0.09630368
-0.100737356 0.04061103 -0.01262034 0.07579053 0.0630918 0.062107075 0.08740002 -0.08223292
-0.06193584 -0.10121743 -0.15497166 -0.12944266 -0.09640407 -0.076508336 -0.1106317 -0.020526513
0.11307685 -0.013602803 -0.11479978 0.07098757 -0.20705451 -0.049792513 0.11493763 0.013326464
-0.08087696 -0.05544762 0.010726287 0.7152256 0.047938965 0.23404199 -0.06785374 -0.0003483216
-0.11809411 -0.71595347 -0.9792296 0.04820301 -0.0041880864 -0.04761819 -0.27460313 -0.06895716
0.10538794 0.066022545 0.09355055 0.011840398 -0.11110328 -0.12564519 0.08530199 -0.12882926
0.015751878 0.30012438 -0.0508903 0.026494354 -0.027147204 -0.006524315 0.04526728 0.093107745
0.008116121 0.08449363 -0.15848276 0.064296216 0.118798934 -0.08315053 -0.030431284 0.110663444
0.12131159 -0.09707281 -0.005440697 0.009741259 -0.05760372 -0.1192038 -0.2886933 0.047928855
-0.072439305 -0.030740269 0.056130327 -0.48138836 -0.013540581 0.06646029 -0.08683317 -0.034200195
-0.034838267 0.03081063 -0.14364295 -0.07548299 -0.013258589 -0.12483587 0.11262802 0.007513819
-0.225986 -0.042568184 -0.03681483 -0.20119229 0.1155043 -0.08546979 0.072404824 0.103427455
-0.038736403 0.027250575 -0.25031856 -0.09602083 0.06274246 -0.08833462 -0.11184716 -0.13372359
-0.06892507 -0.015091561 -0.0053750128 -0.07676835 0.11457131 0.05035551 0.054554053 -0.102192834
0.012836367 0.042253602 -0.04645521 -0.008933176 -0.07914498 -0.054532822 0.0082123745 0.08641318
-0.13080591 0.026389927 -0.24062213 -0.2619381 0.0049534556 -0.15825184 -0.03741724 -0.081222326
-0.07937089 -0.09433241 -0.06488692 0.111465186 0.09671448 0.08151413 -0.1628896 -0.04093826
-0.083764486 0.097064115 -0.075617366 0.07593278 -0.21308947 0.11600991 0.11271388 0.0090888785
-0.0134958625 0.04343744 -0.062243413 0.09183189 -0.17766516 0.08438184 0.0839792 0.11770741
-0.16471171 -0.12096454 -0.067775086 0.0079928525 -0.11729331 0.047209356 -0.11117755 0.06517349
0.09286408 -0.12392327 -0.08605224 0.1139483 -0.03445658 -0.017688096 -0.054063357 -0.19892119
0.0008752495 0.109699994 0.03378053 -0.04414015 0.08855243 0.05095114 -0.008517832 0.09958771
0.09186435 0.005478114 0.07801904 -0.04397264 -0.0009077613 0.12061526 -0.15341246 0.05666928
0.0417538 -0.094664276 -0.1204343 -0.09472426 -0.11628744 -0.12796274 -0.1004321 -0.006076023
-0.10903266 0.06719497 -0.120425746 0.07079549 0.04968418 0.10273653 -0.12032549 0.07126796
-0.00077547133 0.08442797 -0.118248686 -0.11109597 -0.17805767 -0.08100231 -0.09210552 -0.019179247
0.048882008 0.08058682 -0.03069815 -0.07176222 -0.14770076 0.036070094 0.03979419 -0.096624106
00000000: 2355 84bd 0a7e 18bd 358b 663d 6892 21be
00000010: f352 99bd 4178 fabd fecc 1b3b 85ce c3bd
00000020: 3046 3dbd 2c3f 003d 6581 6cbe 39c6 68bc
00000030: 1bc2 413a f676 4abc a7f8 fcbd c533 19be
00000040: 86b2 d63d 28a3 39bd f452 50bd 8f31 0cbd
00000050: 9bd6 913d c04f 833c 6201 82bc 70e0 743d
00000060: 7fba 183d e38b 0c3d 4e5a ecbd fbe9 a6bd
00000070: 10d7 42be c970 9fbd 4036 bbbd dd47 a03d
00000080: 31c9 c03d 88c5 b0bd fe01 b8bc 5b4c 04bc
00000090: 025f dcbd a672 abbd 50c0 713d dd3a c53d
000000a0: 634f cebd c057 263d 8bc5 4ebc 1138 9b3d
000000b0: 4636 813d fd63 7e3d c8fe b23d bc69 a8bd
000000c0: 6fb0 7dbd 154b cfbd e4b0 1ebe 9e8c 04be
000000d0: 7f6f c5bd 67b0 9cbd df92 e2bd 3827 a8bc
000000e0: d694 e73d 4bde 5ebc 261c ebbd ee61 913d
000000f0: 1906 54be 3cf3 4bbd 6c64 eb3d 3e57 5a3c
00000100: d2a2 a5bd 0b1d 63bd 4fbd 2f3c 0619 373f
00000110: a65b 443d b4a8 6f3e e7f6 8abd ef9e b6b9
00000120: 53db f1bd ba48 37bf cbae 7abf 8570 453d
00000130: 373c 89bb 4b0b 43bd c898 8cbe 6939 8dbd
00000140: a2d5 d73d d436 873d 6e97 bf3d 3bfe 413c
00000150: 1e8a e3bd 22a9 00be cfb2 ae3d d1eb 03be
00000160: 150a 813c e7a9 993e 5972 50bd b00a d93c
00000170: d063 debc ecc9 d5bb 2f6a 393d 46af be3d
00000180: 7bf9 043c ff0a ad3d 4e49 22be bcad 833d
00000190: db4c f33d d34a aabd 074b f9bc 84a3 e23d
000001a0: 3672 f83d 1cce c6bd e047 b2bb cd99 1f3c
000001b0: e1f1 6bbd 1f21 f4bd 9ccf 93be 0c51 443d
000001c0: 0f5b 94bd 04d3 fbbc eae8 653d 8978 f6be
000001d0: 50d9 5dbc 551c 883d 97d5 b1bd 8115 0cbd
000001e0: 92b2 0ebd 9366 fc3c 2317 13be d396 9abd
000001f0: 8e3a 59bc f3a9 ffbd 85a9 e63d 7b36 f63b
00000200: e068 67be fa5b 2ebd 26cb 16bd 5a05 4ebe
00000210: 858d ec3d c90a afbd fb48 943d c6d1 d33d
00000220: 10aa 1ebd 993c df3c c129 80be 92a6 c4bd
00000230: 1e7f 803d c8e8 b4bd 2010 e5bd d6ee 08be
00000240: 9628 8dbd 9842 77bc e020 b0bb ba38 9dbd
00000250: 5da4 ea3d 9441 4e3d 1274 5f3d 7a4a d1bd
00000260: a04f 523c 1d12 2d3d d147 3ebd 755c 12bc
00000270: c316 a2bd cf5d 5fbd 328d 063c 65f9 b03d
00000280: fcf1 05be b02f d83c a665 76be c01c 86be
00000290: 9950 a23b c50c 22be d242 19bd e457 a6bd
000002a0: 358d a2bd 5a31 c1bd 6fe3 84bd dc47 e43d
000002b0: 3e12 c63d e1f0 a63d 88cc 26be e0ae 27bd
000002c0: b78c abbd 8dc9 c63d 47dd 9abd a582 9b3d
000002d0: 2034 5abe 9b96 ed3d 89d6 e63d 85e9 143c
000002e0: c01d 5dbc 75eb 313d f3f2 7ebd 5c12 bc3d
000002f0: dbed 35be 63d0 ac3d 49fd ab3d 9510 f13d
00000300: 30aa 28be 42bc f7bd aacd 8abd 74f4 023c
00000310: 7a37 f0bd 995e 413d 0eb1 e3bd ae79 853d
00000320: 862f be3d 7ccb fdbd 283c b0bd ba5d e93d
00000330: 5822 0dbd a0e6 90bc 8a71 5dbd ffb1 4bbe
00000340: 0071 653a 64aa e03d 745d 0a3d 4dcc 34bd
00000350: fa5a b53d 24b2 503d 608e 0bbc a4f4 cb3d
00000360: 6023 bc3d c081 b33b 72c8 9f3d a81c 34bd
00000370: d4f6 6dba 2205 f73d 2818 1dbe 0c1e 683d
00000380: 0806 2b3d 58df c1bd 42a6 f6bd cbfe c1bd
00000390: 1c28 eebd aa08 03be 58af cdbd 6019 c7bb
000003a0: 844c dfbd 849d 893d c6a1 f6bd 3afd 903d
000003b0: a481 4b3d 8867 d23d 366d f6bd f0f4 913d
000003c0: 0049 4bba 92e8 ac3d 5e2c f2bd 4986 e3bd
000003d0: c054 36be 8ae4 a5bd d2a1 bcbd cc1d 9dbc
000003e0: 8038 483d b40a a53d b07a fbbc 12f8 92bd
000003f0: de3e 17be 3cbe 133d 3cff 223d dce2 c5bd

layers.3.bias f4 [64]
-0.07072028 -26.357714 -0.09707856 -0.039412215 -0.5775858 -3.4880154 -0.08873729 -0.109892696
-0.041121844 0.6098468 -0.0142104095 -0.38952085 -1.739415 -2.3514543 -0.18368353 -0.10501538
-0.06871196 -3.8200817 -1.3878025 -0.09285577 -0.21871103 -1.2045677 -0.84671754 -0.650751
-0.07737463 -0.002466445 9.219032 -0.8029606 0.65321165 0.23442847 -0.06676188 -0.053036492
-0.2831926 -0.07778691 -0.04243333 -0.18985222 -0.02917544 -0.01168104 -1.3736151 -0.11647175
1.2687378 -1.0723853 -0.47879598 -0.06927219 -0.06962866 -0.041598387 3.9150426 -4.82754
-0.38481835 2.5337844 -0.0033479077 -0.27479935 -0.16924784 0.9681047 -1.0270027 -0.07092386
-0.10623066 1.872794 -0.0011085491 -2.801791 -0.08102838 -0.0667408 -1.2657216 -0.033444498
00000000: cbd5 90bd 99dc d2c1 20d1 c6bd b46e 21bd
00000010: aadc 13bf a53b 5fc0 e5bb b5bd 6c0f e1bd
00000020: 616f 28bd eb1e 1c3f c7d2 68bc 476f c7be
00000030: 27a5 debf 3a7e 16c0 8917 3cbe 4e12 d7bd
00000040: dbb8 8cbd 387c 74c0 83a3 b1bf 2a2b bebd
00000050: c9f5 5fbe 462f 9abf 7bc2 58bf 9e97 26bf
00000060: 9776 9ebd 15a4 21bb 2881 1341 d38e 4dbf
00000070: e138 273f 040e 703e 74ba 88bd cb3c 59bd
00000080: 9ffe 90be be4e 9fbd 92ce 2dbd 9f68 42be
00000090: 5501 efbc d561 3fbc 9fd2 afbf be88 eebd
000000a0: 0066 a23f ec43 89bf bf24 f5be 94de 8dbd
000000b0: 7999 8ebd 1263 2abd 0f90 7a40 357b 9ac0
000000c0: e906 c5be 8629 2240 9268 5bbb 80b2 8cbe
000000d0: 4e4f 2dbe b6d5 773f d374 83bf 8740 91bd
000000e0: 768f d9bd b7b7 ef3f bc4c 91ba 8b50 33c0
000000f0: 35f2 a5bd 67af 88bd 2a03 a2bf 19fd 08bd

layers.4.weight f4 [12, 64]
-0.013895863 0.016248241 0.031039063 0.047721643 0.00031926882 -0.0006892882 0.085003816 0.19572029
-0.00012058232 -0.0012050889 0.0022499838 0.057321373 0.0033189526 0.00076007267 -0.012043322 0.019294672
0.066290855 -0.00021730435 0.037243422 -0.018863266 0.0639384 0.020835537 -0.00140821 -0.009315841
0.086592406 -0.09950562 0.0015834008 -0.00034114276 0.012455459 0.012609731 0.04536053 0.028402582
-0.00021760602 0.029390844 0.11644894 -0.03921679 0.0188938 -0.08828391 0.21716824 0.00014932148
-0.0020494333 0.00015202751 0.0005791877 0.02799053 0.020571044 0.061527923 0.0023188735 0.006606114
0.013604268 0.0074940543 0.029809361 -0.003833702 0.038080547 -0.008680522 0.004715818 0.011174657
-0.0465001 0.00090736296 0.055624973 0.00247426 0.03172722 -0.0017548924 0.043689188 0.0014984267
0.068184726 -0.02179887 0.0668856 -0.02421546 0.16044033 -0.0019485764 0.030910406 -0.0014986875
-0.00020897873 0.0040924377 -0.0023374218 -0.015035879 -0.0013288234 0.0014112281 -0.006603453 0.13046274
0.053887494 0.0073866406 0.014995542 0.02834236 -0.06673437 0.0029113519 -0.0005159007 0.0035807523
-0.0072858604 0.062067654 -0.002887797 0.00080140005 0.0067266123 -0.012364861 -0.020942157 0.0349352
-0.00080016506 0.026407193 0.13374062 0.0019089483 0.018758466 -0.040007684 0.0036670861 -0.0028294467
0.0058279936 -0.00017743478 0.0034501068 -0.05387282 0.0009487839 -0.02986255 0.00043806262 -0.00042917888
0.01717902 -0.0005466573 0.07278148 -0.002052532 0.011152915 -0.0011206185 -0.000682232 0.034323398
0.043033734 0.002126002 0.030595789 -0.0017754975 0.007131128 0.03250915 -0.021855416 -0.0011309613
-0.028433653 0.0028166054 -0.00017147859 -0.3903955 0.05051561 0.011071406 -0.0701677 -0.24514629
0.119248115 -0.074200824 0.004436161 0.21263638 0.03493299 0.017949726 0.05174619 -0.008497877
0.045709003 0.008796511 -0.0017122959 0.07446609 0.02081926 0.11757685 -0.010340218 0.09444497
0.13738453 0.07034329 0.032270197 -0.03888986 -0.0156081775 0.008275252 0.020384526 0.5142185
0.6840301 0.027501607 0.09911646 0.0016888245 -0.025115717 0.387372 0.020707862 0.016989602
0.0036060144 0.06498666 0.097352825 0.20753758 0.09131197 0.6005129 0.03660775 -0.0003052426
0.028355418 0.30409425 0.079891056 0.0061600492 0.03808808 0.043230355 -0.17889978 -0.13201436
0.059014466 0.0038638369 0.4454819 1.650005 -0.0715886 0.12982006 -0.16259687 0.03613224
0.10332204 -0.0092502935 -0.0018996963 -0.012850314 0.000382696 0.21944955 -0.004733995 -0.00022940164
0.0014548014 -8.0635546e-05 0.07254204 0.04441922 -0.000508345 -0.0013950662 0.016628262 0.0073382733
0.1042926 -0.00032249003 -0.035639677 0.05219862 -0.014009363 0.057819746 -0.00026403376 0.057971198
0.17381275 -0.102965206 6.0259852e-05 0.00039036723 0.0010344977 0.0022827666 -0.016128926 -0.0133323055
0.0026984748 0.04688865 0.020708527 -0.047049128 -0.019227287 -0.16389836 -3.0065183e-05 -0.0011160523
0.0038721238 0.0009396405 0.002517895 -0.005099006 -0.0454621 0.0070512476 0.003076955 0.00050513353
-0.024066493 -0.006088264 -0.0061567686 -0.0018207579 0.042221367 0.0046462994 -0.0008812801 -0.03694037
0.08413195 -0.00045386484 -0.07717001 -0.001988517 -0.043546647 0.015715003 -0.017630674 -0.00018574906
00000000: 79ab 63bc 081b 853c a245 fe3c c577 433d
00000010: 8963 a739 59b1 34ba 7b16 ae3d e66a 483e
00000020: 24e1 fcb8 13f4 9dba 7774 133b d1c9 6a3d
00000030: c982 593b 9d3f 473a 5b51 45bc dc0f 9e3c
00000040: 80c3 873d 31dc 63b9 8f8c 183d 2387 9abc
00000050: 23f2 823d 4aaf aa3c b093 b8ba 78a1 18bc
00000060: 5c57 b13d 9ac9 cbbd 1d8a cf3a 68db b2b9
00000070: fb11 4c3c 0c99 4e3c f7cb 393d 88ac e83c
00000080: 2c2d 64b9 11c5 f03c c87c ee3d c9a1 20bd
00000090: 2cc7 9a3c 32ce b4bd 5a61 5e3e 2e93 1c39
000000a0: c94f 06bb 9369 1f39 a1d4 173a 654c e53c
000000b0: 9b84 a83c b404 7c3d 3ef8 173b 1a78 d83b
000000c0: 70e4 5e3c af90 f53b c332 f43c d93e 7bbb
000000d0: 59fa 1b3d c038 0ebc 2687 9a3b e915 373c
000000e0: e476 3ebd 19dc 6d3a 03d7 633d 3227 223b
000000f0: 67f4 013d 6b04 e6ba 6ff3 323d db66 c43a
00000100: 6fa4 8b3d 8b93 b2bc 51fb 883d 805f c6bc
00000110: 784a 243e 6067 ffba d237 fd3c 9c6f c4ba
00000120: 4d21 5bb9 db19 863b 6e2f 19bb 0c59 76bc
00000130: ea2b aeba f5f8 b83a c761 d8bb 0698 053e
00000140: 22b9 5c3d a20b f23b ddaf 753c 3d2e e83c
00000150: 08ac 88bd 61cc 3e3b 833d 07ba 0eab 6a3b
00000160: 3abe eebb a73a 7e3d 3241 3dbb 0c15 523a
00000170: ea6a dc3b fc95 4abc e38e abbc 3618 0f3d
00000180: 2bc2 51ba e653 d83c 4df3 083e ad35 fa3a
00000190: 5bab 993c 19df 23bd 7f53 703b 3d6e 39bb
000001a0: c1f8 be3b c90d 3ab9 301b 623b bfa9 5cbd
000001b0: cfb7 783a 4ea2 f4bc c5ab e539 6a03 e1b9
000001c0: 04bb 8c3c 8d4d 0fba 750e 953d c683 06bb
000001d0: b7ba 363c b8e1 92ba d1d7 32ba b196 0c3d
000001e0: 2444 303d 6554 0b3b 05a4 fa3c cfb7 e8ba
000001f0: 3dac e93b 5128 053d 210a b3bc c43c 94ba
00000200: b1ed e8bc cc96 383b efce 33b9 ebe1 c7be
00000210: 75e9 4e3d d864 353c 15b4 8fbd a107 7bbe
00000220: 5b38 f43d 9af6 97bd 375d 913b 5abd 593e
00000230: e515 0f3d 4e0b 933c d0f3 533d ae3a 0bbc
00000240: 5d39 3b3d 3e1f 103c 1e6f e0ba ad81 983d
00000250: 278d aa3c 22cc f03d 056a 29bc 5d6c c13d
00000260: 88ae 0c3e 2510 903d c12d 043d f94a 1fbd
00000270: 71b9 7fbc ec94 073c 73fd a63c d3a3 033f
00000280: 991c 2f3f 0d4b e13c 92fd ca3d 8c5b dd3a
00000290: 7abf cdbc 9f55 c63e 89a3 a93c c72d 8b3c
000002a0: e252 6c3b ba17 853d eb60 c73d bb84 543e
000002b0: c501 bb3d 37bb 193f 02f2 153d f808 a0b9
000002c0: 9f49 e83c 3eb2 9b3e ec9d a33d 3dda c93b
000002d0: 3f02 1c3d 5012 313d 8131 37be c62e 07be
000002e0: 27b9 713d 6d38 7d3b 3416 e43e 5d33 d33f
000002f0: 0b9d 92bd 8def 043e cb7f 26be 66ff 133d
00000300: 819a d33d 8b8e 17bc 3bff f8ba 208a 52bc
00000310: 96a4 c839 62b7 603e a11f 9bbb 898b 70b9
00000320: 09af be3a e11a a9b8 ec90 943d eef0 353d
00000330: 7542 05ba a7da b6ba fe37 883c e675 f03b
00000340: 5c97 d53d e113 a9b9 e9fa 11bd 38ce 553d
00000350: 8787 65bc 66d4 6c3d 036e 8ab9 3573 6d3d
00000360: f8fb 313e 6cdf d2bd 86bf 7c38 34aa cc39
00000370: fc97 873a 789a 153b cf20 84bc be6f 5abc
00000380: e5d8 303b 500e 403d eea4 a93c 96b6 40bd
00000390: 8b82 9dbc f9d4 27be 7d34 fcb7 8048 92ba
000003a0: 75c3 7d3b 3552 763a 4503 253b 9015 a7bb
000003b0: 7836 3abd 270e e73b bda6 493b f06a 043a
000003c0: 1827 c5bc 0f80 c7bb b8be c9bb 7fa6 eeba
000003d0: 50f0 2c3d fc3f 983b b505 67ba c94e 17bd
000003e0: 5f4d ac3d b5f4 edb9 4f0b 9ebd c751 02bb
000003f0: f85d 32bd c0bc 803c 346e 90bc a2c5 42b9

layers.4.bias f4 [12]
0.01120456 -0.005983753 -1.1862626 -0.021397363 -0.028319541 -0.8782978 -1.0878888 -2.9983397
0.16306786 2.9503872 4.3713565 4.5611663
00000000: 5593 373c 5c13 c4bb 74d7 97bf 8649 afbc
00000010: 62fe e7bc 20d8 60bf f13f 8bbf cce4 3fc0
00000020: 43fb 263e 25d3 3c40 27e2 8b40 13f5 9140

prior_layer.w f4 [12, 4096]
1.1196017e-05 1.1921968e-05 1.2689048e-05 1.3499168e-05 1.4354296e-05 1.5256461e-05 1.6207756e-05 1.721033e-05
1.8266393e-05 1.9378222e-05 2.0548143e-05 2.1778544e-05 2.3071874e-05 2.4430634e-05 2.5857384e-05 2.735473e-05
2.8925338e-05 3.057192e-05 3.229723e-05 3.410408e-05 3.599531e-05 3.79738e-05 4.0042483e-05 4.220431e-05
4.4462253e-05 4.681933e-05 4.927856e-05 5.1842988e-05 5.451567e-05 5.7299665e-05 6.019804e-05 6.321384e-05
6.635011e-05 6.9609894e-05 7.2996176e-05 7.651195e-05 8.0160135e-05 8.394363e-05 8.786529e-05 9.192788e-05
9.613413e-05 0.000100486664 0.00010498805 0.00010964076 0.00011444715 0.00011940948 0.00012452989 0.00012981039
0.00013525285 0.00014085902 0.00014663047 0.00015256861 0.00015867468 0.00016494977 0.00017139473 0.00017801025
0.00018479677 0.00019175456 0.00019888363 0.0002061838 0.0002136546 0.00022129533 0.00022910503 0.00023708251
0.00024522626 0.0002535345 0.00026200523 0.00027063605 0.00027942436 0.00028836724 0.00029746143 0.00030670344
0.0003160894 0.00032561517 0.0003352763 0.00034506802 0.00035498533 0.00036502292 0.00037517524 0.0003854366
0.00039580127 0.00040626343 0.00041681764 0.0004274589 0.00043818308 0.00044898747 0.00045987117 0.000470836
0.00048188714 0.0004930339 0.0005042904 0.0005156761 0.00052721595 0.0005389397 0.0005508813 0.0005630766
0.00057556067 0.0005883649 0.0006015128 0.00061501603 0.0006288707 0.00064305443 0.0006575245 0.0006722179
0.0006870527 0.00070193154 0.0007167464 0.0007313847 0.0007457357 0.0007596967 0.0007731783 0.0007861084
0.0007984346 0.000810125 0.0008211668 0.00083156384 0.0008413337 0.0008505036 0.0008591066 0.0008671784
0.00087475404 0.00088186614 0.0008885433 0.0008948093 0.00090068305 0.0009061787 0.0009113062 0.00091607193
0.0009204794 0.00092453 0.0009282233 0.00093155797 0.00093453174 0.000937142 0.0009393861 0.0009412612
0.0009427648 0.0009438946 0.00094464887 0.0009450265 0.0009450271 0.00094465114 0.00094390026 0.0009427773
0.0009412864 0.0009394332 0.00093722466 0.00093466963 0.0009317782 0.000928562 0.00092503405 0.0009212083
0.0009170996 0.00091272354 0.00090809574 0.00090323185 0.0008981469 0.0008928552 0.00088736985 0.00088170235
0.0008758622 0.0008698571 0.0008636923 0.00085737096 0.0008508939 0.00084426 0.0008374664 0.00083050894
0.0008233825 0.0008160818 0.0008086013 0.00080093637 0.0007930832 0.0007850394 0.00077680434 0.00076837925
0.00075976737 0.0007509741 0.0007420071 0.0007328759 0.00072359195 0.0007141686 0.0007046206 0.000694964
0.0006852158 0.0006753935 0.00066551485 0.0006555976 0.0006456589 0.0006357152 0.000625782 0.00061587355
0.0006060028 0.0005961814 0.00058641937 0.00057672575 0.0005671082 0.0005575734 0.00054812705 0.0005387742
0.00052951917 0.0005203659 0.0005113181 0.0005023791 0.00049355207 0.0004848401 0.00047624615 0.00046777306
0.00045942352 0.00045120006 0.00044310506 0.00043514057 0.00042730838 0.00041960974 0.00041204548 0.0004046157
0.0003973196 0.00039015536 0.0003831196 0.0003762075 0.00036941218 0.00036272462 0.00035613342 0.0003496248
0.00034318294 0.0003367902 0.0003304281 0.0003240783 0.00031772407 0.00031135176 0.00030495226 0.0002985228
0.00029206777 0.00028559982 0.0002791397 0.00027271613 0.00026636466 0.00026012605 0.00025404317 0.00024815754
0.00024251439 0.00023713904 0.00023206626 0.00022730285 0.00022284222 0.00021866876 0.00021476112 0.0002110893
0.00020810767 0.00020493429 0.00020189598 0.00019896786 0.00019612895 0.00019336467 0.00019066637 0.00018804315
00000000: 87d6 3b37 7604 4837 0ce3 5437 7c7a 6237
00000010: 3bd3 7037 00f6 7f37 e4f5 8737 e75e 9037
00000020: c83a 9937 6a8e a237 cd5e ac37 11b1 b637
00000030: 798a c137 63f0 cc37 4fe8 d837 d677 e537
00000040: b1a4 f237 593a 0038 e376 0738 fa0a 0f38
00000050: abf9 1638 0f46 1f38 4af3 2738 8804 3138
00000060: fb7c 3a38 df5f 4438 73b0 4e38 fc71 5938
00000070: c1a7 6438 0c55 7038 277d 7c38 ac91 8438
00000080: 7225 8b38 87fb 9138 8615 9938 0a75 a038
00000090: a51b a838 e50a b038 5244 b838 68c9 c038
000000a0: 9e9b c938 5ebc d238 082d dc38 efee e538
000000b0: 5903 f038 7a6b fa38 3d94 0239 b61d 0839
000000c0: a9d2 0d39 8eb3 1339 d1c0 1939 d3fa 1f39
000000d0: e961 2639 5ef6 2c39 6cb8 3339 43a8 3a39
000000e0: 01c6 4139 b911 4939 6b8b 5039 0b33 5839
000000f0: 7808 6039 830b 6839 ea3b 7039 5a99 7839
00000100: b691 8039 d3ec 8439 bf5d 8939 28e4 8d39
00000110: b47f 9239 ff2f 9739 99f4 9b39 0acd a039
00000120: cdb8 a539 54b7 aa39 06c8 af39 3fea b439
00000130: 531d ba39 8c60 bf39 2bb3 c439 6d14 ca39
00000140: 8c83 cf39 c1ff d439 5188 da39 901c e039
00000150: f0bb e539 1466 eb39 dd1a f139 8ada f639
00000160: cca5 fc39 f23e 013a 5b32 043a 702e 073a
00000170: dd34 0a3a a247 0d3a 0569 103a 6e9b 133a
00000180: 39e1 163a 803c 1a3a d7ae 1d3a 0739 213a
00000190: ccda 243a a792 283a b95d 2c3a c837 303a
000001a0: 541b 343a d401 383a 09e4 3b3a 65ba 3f3a
000001b0: 7a7d 433a 6226 473a 1eaf 4a3a d712 4e3a
000001c0: 0a4e 513a 925e 543a 9243 573a 4efd 593a
000001d0: f38c 5c3a 55f4 5e3a ab35 613a 5b53 633a
000001e0: c04f 653a 092d 673a 22ed 683a a391 6a3a
000001f0: d11b 6c3a a08c 6d3a b9e4 6e3a 8c24 703a
00000200: 544c 713a 285c 723a 0354 733a cc33 743a
00000210: 5dfb 743a 89aa 753a 2241 763a f8be 763a
00000220: e023 773a b26f 773a 50a2 773a a8bb 773a
00000230: b2bb 773a 77a2 773a 1370 773a b724 773a
00000240: a9c0 763a 4b44 763a 15b0 753a 9e04 753a
00000250: 9442 743a be6a 733a fc7d 723a 3e7d 713a
00000260: 8369 703a d743 6f3a 460d 6e3a ddc6 6c3a
00000270: 9e71 6b3a 800e 6a3a 629e 683a 0b22 673a
00000280: 1e9a 653a 1f07 643a 6969 623a 31c1 603a
00000290: 860e 5f3a 5451 5d3a 6b89 5b3a 83b6 593a
000002a0: 44d8 573a 53ee 553a 51f8 533a eef5 513a
000002b0: eae6 4f3a 1acb 4d3a 75a2 4b3a 0f6d 493a
000002c0: 202b 473a 05dd 443a 4183 423a 781e 403a
000002d0: 6faf 3d3a 0b37 3b3a 4ab6 383a 3f2e 363a
000002e0: 0ea0 333a e40c 313a f275 2e3a 69dc 2b3a
000002f0: 6f41 293a 20a6 263a 850b 243a 9372 213a
00000300: 29dc 1e3a 0e49 1c3a f0b9 193a 692f 173a
00000310: fda9 143a 1e2a 123a 2fb0 0f3a 863c 0d3a
00000320: 6ecf 0a3a 2a69 083a fa09 063a 17b2 033a
00000330: b861 013a 2332 fe39 adb0 f939 703f f539
00000340: c8de f039 0c8f ec39 8e50 e839 9423 e439
00000350: 5c08 e039 11ff db39 cf07 d839 9a22 d439
00000360: 564f d039 c48d cc39 71dd c839 b73d c539
00000370: aaad c139 132c be39 6bb7 ba39 d94d b739
00000380: 3ced b339 3793 b039 4f3d ad39 0ee9 a939
00000390: 3494 a639 ed3c a339 00e2 9f39 0d83 9c39
000003a0: ac20 9939 8fbc 9539 7f59 9239 57fb 8e39
000003b0: dca6 8b39 8761 8839 1931 8539 241b 8239
000003c0: 764b 7e39 87a8 7839 d056 7339 2558 6e39
000003d0: c1aa 6939 734a 6539 8031 6139 da57 5d39
000003e0: 7a37 5a39 a1e3 5639 0ab4 5339 07a2 5039
000003f0: f7a7 4d39 efc1 4a39 9ded 4739 732d 4539
