results/Elemental_Mapping/models/FCNplus_testSaintJohn.pt (torch, 377701 bytes, 10 tensors)

layers.0.w f4 [12, 4096]
000000 87 d6 3b 37 76 04 48 37 0c e3 54 37 7c 7a 62 37
       1.1196017e-05 1.1921968e-05 1.2689048e-05 1.3499168e-05
000010 3b d3 70 37 00 f6 7f 37 e4 f5 87 37 e7 5e 90 37
       1.4354296e-05 1.5256461e-05 1.6207756e-05 1.721033e-05
000020 c8 3a 99 37 6a 8e a2 37 cd 5e ac 37 11 b1 b6 37
       1.8266393e-05 1.9378222e-05 2.0548143e-05 2.1778544e-05
000030 79 8a c1 37 63 f0 cc 37 4f e8 d8 37 d6 77 e5 37
       2.3071874e-05 2.4430634e-05 2.5857384e-05 2.735473e-05
000040 b1 a4 f2 37 59 3a 00 38 e3 76 07 38 fa 0a 0f 38
       2.8925338e-05 3.057192e-05 3.229723e-05 3.410408e-05
000050 ab f9 16 38 0f 46 1f 38 4a f3 27 38 88 04 31 38
       3.599531e-05 3.79738e-05 4.0042483e-05 4.220431e-05
000060 fb 7c 3a 38 df 5f 44 38 73 b0 4e 38 fc 71 59 38
       4.4462253e-05 4.681933e-05 4.927856e-05 5.1842988e-05
000070 c1 a7 64 38 0c 55 70 38 27 7d 7c 38 ac 91 84 38
       5.451567e-05 5.7299665e-05 6.019804e-05 6.321384e-05
000080 72 25 8b 38 87 fb 91 38 86 15 99 38 0a 75 a0 38
       6.635011e-05 6.9609894e-05 7.2996176e-05 7.651195e-05
000090 a5 1b a8 38 e5 0a b0 38 52 44 b8 38 68 c9 c0 38
       8.0160135e-05 8.394363e-05 8.786529e-05 9.192788e-05
0000a0 9e 9b c9 38 5e bc d2 38 08 2d dc 38 ef ee e5 38
       9.613413e-05 0.000100486664 0.00010498805 0.00010964076
0000b0 59 03 f0 38 7a 6b fa 38 3d 94 02 39 b6 1d 08 39
       0.00011444715 0.00011940948 0.00012452989 0.00012981039
0000c0 a9 d2 0d 39 8e b3 13 39 d1 c0 19 39 d3 fa 1f 39
       0.00013525285 0.00014085902 0.00014663047 0.00015256861
0000d0 e9 61 26 39 5e f6 2c 39 6c b8 33 39 43 a8 3a 39
       0.00015867468 0.00016494977 0.00017139473 0.00017801025
0000e0 01 c6 41 39 b9 11 49 39 6b 8b 50 39 0b 33 58 39
       0.00018479677 0.00019175456 0.00019888363 0.0002061838
0000f0 78 08 60 39 83 0b 68 39 ea 3b 70 39 5a 99 78 39
       0.0002136546 0.00022129533 0.00022910503 0.00023708251
000100 b6 91 80 39 d3 ec 84 39 bf 5d 89 39 28 e4 8d 39
       0.00024522626 0.0002535345 0.00026200523 0.00027063605
000110 b4 7f 92 39 ff 2f 97 39 99 f4 9b 39 0a cd a0 39
       0.00027942436 0.00028836724 0.00029746143 0.00030670344
000120 cd b8 a5 39 54 b7 aa 39 06 c8 af 39 3f ea b4 39
       0.0003160894 0.00032561517 0.0003352763 0.00034506802
000130 53 1d ba 39 8c 60 bf 39 2b b3 c4 39 6d 14 ca 39
       0.00035498533 0.00036502292 0.00037517524 0.0003854366
000140 8c 83 cf 39 c1 ff d4 39 51 88 da 39 90 1c e0 39
       0.00039580127 0.00040626343 0.00041681764 0.0004274589
000150 f0 bb e5 39 14 66 eb 39 dd 1a f1 39 8a da f6 39
       0.00043818308 0.00044898747 0.00045987117 0.000470836
000160 cc a5 fc 39 f2 3e 01 3a 5b 32 04 3a 70 2e 07 3a
       0.00048188714 0.0004930339 0.0005042904 0.0005156761
000170 dd 34 0a 3a a2 47 0d 3a 05 69 10 3a 6e 9b 13 3a
       0.00052721595 0.0005389397 0.0005508813 0.0005630766
000180 39 e1 16 3a 80 3c 1a 3a d7 ae 1d 3a 07 39 21 3a
       0.00057556067 0.0005883649 0.0006015128 0.00061501603
000190 cc da 24 3a a7 92 28 3a b9 5d 2c 3a c8 37 30 3a
       0.0006288707 0.00064305443 0.0006575245 0.0006722179
0001a0 54 1b 34 3a d4 01 38 3a 09 e4 3b 3a 65 ba 3f 3a
       0.0006870527 0.00070193154 0.0007167464 0.0007313847
0001b0 7a 7d 43 3a 62 26 47 3a 1e af 4a 3a d7 12 4e 3a
       0.0007457357 0.0007596967 0.0007731783 0.0007861084
0001c0 0a 4e 51 3a 92 5e 54 3a 92 43 57 3a 4e fd 59 3a
       0.0007984346 0.000810125 0.0008211668 0.00083156384
0001d0 f3 8c 5c 3a 55 f4 5e 3a ab 35 61 3a 5b 53 63 3a
       0.0008413337 0.0008505036 0.0008591066 0.0008671784
0001e0 c0 4f 65 3a 09 2d 67 3a 22 ed 68 3a a3 91 6a 3a
       0.00087475404 0.00088186614 0.0008885433 0.0008948093
0001f0 d1 1b 6c 3a a0 8c 6d 3a b9 e4 6e 3a 8c 24 70 3a
       0.00090068305 0.0009061787 0.0009113062 0.00091607193
000200 54 4c 71 3a 28 5c 72 3a 03 54 73 3a cc 33 74 3a
       0.0009204794 0.00092453 0.0009282233 0.00093155797
000210 5d fb 74 3a 89 aa 75 3a 22 41 76 3a f8 be 76 3a
       0.00093453174 0.000937142 0.0009393861 0.0009412612
000220 e0 23 77 3a b2 6f 77 3a 50 a2 77 3a a8 bb 77 3a
       0.0009427648 0.0009438946 0.00094464887 0.0009450265
000230 b2 bb 77 3a 77 a2 77 3a 13 70 77 3a b7 24 77 3a
       0.0009450271 0.00094465114 0.00094390026 0.0009427773
000240 a9 c0 76 3a 4b 44 76 3a 15 b0 75 3a 9e 04 75 3a
       0.0009412864 0.0009394332 0.00093722466 0.00093466963
000250 94 42 74 3a be 6a 73 3a fc 7d 72 3a 3e 7d 71 3a
       0.0009317782 0.000928562 0.00092503405 0.0009212083
000260 83 69 70 3a d7 43 6f 3a 46 0d 6e 3a dd c6 6c 3a
       0.0009170996 0.00091272354 0.00090809574 0.00090323185
000270 9e 71 6b 3a 80 0e 6a 3a 62 9e 68 3a 0b 22 67 3a
       0.0008981469 0.0008928552 0.00088736985 0.00088170235
000280 1e 9a 65 3a 1f 07 64 3a 69 69 62 3a 31 c1 60 3a
       0.0008758622 0.0008698571 0.0008636923 0.00085737096
000290 86 0e 5f 3a 54 51 5d 3a 6b 89 5b 3a 83 b6 59 3a
       0.0008508939 0.00084426 0.0008374664 0.00083050894
0002a0 44 d8 57 3a 53 ee 55 3a 51 f8 53 3a ee f5 51 3a
       0.0008233825 0.0008160818 0.0008086013 0.00080093637
0002b0 ea e6 4f 3a 1a cb 4d 3a 75 a2 4b 3a 0f 6d 49 3a
       0.0007930832 0.0007850394 0.00077680434 0.00076837925
0002c0 20 2b 47 3a 05 dd 44 3a 41 83 42 3a 78 1e 40 3a
       0.00075976737 0.0007509741 0.0007420071 0.0007328759
0002d0 6f af 3d 3a 0b 37 3b 3a 4a b6 38 3a 3f 2e 36 3a
       0.00072359195 0.0007141686 0.0007046206 0.000694964
0002e0 0e a0 33 3a e4 0c 31 3a f2 75 2e 3a 69 dc 2b 3a
       0.0006852158 0.0006753935 0.00066551485 0.0006555976
0002f0 6f 41 29 3a 20 a6 26 3a 85 0b 24 3a 93 72 21 3a
       0.0006456589 0.0006357152 0.000625782 0.00061587355
000300 29 dc 1e 3a 0e 49 1c 3a f0 b9 19 3a 69 2f 17 3a
       0.0006060028 0.0005961814 0.00058641937 0.00057672575
000310 fd a9 14 3a 1e 2a 12 3a 2f b0 0f 3a 86 3c 0d 3a
       0.0005671082 0.0005575734 0.00054812705 0.0005387742
000320 6e cf 0a 3a 2a 69 08 3a fa 09 06 3a 17 b2 03 3a
       0.00052951917 0.0005203659 0.0005113181 0.0005023791
000330 b8 61 01 3a 23 32 fe 39 ad b0 f9 39 70 3f f5 39
       0.00049355207 0.0004848401 0.00047624615 0.00046777306
000340 c8 de f0 39 0c 8f ec 39 8e 50 e8 39 94 23 e4 39
       0.00045942352 0.00045120006 0.00044310506 0.00043514057
000350 5c 08 e0 39 11 ff db 39 cf 07 d8 39 9a 22 d4 39
       0.00042730838 0.00041960974 0.00041204548 0.0004046157
000360 56 4f d0 39 c4 8d cc 39 71 dd c8 39 b7 3d c5 39
       0.0003973196 0.00039015536 0.0003831196 0.0003762075
000370 aa ad c1 39 13 2c be 39 6b b7 ba 39 d9 4d b7 39
       0.00036941218 0.00036272462 0.00035613342 0.0003496248
000380 3c ed b3 39 37 93 b0 39 4f 3d ad 39 0e e9 a9 39
       0.00034318294 0.0003367902 0.0003304281 0.0003240783
000390 34 94 a6 39 ed 3c a3 39 00 e2 9f 39 0d 83 9c 39
       0.00031772407 0.00031135176 0.00030495226 0.0002985228
0003a0 ac 20 99 39 8f bc 95 39 7f 59 92 39 57 fb 8e 39
       0.00029206777 0.00028559982 0.0002791397 0.00027271613
0003b0 dc a6 8b 39 87 61 88 39 19 31 85 39 24 1b 82 39
       0.00026636466 0.00026012605 0.00025404317 0.00024815754
0003c0 76 4b 7e 39 87 a8 78 39 d0 56 73 39 25 58 6e 39
       0.00024251439 0.00023713904 0.00023206626 0.00022730285
0003d0 c1 aa 69 39 73 4a 65 39 80 31 61 39 da 57 5d 39
       0.00022284222 0.00021866876 0.00021476112 0.0002110893
0003e0 7a 37 5a 39 a1 e3 56 39 0a b4 53 39 07 a2 50 39
       0.00020810767 0.00020493429 0.00020189598 0.00019896786
0003f0 f7 a7 4d 39 ef c1 4a 39 9d ed 47 39 73 2d 45 39
       0.00019612895 0.00019336467 0.00019066637 0.00018804315

layers.1.weight f4 [512, 12]
000000 2d 65 9e bf ed 61 9a 3e 6b 7c 90 bf 59 2f ba 3d
       -1.2374626 0.30152836 -1.1287969 0.09091062
000010 ba 34 c9 be a5 d9 41 3e 2b 66 03 be 09 cb 13 3f
       -0.3929804 0.18930681 -0.12831943 0.5773168
000020 db 1b 0d be cb 62 c9 bd 9f 56 c2 be 0f fe 8b 3e
       -0.13780157 -0.098332964 -0.37956712 0.2734227
000030 d8 bd 61 bd 40 af 1e be 97 c1 80 be 0e ae c1 bc
       -0.05511269 -0.1549654 -0.25147697 -0.023642566
000040 91 c1 31 bd 60 96 b2 3e fa 99 cc bd 95 82 0b bf
       -0.04339749 0.34880352 -0.09990306 -0.5449613
000050 8c d5 79 bc ba 11 2a bb 5d d8 95 be 8e 44 88 be
       -0.015248667 -0.0025950507 -0.29266635 -0.26614803
000060 0f 0e 16 bc 9e 6b c6 bf 38 d1 72 be ac 9d 8c be
       -0.009158625 -1.5501592 -0.23712623 -0.27464044
000070 5b 84 94 be 3c 7c 21 40 a9 00 15 3a 3d 3d 8c be
       -0.2900723 2.5232077 0.00056839973 -0.2739047
000080 02 0c 03 3c 7e 52 06 3e 82 cd 2e 3f b0 54 2a 40
       0.007998468 0.13117406 0.6828233 2.661419
000090 03 a8 30 c0 82 e8 1a 3f 0e 8e 33 bf 76 21 9d 3d
       -2.7602546 0.6051103 -0.70138633 0.07672398
0000a0 64 09 48 be 3d 1a c6 3f 93 b0 50 3b 7a f9 78 be
       -0.19534832 1.5476757 0.0031843528 -0.24313918
0000b0 38 a6 60 3c b9 25 aa 3d 2e c1 e6 be af 33 61 40
       0.013711505 0.08307976 -0.4506926 3.5187795
0000c0 b9 10 55 bd b8 bc c0 3e bc f0 5c 3c 53 73 bd be
       -0.0520179 0.3764398 0.01348513 -0.37002048
0000d0 4d 7e 08 3c 78 c6 22 bf 9a 71 88 bd 8a 39 9d be
       0.008330894 -0.6358409 -0.06662293 -0.3070796
0000e0 b4 08 27 bd 35 76 cb bc d7 06 02 bf 80 03 14 3f
       -0.040779784 -0.024836639 -0.50791687 0.5781784
0000f0 a0 e7 4c bd d2 d5 73 3b 26 77 26 be d5 5b 31 be
       -0.050025582 0.0037206304 -0.16256389 -0.17320187
000100 60 57 c0 bd 6c cc 75 be 93 0b c9 bd 93 ed 57 3e
       -0.093916655 -0.24003762 -0.09816661 0.21086721
000110 3a 24 bd be 2a 2e ac bd 8b 47 09 bf a3 26 6b c0
       -0.369417 -0.084072426 -0.5362479 -3.6742332
000120 9d 9d 9a bd 23 a4 af be cc 7d 22 3d e8 d0 f1 bb
       -0.075495936 -0.34304914 0.03967075 -0.00737964
000130 3a 62 56 bd 69 98 de 3e cd ff 11 be c6 27 87 bd
       -0.05233977 0.43475655 -0.14257737 -0.06599383
000140 71 a2 09 bc 84 96 25 3c 99 29 65 be 38 17 cc bf
       -0.008400545 0.0101066865 -0.2237915 -1.5944586
000150 4e b8 5a bd 61 ba 23 bf ab 1b 30 3e 5c 82 97 be
       -0.053398423 -0.63956267 0.17198054 -0.29591644
000160 03 1c bf be a5 b4 5d be c3 25 02 bd 62 88 54 be
       -0.3732606 -0.21650942 -0.031774294 -0.20755151
000170 46 21 57 c0 76 ae 67 3e 1d 96 2d 40 c3 6e 84 3f
       -3.3614058 0.22625145 2.7122872 1.0346302
000180 92 c2 de 3c 57 41 0d 3e 2c 35 4d 3e 4a a3 44 3d
       0.027192388 0.13794456 0.20039815 0.048007287
000190 dd a7 e4 3c 2f d2 e6 3e 9e 19 95 3c 50 60 8a 3f
       0.027912075 0.45082232 0.018200692 1.0810642
0001a0 b8 63 8d c0 64 13 b5 3e 19 2a 53 3e 73 2c 02 3f
       -4.4184227 0.35366356 0.20621528 0.50849074
0001b0 02 28 fe bb 25 78 10 be 4f 0b 9c be 4c 65 02 3c
       -0.007756234 -0.14108332 -0.30477378 0.007958721
0001c0 d8 1d 12 bf 62 d2 b3 be dc 2e 37 3c 72 34 72 3d
       -0.5707679 -0.35121447 0.011180606 0.059132047
0001d0 80 01 06 bd 5f 66 df bd 81 ca 84 3e f5 70 2b bf
       -0.032716274 -0.109081976 0.25935748 -0.66969234
0001e0 9c c6 4e be 38 54 47 be 40 68 14 be 9f c7 c9 bd
       -0.20192951 -0.1946572 -0.14492893 -0.09852528
0001f0 22 8a b6 be 1c d7 06 bf c4 d8 86 be 88 4e 5c 3d
       -0.35652262 -0.5267198 -0.26337254 0.05378583
000200 a2 98 06 be ff 49 4b be 8b 02 e0 3f 75 6f 80 c0
       -0.13144162 -0.19852446 1.7500776 -4.0136056
000210 ae 3b 82 3d 46 c3 98 bd 59 1f 6e 3f 14 3c 15 3d
       0.06359039 -0.074591205 0.9301658 0.036434248
000220 67 24 e3 bf 11 64 33 3f dd 32 8d bb 5b e4 f3 3e
       -1.7745484 0.70074564 -0.004309042 0.4763516
000230 f3 f1 18 3d 4a 96 dd 3e 69 34 bf bd 79 00 92 3f
       0.037340116 0.43278724 -0.09336168 1.1406394
000240 b6 97 72 bd 9d 65 42 be f6 4c 4a 3b 28 c3 2d be
       -0.059226714 -0.18984075 0.0030868626 -0.16968977
000250 14 68 e1 bd 4c cc 7e bf 32 bf fe bd bf e8 15 bf
       -0.110061795 -0.9953048 -0.12438811 -0.5855827
000260 2d 9b ba ba 0c 44 9e 3d 03 2b a9 be fe 56 ef be
       -0.001423692 0.07727823 -0.33040628 -0.46746057
000270 c5 89 58 be 6a bc c4 be 2f d6 64 be b4 42 29 3d
       -0.21146305 -0.38425 -0.2234733 0.04132338
000280 d4 35 46 be 93 f7 b2 bd 73 f2 25 bf 37 0f 23 bf
       -0.19356471 -0.08738627 -0.64823073 -0.6369509
000290 a3 02 e4 be ec dc 0e 3e 41 ed f9 3d a9 34 3f 3d
       -0.44533262 0.13951463 0.12203456 0.04668108
0002a0 cf ee e0 bd 9f 20 e0 bd ac 31 cc 3c bf a4 c6 be
       -0.10983049 -0.10943722 0.02492603 -0.38797566
0002b0 e6 13 5e bf 0f 78 ab 3e f2 20 e2 be fa 19 79 3e
       -0.8674911 0.33490035 -0.4416576 0.24326316
0002c0 be 61 f4 bd df c2 a8 3d 41 b1 00 3e 9b fb 20 bf
       -0.11932705 0.08240294 0.12567617 -0.6288392
0002d0 fd c9 d9 be 6d 2f 27 be bd f6 cb be c7 95 4d be
       -0.42536917 -0.16326685 -0.39836684 -0.20076667
0002e0 77 2a d9 be a3 28 de be 4d ff 77 be c2 b0 a7 bd
       -0.4241521 -0.43390378 -0.24218483 -0.08188011
0002f0 e5 f4 bc 3c 2b 03 d9 bd da 5d 1f be 28 07 05 be
       0.023065994 -0.10596307 -0.15563145 -0.12991011
000300 98 4f 85 bd 6a 68 c8 be 2f 93 40 be 52 3c 1b be
       -0.06509322 -0.39142162 -0.18806146 -0.15159729
000310 4e b5 02 be 7e fe bc 3c 2d 1c 02 bf a9 f3 c1 be
       -0.12764475 0.02307057 -0.5082424 -0.3788121
000320 ff c6 6c be 39 a6 05 3e a9 ff 01 bf ff 60 5a bf
       -0.23122786 0.1305169 -0.5078073 -0.85304254
000330 23 ff a5 bd 62 a6 bc bc 42 1a 20 3d 97 0f 5b bc
       -0.08105304 -0.023028556 0.03908754 -0.013370416
000340 b0 8a 33 be fe 18 24 bf 44 d0 aa bd 59 1a e9 38
       -0.17533374 -0.64100635 -0.08340505 0.000111152134
000350 b0 3b de bd 4a 57 64 be cf a1 70 3f a1 be 44 3d
       -0.10851228 -0.22298923 0.939969 0.04803336
000360 e5 40 79 be 98 2c 15 3f f9 9f 75 bf aa 6c 5a bf
       -0.24341162 0.5827117 -0.95947224 -0.8532206
000370 44 7a 04 3e 75 85 64 40 d0 3e 4c bd cc 30 36 be
       0.12937266 3.5706456 -0.04986459 -0.17792052
000380 7d 88 00 bd 1e 66 10 be 40 3b 8c bf 36 3f f3 bf
       -0.031380165 -0.14101455 -1.0955582 -1.9003665
000390 9f 38 a3 be a9 6f dc be 1d 80 12 bf e5 e0 04 bf
       -0.31879136 -0.4305394 -0.57226735 -0.5190566
0003a0 75 9c bc bc 10 4d 54 bd 04 eb 8a 3d 27 34 01 bf
       -0.023023823 -0.051831305 0.06783107 -0.50470203
0003b0 1d d7 7b be e9 77 10 be 85 8b cd be 30 43 f1 bd
       -0.24593778 -0.14108242 -0.40145507 -0.11780393
0003c0 ed 4b 54 bd 56 68 90 bf 57 c8 e1 3e a9 37 aa 3c
       -0.05183022 -1.1281841 0.4409816 0.020778494
0003d0 e5 d4 96 be f9 ef 43 be ed 10 b7 bc 2b ff 12 c0
       -0.294593 -0.19134511 -0.022346938 -2.2968242
0003e0 37 cb 63 be 2f 97 8b bf 7f fc fb 3f 2e 44 15 bf
       -0.22245489 -1.0905513 1.9686431 -0.5830716
0003f0 29 e9 7c bc d2 86 9d be 43 ee 6b be 5f 08 57 bf
       -0.015436449 -0.30766922 -0.23040108 -0.8399715

layers.1.bias f4 [512]
000000 1d e2 c6 40 bd a4 b3 bb 5d 2c 96 c0 7e ab 7e 40
       6.2151017 -0.005482285 -4.6929154 3.979217
000010 67 f3 17 bf f6 ab cf bf 41 82 d6 be d9 7d 55 3f
       -0.5935578 -1.6224353 -0.4189625 0.83395153
000020 f0 a1 61 bf 03 ff 43 bc 5e a9 c9 bb 21 0b 49 40
       -0.8813772 -0.011962655 -0.0061542233 3.1413043
000030 0d a2 9f bb ae b6 a2 be ef 5b 15 bc 9a 6d ea ba
       -0.004871613 -0.3178 -0.009116157 -0.0017885447
000040 6d c2 32 bc 0b f7 c0 bf 5f b4 45 c0 73 f5 d6 be
       -0.0109106125 -1.5075392 -3.089134 -0.41984138
000050 51 ac e3 bf 1a 7c 32 bb ee 2d 01 40 ac 67 1e c0
       -1.7786962 -0.0027234615 2.0184283 -2.4750776
000060 de a0 68 bc 44 b4 2c be 13 fa b5 bc 40 dd b0 ba
       -0.01419851 -0.16865641 -0.022213971 -0.0013493672
000070 f2 63 27 bc d8 9e 5d bb 64 76 8c bc c5 ff 41 bb
       -0.0102167 -0.0033816602 -0.017146297 -0.0029601913
000080 bc ae b7 c0 26 52 04 c1 27 d5 a1 be ee 7d bd bb
       -5.74008 -8.270056 -0.31607935 -0.0057828343
000090 0d df 33 bb ef 86 80 be e2 f3 76 bf a5 0c 80 bb
       -0.002744618 -0.25102946 -0.96465886 -0.0039077573
0000a0 00 48 bc 40 bd 72 e4 be 71 49 7a c0 06 4c 31 bb
       5.883789 -0.44618788 -3.9107325 -0.002705337
0000b0 36 f2 8c bf e0 94 a6 bb fe 3d b0 40 6a 1a cf 40
       -1.1011417 -0.0050836653 5.5075674 6.4719744
0000c0 41 44 59 40 1c 93 fe 40 3d fc 65 40 0f bf 93 be
       3.394791 7.9554577 3.5935204 -0.28856704
0000d0 b1 d1 ec be 14 1e 06 be 9d 49 15 ba 36 80 8c be
       -0.46253732 -0.13097411 -0.0005694868 -0.27441567
0000e0 4f 3e ce ba 3b 9c b4 ba e7 06 c6 bd 8a df 65 be
       -0.0015735122 -0.001377947 -0.09669285 -0.22448555
0000f0 57 06 08 bc 33 de f0 3f 88 c9 2b 40 29 4a 03 bf
       -0.008302293 1.881781 2.6841755 -0.51285034
000100 28 ff a9 be 07 77 7a bc ce d6 53 41 a0 ff 8a bb
       -0.3320248 -0.015287167 13.239943 -0.0042418987
000110 bb 40 b4 ba fe 06 aa 40 3d 5b 3d bc 57 a1 86 bf
       -0.0013752201 5.3133535 -0.011557397 -1.0517987
000120 56 75 7f be 69 94 68 be 8a 95 94 bb 9b b8 09 bb
       -0.24947104 -0.22712864 -0.004534428 -0.0021014574
000130 31 3c 46 ba 84 7f 2c c1 57 16 c4 bf b3 64 6f bb
       -0.000756207 -10.781132 -1.5319318 -0.0036528527
000140 ea 82 41 ba 29 3e 81 3f 6a f1 a9 b9 3d da 3e bb
       -0.00073818734 1.0097095 -0.0003241406 -0.002912178
000150 8c 8e d4 ba 98 8d 85 ba a3 d2 43 ba 70 57 1a bf
       -0.0016216799 -0.0010189293 -0.0007470047 -0.6028967
000160 e8 f2 95 41 1c d2 7c b9 23 b9 09 c0 21 7f 52 bf
       18.743607 -0.00024110865 -2.1519248 -0.82225233
000170 6e 53 f9 bd bd fa aa ba f1 e0 92 bb 73 28 2c be
       -0.12174116 -0.0013044697 -0.0044823815 -0.16812305
000180 ff eb 01 40 58 65 19 c0 06 2d 8b be ac d7 9e bf
       2.030029 -2.3968105 -0.27182788 -1.2409568
000190 f3 e2 0f bf 14 d0 93 be 31 dd a0 bd f8 c9 11 bf
       -0.5620567 -0.2886969 -0.07854689 -0.56948805
0001a0 fc 67 00 bc 6d a4 0a bf 3f 76 f1 bf c2 58 8f c0
       -0.007837292 -0.54157144 -1.8864211 -4.4795847
0001b0 62 fa e3 be c8 f1 58 40 5b 70 a4 bf 74 c3 48 bd
       -0.44526964 3.3897572 -1.2846788 -0.049014524
0001c0 8a 8e 05 bb 6a ed 53 be 89 f8 fc be 02 f1 e5 bb
       -0.002037915 -0.20696035 -0.49408367 -0.0070172558
0001d0 76 74 08 3f 3b a7 a5 b9 6c 63 ac 3e 98 fe 62 bd
       0.53302705 -0.0003159585 0.33669603 -0.05541858
0001e0 cc 9c b6 ba b0 1a 6f be 00 d9 72 b9 0d 9b b5 be
       -0.0013932227 -0.23350024 -0.00023159757 -0.35469857
0001f0 9a 79 87 be e2 bc 17 40 71 7d 42 ba 6a da 25 c1
       -0.26459962 2.3709035 -0.0007419205 -10.365824
000200 5b d1 29 bf ed 15 90 3f 41 be 9b 41 c8 9f a8 c0
       -0.66335076 1.1256691 19.467897 -5.2695045
000210 16 22 61 ba d5 f3 15 41 02 39 2d bb ff 02 1b bc
       -0.0008588148 9.372029 -0.0026431684 -0.009461164
000220 6a b7 56 ba db 13 ed 3d 33 43 d2 bf ef ee 2b bb
       -0.0008190783 0.11576053 -1.6426758 -0.0026234945
000230 32 67 bc bf e6 a7 8c 41 f5 98 2f bb 76 25 12 40
       -1.4718993 17.581982 -0.002679405 2.2835364
000240 0c b0 af be b4 4c 7f bd a8 e4 83 bf a6 4a 05 c1
       -0.34314 -0.06232901 -1.0304155 -8.330725
000250 f1 ce 46 bf 85 33 3e bb cd 3f 91 bb 8d ae d6 3f
       -0.7765952 -0.0029022407 -0.0044326545 1.6772019
000260 18 42 20 bf 6a 89 f6 bb 0b 82 32 bb 09 e4 1a bf
       -0.6260085 -0.0075237053 -0.0027238156 -0.60504204
000270 5e 16 50 3f dd cc 6d bb 24 c3 7f 3f 97 4a 0f bf
       0.8128413 -0.0036285438 0.99907136 -0.5597319
000280 54 5c 7a bf 51 0f 73 3f bd 5d 84 bb 98 7e e4 bb
       -0.9779713 0.94945246 -0.004039495 -0.006973099
000290 ee 33 83 bb 39 96 9b ba 56 3a 18 bc 73 32 f0 bd
       -0.0040039932 -0.0011870331 -0.009291252 -0.117283724
0002a0 a2 90 2e bb 5d 8a 2c ba b3 ca 1b 41 4d 0b f6 3f
       -0.00266365 -0.0006581897 9.736987 1.9222199
0002b0 c3 9f b3 bd 93 f0 99 be e6 8d 97 ba 9b 77 83 bc
       -0.087707065 -0.30066356 -0.0011562675 -0.016048243
0002c0 89 18 c0 bb aa 99 36 bf 51 4d 07 be f0 64 8a ba
       -0.0058623 -0.7132822 -0.13213088 -0.0010558646
0002d0 f5 b3 a5 c0 21 fc 46 bc 34 d7 bf 3f a0 63 44 bd
       -5.1782174 -0.012145073 1.498755 -0.047946572
0002e0 e0 c6 41 41 42 fb 40 bf c3 f2 9c bb c3 1c 81 40
       12.111053 -0.7538339 -0.0047896816 4.034761
0002f0 8e 5e c4 bb f3 31 a0 bb 1e 63 66 c0 9a a4 a7 41
       -0.005992717 -0.004888767 -3.5997996 20.955372
000300 0b 59 ba bb 80 0e a9 40 75 82 e7 bf 45 5a dc be
       -0.0056868843 5.28302 -1.8086687 -0.4303762
000310 d1 90 68 bf b3 7d 3c bc 72 21 16 c0 2a 17 04 40
       -0.9084597 -0.011504578 -2.3457913 2.0639138
000320 16 6c 31 bf e9 92 64 41 e3 f8 dc bb ff db 05 bc
       -0.6930555 14.285867 -0.006743537 -0.008170127
000330 db 3f 5f be e2 02 d7 be 0e ee c2 bb 71 24 74 3f
       -0.21801703 -0.41994387 -0.0059487885 0.95368105
000340 f2 65 5f bb 5a 54 4f bf 0d 84 bd be bd 42 89 bd
       -0.0034087864 -0.80988085 -0.3701481 -0.067021824
000350 4a 70 be be 1c 73 84 bb f3 79 13 40 87 df 35 bc
       -0.37195045 -0.0040420424 2.3043182 -0.011100656
000360 6b 43 b3 c0 1c 9f fb bb 4f 70 1e c0 e0 92 4f be
       -5.6019797 -0.0076788794 -2.4756048 -0.20270872
000370 fa e1 8f c0 97 bb f5 be 34 da 22 41 45 d4 06 bb
       -4.496335 -0.47994682 10.178272 -0.00205733
000380 cf e0 3a be 05 04 5c 3f 57 aa 0f 41 e2 35 89 ba
       -0.1824982 0.85943633 8.979087 -0.0010468329
000390 74 fd b1 b9 db 79 3e bf 3a c2 fe ba e7 45 1f bf
       -0.00033948908 -0.74404687 -0.0019436546 -0.6221604
0003a0 16 60 86 be ed 44 91 bb 7d e2 11 bf be 85 88 be
       -0.26245183 -0.0044332654 -0.5698622 -0.26664537
0003b0 1e 81 32 41 72 4b 8c 3f e2 06 8c 41 b5 60 04 ba
       11.156523 1.0960524 17.50336 -0.0005049811
0003c0 57 47 5b b9 d0 7e c3 be ba 92 1c bc 5d a2 b2 bd
       -0.00020912044 -0.38182688 -0.009556467 -0.087223746
0003d0 4e dd 58 40 ed c7 c0 b9 86 c1 4b bf 90 07 ea ba
       3.3885074 -0.0003677005 -0.7959217 -0.0017855037
0003e0 92 5e ae 3f 1d a5 8e be 4b e8 7c bd 10 ed aa be
       1.362261 -0.27860346 -0.06174497 -0.3338399
0003f0 88 ad c5 bf 19 39 c4 bf 2d 79 26 bf d3 15 11 ba
       -1.5443583 -1.5329925 -0.6502865 -0.0005534563

layers.2.weight f4 [64, 512]
000000 df 9b e0 bd 09 14 58 3d 37 34 72 bf b0 6f 94 be
       -0.1096723 0.052753482 -0.94610924 -0.2899146
000010 6a 9f 9c 3d 90 7e 43 3e d2 b5 ed 3c 80 49 7b 3e
       0.07647593 0.19091249 0.029017363 0.24539757
000020 0e 5e a9 bd 3d 41 86 3d 9c 80 b1 be 4e 4d 08 be
       -0.08269893 0.06555412 -0.34668434 -0.1331074
000030 8c 35 89 3c b8 61 e7 bc 81 82 98 3d ab f8 94 3b
       0.016749166 -0.028244838 0.07446767 0.004546245
000040 35 ac 86 bd 93 69 15 3d 34 a6 79 be 6a 17 64 3d
       -0.06575815 0.036477637 -0.24379808 0.055686392
000050 03 e2 d6 be 00 64 a7 be 06 25 14 bf cd d7 5b 3e
       -0.41969308 -0.3269348 -0.57868993 0.2146904
000060 85 3d 63 be ba fe 6e bd 44 57 1e 3d 3e 1d ae bc
       -0.22191437 -0.058348395 0.03865744 -0.021254178
000070 44 7d 85 be 4d 60 5e bd 8d c5 fe 3c 04 1f 6f bb
       -0.26072133 -0.05429106 0.031100059 -0.0036486993
000080 e0 07 7d 3e 32 0f 0b 3e d9 3c 25 3d 8f b0 06 bd
       0.24710035 0.13580015 0.040341232 -0.032883223
000090 ad 3d e7 be 11 e8 a5 3d a6 3b f2 bc 5f 55 6b be
       -0.45164242 0.08100904 -0.029569458 -0.22981785
0000a0 9f e9 82 3e 8f 1f 0e 3f b2 02 59 be 31 f6 e2 bd
       0.25568864 0.55516905 -0.21192434 -0.110821135
0000b0 e0 d8 75 bc bd fe 7c 3e 5c 22 fa bd a6 b4 10 bf
       -0.01500532 0.2470655 -0.12213585 -0.5652565
0000c0 bf cb 35 bf 27 99 30 3f dc cc ec 3c 21 55 2f be
       -0.71014017 0.6898369 0.028906278 -0.17122318
0000d0 21 8e 01 bd 78 6c 53 3d 52 69 9f 3d 9a f2 62 be
       -0.031629685 0.051617116 0.0778376 -0.22162858
0000e0 d7 f9 c1 3c 2e cc 98 be d1 a2 24 3d b1 ff 72 3d
       0.023678703 -0.29843277 0.040194336 0.059325878
0000f0 31 47 ca 3d 00 bd 44 3e 3b 89 ef 3e ff b7 51 bb
       0.0987686 0.19212723 0.46784386 -0.003200054
000100 44 25 15 bc c1 50 89 bd f4 fc 54 bf e9 f2 4b 3e
       -0.009103123 -0.06704856 -0.83198476 0.19916882
000110 54 a2 17 bd fa 36 16 be 3c e1 10 bd 6a 45 01 be
       -0.037020043 -0.1466941 -0.03537105 -0.12624136
000120 fb 32 a0 bc 2c 01 99 bd 1b c5 81 bd 96 71 9a bb
       -0.01955556 -0.07470927 -0.06336423 -0.0047132475
000130 a0 9d aa 3d d9 1a b2 bf 94 2b e0 3b 45 f7 b5 3d
       0.08330846 -1.3914443 0.0068411324 0.088850535
000140 26 02 77 bc 4d 2a d7 3d f5 e2 ef be ff 31 81 3c
       -0.015076196 0.10506115 -0.46852842 0.01577091
000150 59 2d fd 39 25 e5 3f 3d 5d 26 8c bd 71 b0 27 3d
       0.00048289707 0.04684939 -0.06843255 0.040939752
000160 15 eb 0e bf 93 dc 6c bd 13 f8 20 3e ca c9 5f 3e
       -0.55827457 -0.057827543 0.15719633 0.2185432
000170 39 f6 96 bc 10 3c 31 3d b5 93 03 3d fd a4 96 bd
       -0.018427955 0.04327017 0.032123286 -0.07355688
000180 25 41 64 be 80 0b 25 3e e0 36 9c bb 46 2d 37 bd
       -0.22290476 0.16117668 -0.004767284 -0.04472091
000190 e7 a8 c8 3c 2e aa 69 3d b6 e5 60 bd e7 53 44 bd
       0.024494601 0.05704706 -0.05490657 -0.047931578
0001a0 31 9a d5 bd d7 02 23 3d 54 70 d1 3d 30 78 95 bf
       -0.104298 0.03979763 0.10226503 -1.1677303
0001b0 79 38 42 bd cf a2 85 3f ea 1c 37 bf f3 37 47 c0
       -0.047417138 1.044031 -0.71528494 -3.1127899
0001c0 e6 99 96 bd a6 d3 9c 3c 82 7a a9 bd dc 86 a3 3c
       -0.073535725 0.01914389 -0.0827532 0.019961767
0001d0 66 ff 2b 3e 33 17 fe bc 0d f8 70 be 40 0b 1e 3d
       0.16796646 -0.031016922 -0.23532124 0.038584948
0001e0 40 2b 15 be 4e 87 5b 3c 71 c7 6f 3d 0a bb 02 bd
       -0.1456728 0.013398958 0.05853981 -0.031916656
0001f0 c0 09 01 3e 2d 81 0f bf ff 79 61 be ab 0b 85 be
       0.12601376 -0.5605648 -0.22019194 -0.25985464
000200 57 38 37 3d ff 23 9b be f3 31 a9 3e 49 e3 1a 3f
       0.044731464 -0.303009 0.3304592 0.6050306
000210 b2 c4 11 be f6 27 23 be 60 ae 02 3e bf 0f c6 be
       -0.1423519 -0.15933213 0.12761831 -0.38683888
000220 68 9a f9 3e 45 a2 13 bd db 06 b0 3d 2f 4f 1b 3c
       0.48750615 -0.036043424 0.085950576 0.009479328
000230 38 89 3f 3f 0c 92 95 bf 9e 58 27 bd 44 71 14 bf
       0.74818754 -1.1685195 -0.040855996 -0.5798533
000240 32 f0 41 bb e5 8b e9 3c 7e bf 39 be 16 4f 80 be
       -0.002959263 0.02850909 -0.18139455 -0.25060338
000250 a3 83 8f bd 8c ae 07 3e 0b 1a 84 3d 90 a3 2f be
       -0.070075296 0.13250178 0.0645028 -0.17152238
000260 1b 8d 85 3d aa 6d 08 3f fc db 41 3e 0f a2 67 bd
       0.06521054 0.53292334 0.18931574 -0.056551035
000270 b9 6d 60 bb 91 85 77 bd 11 97 34 3e 56 61 ce 3c
       -0.0034245087 -0.060430113 0.17635752 0.025192898
000280 eb 71 68 be 84 6c 6d bf d9 3e d8 3d e2 e7 1c bf
       -0.22699706 -0.92743707 0.10558862 -0.61291325
000290 12 ae 13 bc 23 28 54 3d 94 ac ac 3c 53 cd 5d 3d
       -0.00901367 0.05179609 0.021078385 0.05415089
0002a0 8e 52 9a 3d 40 43 3d bf e9 14 5b 3d bb 38 84 bd
       0.07535277 -0.7393074 0.05348674 -0.06456133
0002b0 e8 52 fe bd 75 dc da bc 69 2e 77 bd 64 24 b5 bc
       -0.12418157 -0.02671645 -0.060346995 -0.022112079
0002c0 76 45 fd 3d 60 cb ed 3d 36 5e 6b bd da fd c5 bc
       0.12366764 0.11611056 -0.057462893 -0.024168897
0002d0 45 f7 91 3e f7 48 28 bd 0b 23 a6 3e f5 1c 18 3d
       0.28508964 -0.04108521 0.3244861 0.03713699
0002e0 0e 9c fb 3e 2b 8e b7 bc bd 8d 5e be 84 1f 30 be
       0.49142498 -0.022406658 -0.21733756 -0.17199522
0002f0 fe 74 c6 bd 3a f9 c8 bd 23 b9 83 3f eb 36 bb bf
       -0.09690283 -0.09813161 1.0290874 -1.4626135
000300 8b ea 13 3e e2 70 ff 3e fa 1d 98 3e a1 ef 9a 3d
       0.1444494 0.4989081 0.2971037 0.07565237
000310 d5 81 e6 be 79 1b 13 3d ce 68 a4 3e 77 e6 d0 be
       -0.4502093 0.03591487 0.3211121 -0.4080083
000320 d4 87 1f 3c 76 7b b6 c0 9f 1a f3 bb 0d 43 ba bd
       0.009736974 -5.702571 -0.007418945 -0.0909482
000330 33 45 b7 bd 7f 82 47 be d7 60 90 be af 8d 10 3e
       -0.089487456 -0.19483374 -0.28198883 0.14116548
000340 02 8f ba bc f1 29 38 3c 49 4c d9 bc 7f a7 02 be
       -0.02277327 0.011240468 -0.026525633 -0.12759207
000350 83 c8 2a bd e9 2d aa bd 3f ae 22 3e d2 aa dc bd
       -0.04169513 -0.08309538 0.15886782 -0.10774769
000360 65 50 de be 97 09 b4 bd 16 c8 f1 3d 17 af 04 3d
       -0.4342071 -0.087908916 0.118057415 0.03239354
000370 04 23 1a bf a3 e0 66 bd 39 32 bb bf 30 bf 0d be
       -0.6020968 -0.056366574 -1.4624702 -0.13842463
000380 5f 16 91 3d 14 4a d3 3e 99 eb 22 3f fe 97 aa 3d
       0.07084345 0.41267455 0.63640743 0.083297715
000390 6e f7 1c be 97 08 9d bf 68 2c 8b b8 e3 96 32 bd
       -0.15328762 -1.2268246 -6.636308e-05 -0.043600928
0003a0 0a 73 93 3d cf 4c 24 bb a0 ae 85 3e 1b 37 1f 3e
       0.07199676 -0.0025070196 0.2610979 0.15548365
0003b0 16 7c bb bd b4 dc 9d 3d ac 1a 03 bf 3b f8 56 bc
       -0.09154527 0.077081114 -0.51212573 -0.013120706
0003c0 b4 67 24 be e9 3c e4 3d 76 ea d4 3b 83 c0 99 bc
       -0.16055185 0.1114443 0.0064976765 -0.018768555
0003d0 d1 df 95 3e c3 f8 e3 bd 3f 36 12 bd 31 0b 48 3c
       0.2927232 -0.11131432 -0.035696264 0.0122096995
0003e0 75 65 8c bf f6 80 60 3d c9 dd fe 3d 42 a4 b2 bc
       -1.0968462 0.054810487 0.12444646 -0.02180684
0003f0 e4 d6 13 bd 6a 26 24 be 0e ea 9b bb 6f 7b e4 be
       -0.036093608 -0.16030279 -0.004758126 -0.44625422

layers.2.bias f4 [64]
000000 de a7 56 40 55 27 93 40 eb 00 3e 3b 29 c6 60 bf
       3.3539958 4.5985513 0.0028992246 -0.8780237
000010 4b 15 69 40 b2 61 34 3c 2f b5 10 40 fc 29 85 3f
       3.6419246 0.0110096205 2.2610586 1.0403438
000020 d4 76 5f 40 70 aa 08 bd f1 e2 0d bd 8d 06 5d bd
       3.4916277 -0.033365667 -0.034640256 -0.053961325
000030 02 db b2 40 03 82 86 bb 8d e0 86 bd af ff 55 be
       5.5892344 -0.004104854 -0.065857984 -0.20898317
000040 df 13 a4 3f 3c 61 97 bd fd fa 30 bc 73 88 8e 3c
       1.2818564 -0.07391593 -0.010802028 0.017399048
000050 6c 9f 90 bc 56 29 f4 c0 59 b8 83 bf 95 bf 2c bd
       -0.017654143 -7.630046 -1.0290633 -0.042174894
000060 3e 6d 4f bd 08 e4 85 bd 45 55 aa c0 c5 67 8d bc
       -0.05064129 -0.06537634 -5.322909 -0.017261395
000070 df 01 57 41 ff 27 4f bd 04 dd 83 40 61 91 35 bb
       13.437957 -0.050575253 4.1207294 -0.002770506
000080 4d 14 74 c0 ec cc ac bc ca 13 61 bd 70 74 c6 c1
       -3.813739 -0.021093808 -0.054950513 -24.806854
000090 c5 ff d6 3f b3 fd 61 bc 10 09 a1 bd ec 02 e0 bc
       1.6796805 -0.013793397 -0.07863057 -0.027345143
0000a0 5a 57 32 bd d0 fd fa be 5f 90 53 bd a6 1d f5 3f
       -0.043540336 -0.4902177 -0.051651355 1.9149673
0000b0 16 a3 bf bd 71 95 61 bd 65 75 0a 3f 82 80 f7 3f
       -0.09357278 -0.05507416 0.5408538 1.9336092
0000c0 b5 3f 48 41 29 2c 95 bd ac 4f 1b bd 51 a3 58 3b
       12.515553 -0.072838135 -0.037917778 0.0033056329
0000d0 e0 1a 5c bd 85 68 71 bc 0e f1 fa bc 53 8f ac bd
       -0.053736567 -0.014734392 -0.030632522 -0.084257744
0000e0 5f 8d f6 bc a9 ef 5d bd a1 87 88 bd 95 d8 3e 3d
       -0.030096708 -0.054183636 -0.06666494 0.046593267
0000f0 64 9d 14 40 a9 1f d9 bf 79 e4 51 c1 2b 98 5e 3e
       2.3221064 -1.6962787 -13.118279 0.21737735

layers.3.weight f4 [64, 64]
000000 cd fd 96 be 53 a6 92 3e 70 fc b6 3c 31 b9 87 be
       -0.2949051 0.2864252 0.022337168 -0.26508477
000010 58 68 0d be e0 38 51 3d d1 9a 19 be d6 bc cb bd
       -0.13809335 0.05107963 -0.15000464 -0.09948127
000020 b2 fa 61 be ed 32 ed 3d 1c 63 c7 bd f4 4f a5 bd
       -0.22068289 0.11581979 -0.097357005 -0.080718905
000030 f7 3e b7 be 8a 7a fb bc 7a 32 61 bd 2f cf af 3a
       -0.35790226 -0.03069808 -0.05497978 0.0013413186
000040 0c a3 6e be 31 31 1a bc bc 7a 34 3c 5e d3 cf 3d
       -0.23304385 -0.009411142 0.01101559 0.10147737
000050 3a 18 f3 3d 68 e3 dc bd be 93 2d be 2f af 63 3d
       0.11869855 -0.10785562 -0.1695089 0.05558699
000060 38 df 2e bc ec 2d d1 bd 6b ab 98 bd f6 a3 41 bd
       -0.010673337 -0.10213837 -0.074545704 -0.047275506
000070 22 8e e7 bd 9c 50 9d 3d e6 b7 44 be 74 20 7b bd
       -0.113064066 0.07681391 -0.19210777 -0.061310247
000080 9c 59 78 bd 34 00 66 3d 7b 7b 17 bd 17 d2 4e be
       -0.060632333 0.056152537 -0.036982995 -0.2019733
000090 08 c8 8a bd 26 9d 6d 3d 96 33 05 bd 1f 78 d7 bd
       -0.06776434 0.058011197 -0.0325199 -0.10520958
0000a0 09 5d a8 bc 93 e8 16 be f8 07 01 bd 60 e6 0b bc
       -0.020552175 -0.14737158 -0.03150174 -0.008538812
0000b0 a2 59 53 3c 75 5d dd bd d4 05 64 3d d6 07 c9 be
       0.012899788 -0.10808841 0.05566962 -0.3926379
0000c0 16 d4 2f bd d1 d8 57 3d 39 60 0c bd 63 16 a1 3d
       -0.04292687 0.052697007 -0.034271453 0.07865598
0000d0 8e 67 50 3d 20 f9 72 3d e0 20 b4 bd 0e e2 63 3c
       0.050880007 0.059319615 -0.08795333 0.013908876
0000e0 6d bd 14 3c d0 17 61 bd 23 8d e2 3d 9b 21 e9 3b
       0.009078366 -0.05495435 0.11062076 0.007114602
0000f0 1f 61 89 be 1b ec 31 be 6c 34 9a be 00 64 ed be
       -0.2683191 -0.17375223 -0.3011812 -0.46365356
000100 93 b0 83 bd ef e8 3d bc ee 89 89 bd d9 7a f6 bb
       -0.06430163 -0.01159118 -0.06715761 -0.007521969
000110 9d 1d 68 bd 4e 7b 95 bd b6 15 0a bd 89 ff 4d bd
       -0.056668866 -0.07298909 -0.03371211 -0.050292525
000120 e9 7a 54 3c c5 52 b2 3d 7c da ff bd 5d a8 d0 bc
       0.012968757 0.08707193 -0.124928445 -0.025470907
000130 a5 86 df bc 79 a3 b6 3d dc fa 85 bd 32 a6 f0 bd
       -0.027285883 0.08917899 -0.06541988 -0.11750449
000140 22 ff 97 bc 21 61 ba bd dc 78 c5 bd 37 06 6b 3d
       -0.018554274 -0.09100557 -0.09642193 0.057378974
000150 45 b3 9e 3d cf 17 b9 bc 41 32 8c bd ff 68 ec bd
       0.07749037 -0.02259436 -0.06845523 -0.11543464
000160 cd e5 e3 bc 0a 04 46 bd a2 94 8a bd 4f 6f d8 bd
       -0.027819538 -0.048343696 -0.06766631 -0.105681054
000170 4b 57 2d 3c c6 04 99 bd 7e 2a 1f 3d 3e 11 e4 bd
       0.010579894 -0.074716136 0.038858883 -0.11136101
000180 f1 e3 e1 bd 25 c8 06 3d 01 2b 03 bd 02 51 f8 bc
       -0.110298045 0.032905716 -0.032023434 -0.030312065
000190 5d c8 22 be 06 ff f1 3d 8d 98 c6 3d 46 a3 de bd
       -0.15896745 0.1181622 0.096970655 -0.10870986
0001a0 91 2e f1 3d 5d d4 5c be 99 bb 89 bd 13 6a a9 be
       0.1177646 -0.21565385 -0.067252345 -0.3308874
0001b0 15 69 b4 3d 8b 4f 8c 3d a8 5d 16 be a7 e6 59 3b
       0.08809105 0.06851109 -0.14684165 0.0033249052
0001c0 e6 16 1c bc 75 c3 a6 3b 77 08 68 3d 1c e0 df bd
       -0.009526944 0.0050892183 0.056648698 -0.10931417
0001d0 cd 07 00 3e 5a 42 83 bc f4 e3 f2 bc 13 db bb bc
       0.12502976 -0.01602285 -0.029649712 -0.022931611
0001e0 cd 7d da 3c 70 2b 85 3d e9 2e b9 bc 3c be 43 3d
       0.026671315 0.06502426 -0.022605376 0.047788844
0001f0 02 0b 18 be 21 04 9a 3a f0 bf 1c bc 22 ea d6 3b
       -0.14847949 0.0011750498 -0.009567246 0.0065586725
000200 e5 ce 88 bd 3c b7 45 3d 7c c0 80 3d 7e 52 fe 3b
       -0.06680087 0.04827045 0.062867135 0.0077612987
000210 c8 ef 89 bd 40 16 a7 3c 8c ef ab bc 17 ae db bb
       -0.06735188 0.020396352 -0.020988248 -0.0067041027
000220 82 27 bb 3d 16 da e7 3d 5e 90 a9 bd 52 72 20 3d
       0.09138395 0.113208935 -0.08279489 0.039171524
000230 e4 84 08 be 1d cf 33 3d 71 c3 49 3d 60 72 d4 bd
       -0.13331944 0.04389869 0.049258653 -0.10373378
000240 d1 1b b7 bd e1 be bc bd 39 0b bc 3d 3c 23 a6 bd
       -0.089408524 -0.09216095 0.09181828 -0.08112189
000250 77 04 51 3c fc d1 9b 3d 41 67 86 bd 97 e3 c5 3d
       0.012757412 0.07608411 -0.06562663 0.0966255
000260 69 90 d1 3c 70 4d 05 be 4b c6 f6 bd f6 e6 00 bd
       0.025581555 -0.13017821 -0.1204954 -0.03147026
000270 8d 0d 42 bd 68 7d f6 3b e8 c3 0e bd eb a7 03 be
       -0.047376204 0.007522274 -0.0348548 -0.12857024
000280 0b bd a3 bd d1 dd bd 3d d5 87 f9 bd 97 4c d4 bd
       -0.079950415 0.09270824 -0.12184111 -0.10366171
000290 24 7c 5e bd df 4e c0 bd 91 a9 08 be 32 59 31 bc
       -0.05431761 -0.093900435 -0.13345934 -0.0108244885
0002a0 e6 c9 f8 bc b4 26 a1 bd 42 e4 15 bd 64 d8 1a be
       -0.03036971 -0.0786871 -0.036594637 -0.15121609
0002b0 72 5b 9e bd aa a8 0c bc e5 b9 90 bd e8 95 10 bd
       -0.077322856 -0.0085851345 -0.070667066 -0.03529921
0002c0 31 a0 35 3c 44 e5 7c 3b 0c c3 64 bd 2b 47 fb 3b
       0.011085556 0.0038588801 -0.055850074 0.007668396
0002d0 11 dc 3b 3c 73 dc a4 bd 70 a7 9b bd b1 e7 94 3d
       0.011466042 -0.0804986 -0.076002955 0.07270754
0002e0 80 d5 9d bd 40 ea 5c 3d d2 60 22 3d 1f 4d dc 3c
       -0.077067375 0.053934336 0.039643116 0.026892243
0002f0 c5 ff c4 bd 5f 07 f8 bd d8 4e ed 3c 67 c1 79 ba
       -0.09619097 -0.12110781 0.02896826 -0.00095274154
000300 a3 9e f7 3e 85 c9 65 bf 10 ea 5f 3d 9b 30 24 be
       0.48363218 -0.8976062 0.05466658 -0.16034167
000310 99 e0 9e 3d 5b c9 9e bd d9 bb cd be d9 c5 da 3d
       0.07757682 -0.07753249 -0.4018238 0.10682268
000320 c4 16 2c 3f dc 0d c2 bc 68 a6 67 3d 40 17 9a 3d
       0.6722224 -0.02368825 0.05655518 0.07523966
000330 f1 9b de 3d be ce 57 3c a1 31 ac 3b c2 37 a4 3d
       0.10869587 0.01317185 0.0052549397 0.080184475
000340 a4 1e 20 bf ba 39 d8 bd 66 9c 3b bd 5a ee 9f 3b
       -0.62546754 -0.105578855 -0.04580345 0.0048807086
000350 11 74 fb 3d a0 73 72 bf f4 a8 81 bd 54 c5 bc bd
       0.12277997 -0.9470768 -0.063310534 -0.09217325
000360 a8 1b 91 bc ea bf 8d bd 88 64 27 be 8e 22 6b bd
       -0.017713383 -0.0692137 -0.16346943 -0.057406
000370 e2 0e 21 be 2c f1 5e bd ff e8 2a be 54 71 db 3d
       -0.15728334 -0.05442922 -0.16690443 0.10714975
000380 b6 42 ab bf 7d 62 05 3e d4 d8 fe 3c e9 61 cd 3f
       -1.3379734 0.13025852 0.031109251 1.6045505
000390 7f 20 00 be 49 2a 40 be 94 43 c8 bd 85 b9 51 3c
       -0.12512396 -0.1876613 -0.097785145 0.012800579
0003a0 06 c3 ae 3d d6 ac 94 3e f3 db 97 bd 57 6b c6 bf
       0.085332915 0.29038113 -0.07414999 -1.5501508
0003b0 7b 15 b6 bd 8b cc eb bc a7 47 22 3d df b0 27 be
       -0.08890816 -0.028784057 0.039619114 -0.16376065
0003c0 c6 eb 44 be 9f 6a 14 3e 8c 6e b9 bd 3c 1e 18 be
       -0.19230565 0.14493798 -0.09054288 -0.14855283
0003d0 f5 31 0f 3e 01 d2 c5 3d d8 ad cf 3c c8 d1 d4 bd
       0.13983901 0.09659196 0.02535145 -0.10391575
0003e0 a4 9d 98 bd 29 96 d4 bd 98 31 fd bd 6d 67 f1 3b
       -0.074519426 -0.10380203 -0.12362975 0.0073670656
0003f0 9d 82 1a bf 4c b3 f9 bd 94 1a 92 bd 8a 28 67 be
       -0.6035555 -0.12192401 -0.071339756 -0.22574058

layers.3.bias f4 [64]
000000 02 14 d9 bd cf 9f 0c bb bb 19 1c be ad 14 17 3f
       -0.10599519 -0.0021457558 -0.1524419 0.59015924
000010 a9 06 52 bf ed d2 6c bf b2 99 ef be 4c 62 70 ba
       -0.8204141 -0.9250935 -0.46796948 -0.0009169921
000020 84 a8 e0 be 7b 6e b4 3f 83 90 00 c0 c1 66 48 bf
       -0.43878567 1.4096216 -2.0088203 -0.7828179
000030 8f 63 22 bf ac 0e 0e c0 b9 f0 09 40 40 32 00 c0
       -0.63433164 -2.2196455 2.1553175 -2.003067
000040 2e 8f 5a 40 3d ce a2 bc 81 97 49 be c4 c5 37 3f
       3.414989 -0.019873733 -0.196867 0.7178614
000050 34 f0 38 be 60 92 2a be c2 59 74 bc 47 43 8f bf
       -0.1806038 -0.166574 -0.014913978 -1.1192406
000060 3a 8c 50 bf 1b 6a 6e bf 2f 3a 59 be 55 dc 0f be
       -0.8146397 -0.93130654 -0.21213602 -0.14048894
000070 be 6f 65 bf cc 91 98 3d bf 08 38 be f3 43 4f be
       -0.8962363 0.074496835 -0.17972086 -0.20240764
000080 3f 67 91 bd 60 85 27 3e ab 06 01 ba c1 fd da bd
       -0.07099771 0.16359472 -0.0004921953 -0.10692931
000090 1b d4 46 bc 38 31 83 bc 68 45 84 c1 65 a0 47 c1
       -0.012135531 -0.01601468 -16.53389 -12.476659
0000a0 62 f4 f8 3f 8c 80 fe be b4 79 bc bc 89 13 88 3f
       1.944958 -0.49707448 -0.023007251 1.0630962
0000b0 75 68 12 bc 8e d8 97 3d 2b f2 1c 3f 96 08 5e 40
       -0.008936037 0.074143514 0.6130702 3.469274
0000c0 12 f0 17 bd 91 a1 56 bd 46 11 2a 3e f7 25 18 3f
       -0.037094183 -0.052400175 0.16608152 0.5943293
0000d0 4c 9a 77 3f 02 fa 76 c0 f0 13 27 bf 0c 40 44 bd
       0.96719813 -3.8590093 -0.652648 -0.047912642
0000e0 33 26 c6 be ad 84 ea c1 ac 9d 45 3e f2 54 ed bf
       -0.3870102 -29.314783 0.19298428 -1.8541548
0000f0 ee 18 9d bc 04 9d 22 3e c3 1b 87 be 75 9b e3 bd
       -0.019176926 0.15880209 -0.26388368 -0.111136355

layers.4.weight f4 [12, 64]
000000 df f3 45 3d 58 bb aa bd 67 15 88 bd 4c 71 9e 3d
       0.048328277 -0.08336514 -0.06644707 0.077364534
000010 25 3f eb 3c 3c 07 24 3b cb 53 06 3c 63 d1 28 bd
       0.028716633 0.0025028726 0.008198689 -0.04121531
000020 ee d2 be 3c 7b 95 03 3d 65 06 af 3a 5d a8 8d 3c
       0.023293938 0.032124978 0.0013353346 0.017292196
000030 e0 5f 93 ba b7 b0 1a 3b 8b 49 88 3a db 5c ed 3b
       -0.0011243783 0.0023603865 0.0010397894 0.0072437353
000040 2a 18 27 ba 17 73 89 bd 60 1d 20 3d 6c fa b1 bc
       -0.0006374145 -0.06711405 0.039090514 -0.021725856
000050 89 25 0b 3b 06 1f 67 bd bf 46 b5 bd 5c 41 05 ba
       0.002123209 -0.05642607 -0.08851384 -0.00050832867
000060 46 62 d2 3a 3e f1 45 39 da 78 ff bc bc 97 17 bd
       0.0016051016 0.00018877254 -0.031185556 -0.03700994
000070 33 05 1b bb ef 54 5f ba 4e 96 2f bb e1 a8 1a bc
       -0.0023654222 -0.0008519431 -0.002679247 -0.009439678
000080 20 2f a8 3d 59 0c b5 3c 2a 50 8e bd 06 ed 87 bd
       0.082121134 0.022100614 -0.06948884 -0.066370055
000090 6b 03 49 be 7e b2 da bd c8 20 dd 3d 5a 2a 55 3e
       -0.1963021 -0.10678576 0.10797268 0.20816937
0000a0 45 b2 31 3a f2 09 69 b9 65 94 64 bd 2e fe 6d b9
       0.00067785784 -0.00022224316 -0.055805583 -0.0002269677
0000b0 ed 08 ef bc 01 00 d2 3c 85 21 73 b8 68 61 77 39
       -0.02917906 0.025634767 -5.7966932e-05 0.00023592042
0000c0 f5 4f 3b 3a 1c 2f 67 3c a0 24 00 be 74 86 4d 3a
       0.00071453984 0.014110353 -0.12513971 0.00078401645
0000d0 c2 10 7e bd 9b 39 41 bb 45 b0 4b b9 99 2e 0d 3d
       -0.0620277 -0.0029483798 -0.00019425254 0.034468267
0000e0 32 d1 14 3c 83 f4 91 3c 92 db 92 bb 0b 03 e6 3a
       0.009083079 0.017816788 -0.004481741 0.0017548514
0000f0 85 4e 30 bc 92 07 78 3c 1f 3b 86 3c e5 d0 a5 bc
       -0.010760908 0.015138524 0.016385613 -0.02024121
000100 97 77 63 3c df e6 8f bc 8f b1 6d 3d 0d 05 e0 b9
       0.013883493 -0.017566143 0.05803066 -0.00042728373
000110 18 a9 21 3c 4f 46 33 bb 69 d6 12 bd d4 ce 24 bb
       0.009866975 -0.002735514 -0.03584901 -0.0025147693
000120 a0 0a 80 bd 2f bc e6 bb 5d 55 23 3e 7c 3e 46 bd
       -0.062520266 -0.007041476 0.15950532 -0.048399433
000130 44 ac ac ba 92 06 af 38 98 d2 d1 3a eb 02 06 3c
       -0.0013173898 8.345874e-05 0.0016008196 0.008179407
000140 b0 4f 2e 3c d0 75 ce bc 12 6f 2e 3c 7a 7b 03 bd
       0.010639116 -0.025202662 0.010646598 -0.03210018
000150 ad a3 99 bb f9 90 19 bc 25 52 15 3c 3a 15 2f ba
       -0.004688701 -0.009372943 0.009113823 -0.0006678883
000160 1e 46 bd ba d3 95 ff ba 74 1f df 3c 9a 58 a9 3c
       -0.0014440452 -0.0019499607 0.027236678 0.020672131
000170 a8 b3 f2 3a 42 f6 7f 3a 23 5a d0 3c ed 57 17 3d
       0.0018516677 0.00097641733 0.025433606 0.036949087
000180 4d 67 8e bd 1d 63 fb bb 4e e3 da bb d2 e2 1a be
       -0.06953297 -0.0076717273 -0.006679929 -0.15125588
000190 67 e8 b4 3d 3a f4 16 3d 4c 33 3f 3c 5b 0c 3b 3b
       0.0883339 0.036854006 0.011669945 0.00285413
0001a0 43 31 b2 3a a3 c0 6a b9 86 4b 28 bc 48 38 0b 3a
       0.0013595003 -0.00022387742 -0.010271912 0.0005310816
0001b0 b6 a2 fa bc 6b a5 b3 bb 17 2f 0b 3a ae 96 24 ba
       -0.030595165 -0.005482366 0.0005309446 -0.00062785565
0001c0 a9 a3 56 3a 5a ba e1 b9 99 97 02 be 72 dc ed 3a
       0.00081878394 -0.00043054187 -0.12753142 0.0018147363
0001d0 51 d1 e1 bb a0 ff ee 37 13 9d 06 3b 0d 54 b2 3b
       -0.0068914075 2.8490846e-05 0.00205404 0.0054421485
0001e0 b7 fc 54 3a c3 c8 5e bc 5b 0e 65 3b cb 75 a9 3b
       0.00081248156 -0.01359767 0.0034951183 0.0051715127
0001f0 4c cb 04 bd db 5e 3b bc c9 b5 e0 bb c4 05 d0 3d
       -0.03242044 -0.0114361895 -0.006857608 0.1015735
000200 84 1e 3f 3d 63 83 0b bd 26 ce 05 bd 72 9f 09 3c
       0.04665996 -0.034060847 -0.0326673 0.008399831
000210 a8 1e 19 bd 80 5d 63 bc 39 6c 02 bd 35 aa 7f bd
       -0.03738275 -0.013877273 -0.03184149 -0.06241818
000220 f1 78 89 bc 1c 24 86 bc 91 4f f3 3c 2a 65 56 bc
       -0.016781302 -0.01637464 0.029701026 -0.013085643
000230 dd b7 99 3f f3 f4 99 3b 11 c7 07 3c 15 9b 0b 3c
       1.2009236 0.0046983897 0.008287207 0.008520861
000240 c7 1e 3f 3e 59 69 23 bc dc a5 aa 3a be 4a 1c bd
       0.18664084 -0.009973847 0.0013019401 -0.038157217
000250 ab 5a 64 3b 6b e4 a5 3d 9f 14 2c bd 0a f6 a7 bb
       0.0034844081 0.08100208 -0.042011853 -0.0051257657
000260 ee ac 98 3c 09 7b 35 3e 3c 43 4f 3d a0 7a dd bd
       0.018637147 0.17722715 0.05060123 -0.108144045
000270 fe 72 ce ba 57 c2 be bb ae a2 19 3d 54 f5 97 3a
       -0.0015750823 -0.005821507 0.03750866 0.0011593499
000280 15 22 68 3b 30 15 03 3d 52 76 cd bc 68 05 e5 bc
       0.0035420705 0.032002628 -0.025080834 -0.02795668
000290 79 32 3e be b5 d7 f8 bc 17 21 0f bb ca f0 34 3c
       -0.18573941 -0.030376295 -0.0021839791 0.011043737
0002a0 f5 b4 7b 3b c8 69 c0 3c a3 5f 08 be 18 c4 ae 3c
       0.003840742 0.02348794 -0.13317733 0.02133374
0002b0 93 f5 bb 3d fc 81 9b 3b b9 7b 56 3d c9 51 b3 3c
       0.09177699 0.00474572 0.052364085 0.021889584
0002c0 0b 60 75 bc 7c 0a bd 3b c4 fc bd bb b6 f0 15 3b
       -0.014976512 0.005769072 -0.0057979543 0.002287907
0002d0 29 ba 17 bd 48 0c 27 3c 6c c9 04 3c 20 18 cc 3b
       -0.03704277 0.010195799 0.008104663 0.006228462
0002e0 8d 62 91 3d 49 78 57 bc 81 f3 26 bd eb e2 c8 3c
       0.07098875 -0.013151237 -0.040759567 0.024522265
0002f0 3a 34 68 bd 6d b0 2d bc b3 c6 0c bd 7b 32 aa 3d
       -0.056690432 -0.010601145 -0.03436918 0.0831041
000300 9e 2b 3a bc a3 51 47 3d c6 46 63 bd 4e b6 53 bc
       -0.011362938 0.04866184 -0.055487417 -0.012921883
000310 45 3e 84 bd c6 14 a0 b9 3c 20 41 bd 8e 63 c2 bd
       -0.064571895 -0.00030533056 -0.04714988 -0.09491645
000320 c8 1e 2e 3d 89 72 88 3b 24 aa 10 ba dc e5 ca 3c
       0.042509824 0.0041640443 -0.0005518517 0.024767809
000330 16 84 24 b9 32 e3 65 3e 90 76 99 3a 17 3b 71 ba
       -0.00015689465 0.2244995 0.0011708308 -0.00092022255
000340 d7 5a 82 ba 97 14 23 3c a8 f9 92 3d 13 38 ee bc
       -0.0009945285 0.0099536395 0.071765244 -0.029079473
000350 6a 21 eb bb 01 e5 81 bd b7 d6 9f 3d ec 07 38 38
       -0.007175614 -0.06342507 0.078046255 4.3876396e-05
000360 89 45 c4 39 58 e1 6b 3a c0 99 a7 bd 75 32 0a bc
       0.0003743584 0.00089981174 -0.08183622 -0.008434881
000370 0d db 7b ba e8 e6 23 39 b6 a2 7e 3d c9 f1 5a bd
       -0.0009607531 0.0001563091 0.062166892 -0.05345324
000380 40 44 8a bd 7f c6 85 3c 87 36 f3 3c fb d7 5c 3d
       -0.06751299 0.016330002 0.029689087 0.053916913
000390 2c b0 a1 bd b1 aa 4f 3d a3 02 6e 3b ca b0 17 b9
       -0.0789493 0.050699893 0.003631749 -0.00014466341
0003a0 57 7e 36 ba ee 2d 01 3b b0 fd 9f bd 74 67 6a 3a
       -0.0006961575 0.0019711214 -0.07812059 0.00089418073
0003b0 1b fe 83 ba 0d 01 69 bd 76 6f b9 39 77 10 9a b9
       -0.0010070236 -0.056885768 0.00035368995 -0.00029385436
0003c0 bc e0 28 3a 0a 40 b0 bd 50 f5 6a bd b0 ca 19 bb
       0.00064421794 -0.086059645 -0.057362854 -0.0023466758
0003d0 0f 3a cd bc 7c 23 9c 3b 73 3e 84 3b b6 2b b3 bb
       -0.025052099 0.0047649723 0.004035765 -0.0054678572
0003e0 3d f0 15 3c ae 7c 5a 3b 1f a7 98 3a e8 a4 ed 39
       0.009151516 0.0033338475 0.0011646486 0.00045327027
0003f0 de 48 a0 bc 41 96 78 bb 1e 44 e1 bc 57 67 17 3c
       -0.019565996 -0.0037931355 -0.027498301 0.009240947

layers.4.bias f4 [12]
000000 d4 4c 6b 39 7a f3 bb bc 9b 55 2f bf a7 fb 17 bc
       0.00022439967 -0.022943247 -0.6849 -0.009276307
000010 a1 61 7e be 73 8b 88 bf b9 0d c6 bf 7c 46 3d bf
       -0.2484193 -1.0667557 -1.5472938 -0.73935676
000020 91 a3 3d 3f 9a 10 31 40 77 48 0f 40 28 1d b5 40
       0.7407771 2.7666383 2.238798 5.659809
